{"format": "graph-model", "generatedBy": "2.8.2", "convertedBy": "TensorFlow.js Converter v3.17.0", "signature": {"inputs": {"text_vectorization_input": {"name": "text_vectorization_input:0", "dtype": "DT_STRING", "tensorShape": {"dim": [{"size": "-1"}]}}}, "outputs": {"dense_1": {"name": "Identity:0", "dtype": "DT_FLOAT", "tensorShape": {"dim": [{"size": "-1"}, {"size": "2"}]}}}}, "modelTopology": {"node": [{"name": "StatefulPartitionedCall/sequential/bidirectional/forward_lstm/PartitionedCall/TensorArrayV2_1/element_shape", "op": "Const", "attr": {"value": {"tensor": {"dtype": "DT_INT32", "tensorShape": {"dim": [{"size": "2"}]}}}, "dtype": {"type": "DT_INT32"}}}, {"name": "StatefulPartitionedCall/sequential/bidirectional/forward_lstm/PartitionedCall/TensorArrayUnstack/TensorListFromTensor/element_shape", "op": "Const", "attr": {"dtype": {"type": "DT_INT32"}, "value": {"tensor": {"dtype": "DT_INT32", "tensorShape": {"dim": [{"size": "2"}]}}}}}, {"name": "StatefulPartitionedCall/sequential/bidirectional/forward_lstm/PartitionedCall/ExpandDims/dim", "op": "Const", "attr": {"dtype": {"type": "DT_INT32"}, "value": {"tensor": {"dtype": "DT_INT32", "tensorShape": {}}}}}, {"name": "StatefulPartitionedCall/sequential/bidirectional/forward_lstm/PartitionedCall/transpose_1/perm", "op": "Const", "attr": {"value": {"tensor": {"dtype": "DT_INT32", "tensorShape": {"dim": [{"size": "3"}]}}}, "dtype": {"type": "DT_INT32"}}}, {"name": "StatefulPartitionedCall/sequential/bidirectional/forward_lstm/PartitionedCall/TensorArrayUnstack_1/TensorListFromTensor/element_shape", "op": "Const", "attr": {"dtype": {"type": "DT_INT32"}, "value": {"tensor": {"dtype": "DT_INT32", "tensorShape": {"dim": [{"size": "2"}]}}}}}, {"name": "StatefulPartitionedCall/sequential/bidirectional/forward_lstm/zeros_1/packed/1", "op": "Const", "attr": {"value": {"tensor": {"dtype": "DT_INT32", "tensorShape": {}}}, "dtype": {"type": "DT_INT32"}}}, {"name": "StatefulPartitionedCall/sequential/bidirectional/forward_lstm/zeros_1/Const", "op": "Const", "attr": {"value": {"tensor": {"dtype": "DT_FLOAT", "tensorShape": {}}}, "dtype": {"type": "DT_FLOAT"}}}, {"name": "StatefulPartitionedCall/sequential/bidirectional/forward_lstm/PartitionedCall/split/split_dim", "op": "Const", "attr": {"dtype": {"type": "DT_INT32"}, "value": {"tensor": {"dtype": "DT_INT32", "tensorShape": {}}}}}, {"name": "StatefulPartitionedCall/sequential/bidirectional/forward_lstm/PartitionedCall/strided_slice_1/stack", "op": "Const", "attr": {"value": {"tensor": {"dtype": "DT_INT32", "tensorShape": {"dim": [{"size": "1"}]}}}, "dtype": {"type": "DT_INT32"}}}, {"name": "StatefulPartitionedCall/sequential/bidirectional/forward_lstm/PartitionedCall/strided_slice_1/stack_1", "op": "Const", "attr": {"dtype": {"type": "DT_INT32"}, "value": {"tensor": {"dtype": "DT_INT32", "tensorShape": {"dim": [{"size": "1"}]}}}}}, {"name": "StatefulPartitionedCall/sequential/bidirectional/forward_lstm/PartitionedCall/strided_slice_1/stack_2", "op": "Const", "attr": {"value": {"tensor": {"dtype": "DT_INT32", "tensorShape": {"dim": [{"size": "1"}]}}}, "dtype": {"type": "DT_INT32"}}}, {"name": "StatefulPartitionedCall/sequential/bidirectional/forward_lstm/Read/ReadVariableOp", "op": "Const", "attr": {"dtype": {"type": "DT_FLOAT"}, "value": {"tensor": {"dtype": "DT_FLOAT", "tensorShape": {"dim": [{"size": "64"}, {"size": "256"}]}}}}}, {"name": "StatefulPartitionedCall/sequential/bidirectional/forward_lstm/strided_slice/stack", "op": "Const", "attr": {"dtype": {"type": "DT_INT32"}, "value": {"tensor": {"dtype": "DT_INT32", "tensorShape": {"dim": [{"size": "1"}]}}}}}, {"name": "StatefulPartitionedCall/sequential/bidirectional/forward_lstm/strided_slice/stack_1", "op": "Const", "attr": {"value": {"tensor": {"dtype": "DT_INT32", "tensorShape": {"dim": [{"size": "1"}]}}}, "dtype": {"type": "DT_INT32"}}}, {"name": "StatefulPartitionedCall/sequential/bidirectional/forward_lstm/strided_slice/stack_2", "op": "Const", "attr": {"value": {"tensor": {"dtype": "DT_INT32", "tensorShape": {"dim": [{"size": "1"}]}}}, "dtype": {"type": "DT_INT32"}}}, {"name": "StatefulPartitionedCall/sequential/bidirectional/forward_lstm/zeros/packed/1", "op": "Const", "attr": {"dtype": {"type": "DT_INT32"}, "value": {"tensor": {"dtype": "DT_INT32", "tensorShape": {}}}}}, {"name": "StatefulPartitionedCall/sequential/bidirectional/forward_lstm/zeros/Const", "op": "Const", "attr": {"dtype": {"type": "DT_FLOAT"}, "value": {"tensor": {"dtype": "DT_FLOAT", "tensorShape": {}}}}}, {"name": "StatefulPartitionedCall/sequential/bidirectional/forward_lstm/Read_1/ReadVariableOp", "op": "Const", "attr": {"dtype": {"type": "DT_FLOAT"}, "value": {"tensor": {"dtype": "DT_FLOAT", "tensorShape": {"dim": [{"size": "64"}, {"size": "256"}]}}}}}, {"name": "StatefulPartitionedCall/sequential/bidirectional/forward_lstm/Read_2/ReadVariableOp", "op": "Const", "attr": {"dtype": {"type": "DT_FLOAT"}, "value": {"tensor": {"dtype": "DT_FLOAT", "tensorShape": {"dim": [{"size": "256"}]}}}}}, {"name": "StatefulPartitionedCall/sequential/bidirectional/forward_lstm/PartitionedCall/time", "op": "Const", "attr": {"value": {"tensor": {"dtype": "DT_INT32", "tensorShape": {}}}, "dtype": {"type": "DT_INT32"}}}, {"name": "StatefulPartitionedCall/sequential/bidirectional/forward_lstm/PartitionedCall/transpose/perm", "op": "Const", "attr": {"dtype": {"type": "DT_INT32"}, "value": {"tensor": {"dtype": "DT_INT32", "tensorShape": {"dim": [{"size": "3"}]}}}}}, {"name": "StatefulPartitionedCall/sequential/bidirectional/forward_lstm/PartitionedCall/strided_slice/stack", "op": "Const", "attr": {"dtype": {"type": "DT_INT32"}, "value": {"tensor": {"dtype": "DT_INT32", "tensorShape": {"dim": [{"size": "1"}]}}}}}, {"name": "StatefulPartitionedCall/sequential/bidirectional/forward_lstm/PartitionedCall/strided_slice/stack_1", "op": "Const", "attr": {"value": {"tensor": {"dtype": "DT_INT32", "tensorShape": {"dim": [{"size": "1"}]}}}, "dtype": {"type": "DT_INT32"}}}, {"name": "StatefulPartitionedCall/sequential/bidirectional/forward_lstm/PartitionedCall/strided_slice/stack_2", "op": "Const", "attr": {"dtype": {"type": "DT_INT32"}, "value": {"tensor": {"dtype": "DT_INT32", "tensorShape": {"dim": [{"size": "1"}]}}}}}, {"name": "StatefulPartitionedCall/sequential/bidirectional/forward_lstm/PartitionedCall/while/loop_counter", "op": "Const", "attr": {"dtype": {"type": "DT_INT32"}, "value": {"tensor": {"dtype": "DT_INT32", "tensorShape": {}}}}}, {"name": "StatefulPartitionedCall/sequential/bidirectional/forward_lstm/PartitionedCall/TensorArrayV2Stack/TensorListStack/element_shape", "op": "Const", "attr": {"dtype": {"type": "DT_INT32"}, "value": {"tensor": {"dtype": "DT_INT32", "tensorShape": {"dim": [{"size": "2"}]}}}}}, {"name": "StatefulPartitionedCall/sequential/bidirectional/forward_lstm/PartitionedCall/strided_slice_2/stack", "op": "Const", "attr": {"dtype": {"type": "DT_INT32"}, "value": {"tensor": {"dtype": "DT_INT32", "tensorShape": {"dim": [{"size": "1"}]}}}}}, {"name": "StatefulPartitionedCall/sequential/bidirectional/forward_lstm/PartitionedCall/strided_slice_2/stack_1", "op": "Const", "attr": {"value": {"tensor": {"dtype": "DT_INT32", "tensorShape": {"dim": [{"size": "1"}]}}}, "dtype": {"type": "DT_INT32"}}}, {"name": "StatefulPartitionedCall/sequential/bidirectional/forward_lstm/PartitionedCall/strided_slice_2/stack_2", "op": "Const", "attr": {"dtype": {"type": "DT_INT32"}, "value": {"tensor": {"dtype": "DT_INT32", "tensorShape": {"dim": [{"size": "1"}]}}}}}, {"name": "StatefulPartitionedCall/sequential/bidirectional/backward_lstm/PartitionedCall/TensorArrayV2_1/element_shape", "op": "Const", "attr": {"dtype": {"type": "DT_INT32"}, "value": {"tensor": {"dtype": "DT_INT32", "tensorShape": {"dim": [{"size": "2"}]}}}}}, {"name": "StatefulPartitionedCall/sequential/bidirectional/backward_lstm/PartitionedCall/ReverseV2/axis", "op": "Const", "attr": {"value": {"tensor": {"dtype": "DT_INT32", "tensorShape": {"dim": [{"size": "1"}]}}}, "dtype": {"type": "DT_INT32"}}}, {"name": "StatefulPartitionedCall/sequential/bidirectional/backward_lstm/PartitionedCall/TensorArrayUnstack/TensorListFromTensor/element_shape", "op": "Const", "attr": {"dtype": {"type": "DT_INT32"}, "value": {"tensor": {"dtype": "DT_INT32", "tensorShape": {"dim": [{"size": "2"}]}}}}}, {"name": "StatefulPartitionedCall/sequential/embedding/NotEqual/y", "op": "Const", "attr": {"value": {"tensor": {"dtype": "DT_INT64", "tensorShape": {}}}, "dtype": {"type": "DT_INT64"}}}, {"name": "StatefulPartitionedCall/sequential/bidirectional/backward_lstm/PartitionedCall/ExpandDims/dim", "op": "Const", "attr": {"value": {"tensor": {"dtype": "DT_INT32", "tensorShape": {}}}, "dtype": {"type": "DT_INT32"}}}, {"name": "StatefulPartitionedCall/sequential/bidirectional/backward_lstm/PartitionedCall/transpose_1/perm", "op": "Const", "attr": {"dtype": {"type": "DT_INT32"}, "value": {"tensor": {"dtype": "DT_INT32", "tensorShape": {"dim": [{"size": "3"}]}}}}}, {"name": "StatefulPartitionedCall/sequential/bidirectional/backward_lstm/PartitionedCall/ReverseV2_1/axis", "op": "Const", "attr": {"dtype": {"type": "DT_INT32"}, "value": {"tensor": {"dtype": "DT_INT32", "tensorShape": {"dim": [{"size": "1"}]}}}}}, {"name": "StatefulPartitionedCall/sequential/bidirectional/backward_lstm/PartitionedCall/TensorArrayUnstack_1/TensorListFromTensor/element_shape", "op": "Const", "attr": {"dtype": {"type": "DT_INT32"}, "value": {"tensor": {"dtype": "DT_INT32", "tensorShape": {"dim": [{"size": "2"}]}}}}}, {"name": "StatefulPartitionedCall/sequential/bidirectional/backward_lstm/zeros_1/packed/1", "op": "Const", "attr": {"dtype": {"type": "DT_INT32"}, "value": {"tensor": {"dtype": "DT_INT32", "tensorShape": {}}}}}, {"name": "StatefulPartitionedCall/sequential/bidirectional/backward_lstm/zeros_1/Const", "op": "Const", "attr": {"dtype": {"type": "DT_FLOAT"}, "value": {"tensor": {"dtype": "DT_FLOAT", "tensorShape": {}}}}}, {"name": "StatefulPartitionedCall/sequential/bidirectional/backward_lstm/PartitionedCall/split/split_dim", "op": "Const", "attr": {"dtype": {"type": "DT_INT32"}, "value": {"tensor": {"dtype": "DT_INT32", "tensorShape": {}}}}}, {"name": "StatefulPartitionedCall/sequential/bidirectional/backward_lstm/PartitionedCall/strided_slice_1/stack", "op": "Const", "attr": {"value": {"tensor": {"dtype": "DT_INT32", "tensorShape": {"dim": [{"size": "1"}]}}}, "dtype": {"type": "DT_INT32"}}}, {"name": "StatefulPartitionedCall/sequential/bidirectional/backward_lstm/PartitionedCall/strided_slice_1/stack_1", "op": "Const", "attr": {"value": {"tensor": {"dtype": "DT_INT32", "tensorShape": {"dim": [{"size": "1"}]}}}, "dtype": {"type": "DT_INT32"}}}, {"name": "StatefulPartitionedCall/sequential/bidirectional/backward_lstm/PartitionedCall/strided_slice_1/stack_2", "op": "Const", "attr": {"dtype": {"type": "DT_INT32"}, "value": {"tensor": {"dtype": "DT_INT32", "tensorShape": {"dim": [{"size": "1"}]}}}}}, {"name": "StatefulPartitionedCall/sequential/bidirectional/backward_lstm/Read/ReadVariableOp", "op": "Const", "attr": {"value": {"tensor": {"dtype": "DT_FLOAT", "tensorShape": {"dim": [{"size": "64"}, {"size": "256"}]}}}, "dtype": {"type": "DT_FLOAT"}}}, {"name": "StatefulPartitionedCall/sequential/bidirectional/backward_lstm/strided_slice/stack", "op": "Const", "attr": {"value": {"tensor": {"dtype": "DT_INT32", "tensorShape": {"dim": [{"size": "1"}]}}}, "dtype": {"type": "DT_INT32"}}}, {"name": "StatefulPartitionedCall/sequential/bidirectional/backward_lstm/strided_slice/stack_1", "op": "Const", "attr": {"dtype": {"type": "DT_INT32"}, "value": {"tensor": {"dtype": "DT_INT32", "tensorShape": {"dim": [{"size": "1"}]}}}}}, {"name": "StatefulPartitionedCall/sequential/bidirectional/backward_lstm/strided_slice/stack_2", "op": "Const", "attr": {"dtype": {"type": "DT_INT32"}, "value": {"tensor": {"dtype": "DT_INT32", "tensorShape": {"dim": [{"size": "1"}]}}}}}, {"name": "StatefulPartitionedCall/sequential/bidirectional/backward_lstm/zeros/packed/1", "op": "Const", "attr": {"dtype": {"type": "DT_INT32"}, "value": {"tensor": {"dtype": "DT_INT32", "tensorShape": {}}}}}, {"name": "StatefulPartitionedCall/sequential/bidirectional/backward_lstm/zeros/Const", "op": "Const", "attr": {"dtype": {"type": "DT_FLOAT"}, "value": {"tensor": {"dtype": "DT_FLOAT", "tensorShape": {}}}}}, {"name": "StatefulPartitionedCall/sequential/bidirectional/backward_lstm/Read_1/ReadVariableOp", "op": "Const", "attr": {"dtype": {"type": "DT_FLOAT"}, "value": {"tensor": {"dtype": "DT_FLOAT", "tensorShape": {"dim": [{"size": "64"}, {"size": "256"}]}}}}}, {"name": "StatefulPartitionedCall/sequential/bidirectional/backward_lstm/Read_2/ReadVariableOp", "op": "Const", "attr": {"value": {"tensor": {"dtype": "DT_FLOAT", "tensorShape": {"dim": [{"size": "256"}]}}}, "dtype": {"type": "DT_FLOAT"}}}, {"name": "StatefulPartitionedCall/sequential/bidirectional/backward_lstm/PartitionedCall/time", "op": "Const", "attr": {"value": {"tensor": {"dtype": "DT_INT32", "tensorShape": {}}}, "dtype": {"type": "DT_INT32"}}}, {"name": "StatefulPartitionedCall/sequential/bidirectional/backward_lstm/PartitionedCall/transpose/perm", "op": "Const", "attr": {"value": {"tensor": {"dtype": "DT_INT32", "tensorShape": {"dim": [{"size": "3"}]}}}, "dtype": {"type": "DT_INT32"}}}, {"name": "StatefulPartitionedCall/sequential/bidirectional/backward_lstm/PartitionedCall/strided_slice/stack", "op": "Const", "attr": {"dtype": {"type": "DT_INT32"}, "value": {"tensor": {"dtype": "DT_INT32", "tensorShape": {"dim": [{"size": "1"}]}}}}}, {"name": "StatefulPartitionedCall/sequential/bidirectional/backward_lstm/PartitionedCall/strided_slice/stack_1", "op": "Const", "attr": {"value": {"tensor": {"dtype": "DT_INT32", "tensorShape": {"dim": [{"size": "1"}]}}}, "dtype": {"type": "DT_INT32"}}}, {"name": "StatefulPartitionedCall/sequential/bidirectional/backward_lstm/PartitionedCall/strided_slice/stack_2", "op": "Const", "attr": {"value": {"tensor": {"dtype": "DT_INT32", "tensorShape": {"dim": [{"size": "1"}]}}}, "dtype": {"type": "DT_INT32"}}}, {"name": "StatefulPartitionedCall/sequential/bidirectional/backward_lstm/PartitionedCall/while/loop_counter", "op": "Const", "attr": {"value": {"tensor": {"dtype": "DT_INT32", "tensorShape": {}}}, "dtype": {"type": "DT_INT32"}}}, {"name": "StatefulPartitionedCall/sequential/bidirectional/backward_lstm/PartitionedCall/TensorArrayV2Stack/TensorListStack/element_shape", "op": "Const", "attr": {"dtype": {"type": "DT_INT32"}, "value": {"tensor": {"dtype": "DT_INT32", "tensorShape": {"dim": [{"size": "2"}]}}}}}, {"name": "StatefulPartitionedCall/sequential/bidirectional/backward_lstm/PartitionedCall/strided_slice_2/stack", "op": "Const", "attr": {"dtype": {"type": "DT_INT32"}, "value": {"tensor": {"dtype": "DT_INT32", "tensorShape": {"dim": [{"size": "1"}]}}}}}, {"name": "StatefulPartitionedCall/sequential/bidirectional/backward_lstm/PartitionedCall/strided_slice_2/stack_1", "op": "Const", "attr": {"dtype": {"type": "DT_INT32"}, "value": {"tensor": {"dtype": "DT_INT32", "tensorShape": {"dim": [{"size": "1"}]}}}}}, {"name": "StatefulPartitionedCall/sequential/bidirectional/backward_lstm/PartitionedCall/strided_slice_2/stack_2", "op": "Const", "attr": {"dtype": {"type": "DT_INT32"}, "value": {"tensor": {"dtype": "DT_INT32", "tensorShape": {"dim": [{"size": "1"}]}}}}}, {"name": "StatefulPartitionedCall/sequential/bidirectional/concat/axis", "op": "Const", "attr": {"value": {"tensor": {"dtype": "DT_INT32", "tensorShape": {}}}, "dtype": {"type": "DT_INT32"}}}, {"name": "StatefulPartitionedCall/sequential/dense/MatMul/ReadVariableOp", "op": "Const", "attr": {"value": {"tensor": {"dtype": "DT_FLOAT", "tensorShape": {"dim": [{"size": "128"}, {"size": "64"}]}}}, "dtype": {"type": "DT_FLOAT"}}}, {"name": "StatefulPartitionedCall/sequential/dense/BiasAdd/ReadVariableOp", "op": "Const", "attr": {"value": {"tensor": {"dtype": "DT_FLOAT", "tensorShape": {"dim": [{"size": "64"}]}}}, "dtype": {"type": "DT_FLOAT"}}}, {"name": "StatefulPartitionedCall/sequential/dense_1/MatMul/ReadVariableOp", "op": "Const", "attr": {"dtype": {"type": "DT_FLOAT"}, "value": {"tensor": {"dtype": "DT_FLOAT", "tensorShape": {"dim": [{"size": "64"}, {"size": "2"}]}}}}}, {"name": "StatefulPartitionedCall/sequential/dense_1/BiasAdd/ReadVariableOp", "op": "Const", "attr": {"dtype": {"type": "DT_FLOAT"}, "value": {"tensor": {"dtype": "DT_FLOAT", "tensorShape": {"dim": [{"size": "2"}]}}}}}, {"name": "unknown_3", "op": "Const", "attr": {"value": {"tensor": {"dtype": "DT_FLOAT", "tensorShape": {"dim": [{"size": "1000"}, {"size": "64"}]}}}, "dtype": {"type": "DT_FLOAT"}}}, {"name": "StatefulPartitionedCall/sequential/text_vectorization/RaggedToTensor/Const", "op": "Const", "attr": {"value": {"tensor": {"dtype": "DT_INT64", "tensorShape": {"dim": [{"size": "2"}]}}}, "dtype": {"type": "DT_INT64"}}}, {"name": "unknown_1", "op": "Const", "attr": {"dtype": {"type": "DT_STRING"}, "value": {"tensor": {"dtype": "DT_STRING", "tensorShape": {}}}}}, {"name": "unknown_2", "op": "Const", "attr": {"value": {"tensor": {"dtype": "DT_INT64", "tensorShape": {}}}, "dtype": {"type": "DT_INT64"}}}, {"name": "unknown_0", "op": "Const", "attr": {"value": {"tensor": {"dtype": "DT_INT64", "tensorShape": {}}}, "dtype": {"type": "DT_INT64"}}}, {"name": "StatefulPartitionedCall/sequential/text_vectorization/RaggedToTensor/default_value", "op": "Const", "attr": {"value": {"tensor": {"dtype": "DT_INT64", "tensorShape": {}}}, "dtype": {"type": "DT_INT64"}}}, {"name": "StatefulPartitionedCall/sequential/text_vectorization/StringSplit/strided_slice_1/stack", "op": "Const", "attr": {"value": {"tensor": {"dtype": "DT_INT32", "tensorShape": {"dim": [{"size": "1"}]}}}, "dtype": {"type": "DT_INT32"}}}, {"name": "StatefulPartitionedCall/sequential/text_vectorization/StringSplit/strided_slice_1/stack_1", "op": "Const", "attr": {"value": {"tensor": {"dtype": "DT_INT32", "tensorShape": {"dim": [{"size": "1"}]}}}, "dtype": {"type": "DT_INT32"}}}, {"name": "StatefulPartitionedCall/sequential/text_vectorization/StringSplit/strided_slice_1/stack_2", "op": "Const", "attr": {"dtype": {"type": "DT_INT32"}, "value": {"tensor": {"dtype": "DT_INT32", "tensorShape": {"dim": [{"size": "1"}]}}}}}, {"name": "StatefulPartitionedCall/sequential/text_vectorization/StringSplit/Const", "op": "Const", "attr": {"value": {"tensor": {"dtype": "DT_STRING", "tensorShape": {}}}, "dtype": {"type": "DT_STRING"}}}, {"name": "StatefulPartitionedCall/sequential/text_vectorization/StringSplit/strided_slice/stack", "op": "Const", "attr": {"value": {"tensor": {"dtype": "DT_INT32", "tensorShape": {"dim": [{"size": "2"}]}}}, "dtype": {"type": "DT_INT32"}}}, {"name": "StatefulPartitionedCall/sequential/text_vectorization/StringSplit/strided_slice/stack_1", "op": "Const", "attr": {"dtype": {"type": "DT_INT32"}, "value": {"tensor": {"dtype": "DT_INT32", "tensorShape": {"dim": [{"size": "2"}]}}}}}, {"name": "StatefulPartitionedCall/sequential/text_vectorization/StringSplit/strided_slice/stack_2", "op": "Const", "attr": {"dtype": {"type": "DT_INT32"}, "value": {"tensor": {"dtype": "DT_INT32", "tensorShape": {"dim": [{"size": "2"}]}}}}}, {"name": "StatefulPartitionedCall/sequential/embedding/embedding_lookup/axis", "op": "Const", "attr": {"dtype": {"type": "DT_INT64"}, "value": {"tensor": {"dtype": "DT_INT64", "tensorShape": {}}}}}, {"name": "text_vectorization_input", "op": "Placeholder", "attr": {"shape": {"shape": {"dim": [{"size": "-1"}]}}, "dtype": {"type": "DT_STRING"}}}, {"name": "unknown", "op": "Placeholder", "attr": {"dtype": {"type": "DT_RESOURCE"}, "shape": {"shape": {}}}}, {"name": "StatefulPartitionedCall/sequential/bidirectional/forward_lstm/PartitionedCall/while/enter/_54", "op": "Enter", "input": ["StatefulPartitionedCall/sequential/bidirectional/forward_lstm/Read/ReadVariableOp"], "attr": {"parallel_iterations": {"i": "32"}, "frame_name": {"s": "U3RhdGVmdWxQYXJ0aXRpb25lZENhbGwvc2VxdWVudGlhbC9iaWRpcmVjdGlvbmFsL2ZvcndhcmRfbHN0bS9QYXJ0aXRpb25lZENhbGwvd2hpbGU="}, "is_constant": {"b": false}, "T": {"type": "DT_FLOAT"}}}, {"name": "StatefulPartitionedCall/sequential/bidirectional/forward_lstm/PartitionedCall/while/enter/_55", "op": "Enter", "input": ["StatefulPartitionedCall/sequential/bidirectional/forward_lstm/Read_1/ReadVariableOp"], "attr": {"is_constant": {"b": false}, "frame_name": {"s": "U3RhdGVmdWxQYXJ0aXRpb25lZENhbGwvc2VxdWVudGlhbC9iaWRpcmVjdGlvbmFsL2ZvcndhcmRfbHN0bS9QYXJ0aXRpb25lZENhbGwvd2hpbGU="}, "parallel_iterations": {"i": "32"}, "T": {"type": "DT_FLOAT"}}}, {"name": "StatefulPartitionedCall/sequential/bidirectional/forward_lstm/PartitionedCall/while/enter/_56", "op": "Enter", "input": ["StatefulPartitionedCall/sequential/bidirectional/forward_lstm/Read_2/ReadVariableOp"], "attr": {"T": {"type": "DT_FLOAT"}, "is_constant": {"b": false}, "parallel_iterations": {"i": "32"}, "frame_name": {"s": "U3RhdGVmdWxQYXJ0aXRpb25lZENhbGwvc2VxdWVudGlhbC9iaWRpcmVjdGlvbmFsL2ZvcndhcmRfbHN0bS9QYXJ0aXRpb25lZENhbGwvd2hpbGU="}}}, {"name": "StatefulPartitionedCall/sequential/bidirectional/forward_lstm/PartitionedCall/while/enter/_46", "op": "Enter", "input": ["StatefulPartitionedCall/sequential/bidirectional/forward_lstm/PartitionedCall/time"], "attr": {"is_constant": {"b": false}, "T": {"type": "DT_INT32"}, "frame_name": {"s": "U3RhdGVmdWxQYXJ0aXRpb25lZENhbGwvc2VxdWVudGlhbC9iaWRpcmVjdGlvbmFsL2ZvcndhcmRfbHN0bS9QYXJ0aXRpb25lZENhbGwvd2hpbGU="}, "parallel_iterations": {"i": "32"}}}, {"name": "StatefulPartitionedCall/sequential/bidirectional/forward_lstm/PartitionedCall/while/enter/_44", "op": "Enter", "input": ["StatefulPartitionedCall/sequential/bidirectional/forward_lstm/PartitionedCall/while/loop_counter"], "attr": {"frame_name": {"s": "U3RhdGVmdWxQYXJ0aXRpb25lZENhbGwvc2VxdWVudGlhbC9iaWRpcmVjdGlvbmFsL2ZvcndhcmRfbHN0bS9QYXJ0aXRpb25lZENhbGwvd2hpbGU="}, "is_constant": {"b": false}, "parallel_iterations": {"i": "32"}, "T": {"type": "DT_INT32"}}}, {"name": "StatefulPartitionedCall/sequential/bidirectional/backward_lstm/PartitionedCall/while/enter/_124", "op": "Enter", "input": ["StatefulPartitionedCall/sequential/bidirectional/backward_lstm/Read/ReadVariableOp"], "attr": {"T": {"type": "DT_FLOAT"}, "parallel_iterations": {"i": "32"}, "frame_name": {"s": "U3RhdGVmdWxQYXJ0aXRpb25lZENhbGwvc2VxdWVudGlhbC9iaWRpcmVjdGlvbmFsL2JhY2t3YXJkX2xzdG0vUGFydGl0aW9uZWRDYWxsL3doaWxl"}, "is_constant": {"b": false}}}, {"name": "StatefulPartitionedCall/sequential/bidirectional/backward_lstm/PartitionedCall/while/enter/_125", "op": "Enter", "input": ["StatefulPartitionedCall/sequential/bidirectional/backward_lstm/Read_1/ReadVariableOp"], "attr": {"is_constant": {"b": false}, "T": {"type": "DT_FLOAT"}, "frame_name": {"s": "U3RhdGVmdWxQYXJ0aXRpb25lZENhbGwvc2VxdWVudGlhbC9iaWRpcmVjdGlvbmFsL2JhY2t3YXJkX2xzdG0vUGFydGl0aW9uZWRDYWxsL3doaWxl"}, "parallel_iterations": {"i": "32"}}}, {"name": "StatefulPartitionedCall/sequential/bidirectional/backward_lstm/PartitionedCall/while/enter/_126", "op": "Enter", "input": ["StatefulPartitionedCall/sequential/bidirectional/backward_lstm/Read_2/ReadVariableOp"], "attr": {"parallel_iterations": {"i": "32"}, "frame_name": {"s": "U3RhdGVmdWxQYXJ0aXRpb25lZENhbGwvc2VxdWVudGlhbC9iaWRpcmVjdGlvbmFsL2JhY2t3YXJkX2xzdG0vUGFydGl0aW9uZWRDYWxsL3doaWxl"}, "T": {"type": "DT_FLOAT"}, "is_constant": {"b": false}}}, {"name": "StatefulPartitionedCall/sequential/bidirectional/backward_lstm/PartitionedCall/while/enter/_116", "op": "Enter", "input": ["StatefulPartitionedCall/sequential/bidirectional/backward_lstm/PartitionedCall/time"], "attr": {"is_constant": {"b": false}, "T": {"type": "DT_INT32"}, "frame_name": {"s": "U3RhdGVmdWxQYXJ0aXRpb25lZENhbGwvc2VxdWVudGlhbC9iaWRpcmVjdGlvbmFsL2JhY2t3YXJkX2xzdG0vUGFydGl0aW9uZWRDYWxsL3doaWxl"}, "parallel_iterations": {"i": "32"}}}, {"name": "StatefulPartitionedCall/sequential/bidirectional/backward_lstm/PartitionedCall/while/enter/_114", "op": "Enter", "input": ["StatefulPartitionedCall/sequential/bidirectional/backward_lstm/PartitionedCall/while/loop_counter"], "attr": {"is_constant": {"b": false}, "T": {"type": "DT_INT32"}, "parallel_iterations": {"i": "32"}, "frame_name": {"s": "U3RhdGVmdWxQYXJ0aXRpb25lZENhbGwvc2VxdWVudGlhbC9iaWRpcmVjdGlvbmFsL2JhY2t3YXJkX2xzdG0vUGFydGl0aW9uZWRDYWxsL3doaWxl"}}}, {"name": "StatefulPartitionedCall/sequential/text_vectorization/StringLower", "op": "StringLower", "input": ["text_vectorization_input"], "attr": {"encoding": {"s": ""}}}, {"name": "StatefulPartitionedCall/sequential/bidirectional/forward_lstm/PartitionedCall/while/merge/_67", "op": "Merge", "input": ["StatefulPartitionedCall/sequential/bidirectional/forward_lstm/PartitionedCall/while/enter/_54", "StatefulPartitionedCall/sequential/bidirectional/forward_lstm/PartitionedCall/while/next_iteration/_109"], "attr": {"T": {"type": "DT_FLOAT"}, "N": {"i": "2"}}}, {"name": "StatefulPartitionedCall/sequential/bidirectional/forward_lstm/PartitionedCall/while/merge/_68", "op": "Merge", "input": ["StatefulPartitionedCall/sequential/bidirectional/forward_lstm/PartitionedCall/while/enter/_55", "StatefulPartitionedCall/sequential/bidirectional/forward_lstm/PartitionedCall/while/next_iteration/_110"], "attr": {"T": {"type": "DT_FLOAT"}, "N": {"i": "2"}}}, {"name": "StatefulPartitionedCall/sequential/bidirectional/forward_lstm/PartitionedCall/while/merge/_69", "op": "Merge", "input": ["StatefulPartitionedCall/sequential/bidirectional/forward_lstm/PartitionedCall/while/enter/_56", "StatefulPartitionedCall/sequential/bidirectional/forward_lstm/PartitionedCall/while/next_iteration/_111"], "attr": {"T": {"type": "DT_FLOAT"}, "N": {"i": "2"}}}, {"name": "StatefulPartitionedCall/sequential/bidirectional/forward_lstm/PartitionedCall/while/merge/_59", "op": "Merge", "input": ["StatefulPartitionedCall/sequential/bidirectional/forward_lstm/PartitionedCall/while/enter/_46", "StatefulPartitionedCall/sequential/bidirectional/forward_lstm/PartitionedCall/while/next_iteration/_101"], "attr": {"T": {"type": "DT_INT32"}, "N": {"i": "2"}}}, {"name": "StatefulPartitionedCall/sequential/bidirectional/forward_lstm/PartitionedCall/while/merge/_57", "op": "Merge", "input": ["StatefulPartitionedCall/sequential/bidirectional/forward_lstm/PartitionedCall/while/enter/_44", "StatefulPartitionedCall/sequential/bidirectional/forward_lstm/PartitionedCall/while/next_iteration/_99"], "attr": {"T": {"type": "DT_INT32"}, "N": {"i": "2"}}}, {"name": "StatefulPartitionedCall/sequential/bidirectional/backward_lstm/PartitionedCall/while/merge/_137", "op": "Merge", "input": ["StatefulPartitionedCall/sequential/bidirectional/backward_lstm/PartitionedCall/while/enter/_124", "StatefulPartitionedCall/sequential/bidirectional/backward_lstm/PartitionedCall/while/next_iteration/_179"], "attr": {"N": {"i": "2"}, "T": {"type": "DT_FLOAT"}}}, {"name": "StatefulPartitionedCall/sequential/bidirectional/backward_lstm/PartitionedCall/while/merge/_138", "op": "Merge", "input": ["StatefulPartitionedCall/sequential/bidirectional/backward_lstm/PartitionedCall/while/enter/_125", "StatefulPartitionedCall/sequential/bidirectional/backward_lstm/PartitionedCall/while/next_iteration/_180"], "attr": {"N": {"i": "2"}, "T": {"type": "DT_FLOAT"}}}, {"name": "StatefulPartitionedCall/sequential/bidirectional/backward_lstm/PartitionedCall/while/merge/_139", "op": "Merge", "input": ["StatefulPartitionedCall/sequential/bidirectional/backward_lstm/PartitionedCall/while/enter/_126", "StatefulPartitionedCall/sequential/bidirectional/backward_lstm/PartitionedCall/while/next_iteration/_181"], "attr": {"N": {"i": "2"}, "T": {"type": "DT_FLOAT"}}}, {"name": "StatefulPartitionedCall/sequential/bidirectional/backward_lstm/PartitionedCall/while/merge/_129", "op": "Merge", "input": ["StatefulPartitionedCall/sequential/bidirectional/backward_lstm/PartitionedCall/while/enter/_116", "StatefulPartitionedCall/sequential/bidirectional/backward_lstm/PartitionedCall/while/next_iteration/_171"], "attr": {"T": {"type": "DT_INT32"}, "N": {"i": "2"}}}, {"name": "StatefulPartitionedCall/sequential/bidirectional/backward_lstm/PartitionedCall/while/merge/_127", "op": "Merge", "input": ["StatefulPartitionedCall/sequential/bidirectional/backward_lstm/PartitionedCall/while/enter/_114", "StatefulPartitionedCall/sequential/bidirectional/backward_lstm/PartitionedCall/while/next_iteration/_169"], "attr": {"N": {"i": "2"}, "T": {"type": "DT_INT32"}}}, {"name": "StatefulPartitionedCall/sequential/text_vectorization/StaticRegexReplace", "op": "StaticRegexReplace", "input": ["StatefulPartitionedCall/sequential/text_vectorization/StringLower"], "attr": {"replace_global": {"b": true}, "rewrite": {"s": ""}, "pattern": {"s": "WyEiIyQlJigpXCpcKywtXC4vOjs8PT4/QFxbXFxcXV5fYHt8fX5cJ10="}}}, {"name": "StatefulPartitionedCall/sequential/text_vectorization/StringSplit/StringSplitV2", "op": "StringSplitV2", "input": ["StatefulPartitionedCall/sequential/text_vectorization/StaticRegexReplace", "StatefulPartitionedCall/sequential/text_vectorization/StringSplit/Const"], "attr": {"maxsplit": {"i": "-1"}}}, {"name": "StatefulPartitionedCall/sequential/text_vectorization/StringSplit/strided_slice", "op": "StridedSlice", "input": ["StatefulPartitionedCall/sequential/text_vectorization/StringSplit/StringSplitV2", "StatefulPartitionedCall/sequential/text_vectorization/StringSplit/strided_slice/stack", "StatefulPartitionedCall/sequential/text_vectorization/StringSplit/strided_slice/stack_1", "StatefulPartitionedCall/sequential/text_vectorization/StringSplit/strided_slice/stack_2"], "attr": {"begin_mask": {"i": "1"}, "end_mask": {"i": "1"}, "Index": {"type": "DT_INT32"}, "ellipsis_mask": {"i": "0"}, "shrink_axis_mask": {"i": "2"}, "new_axis_mask": {"i": "0"}, "T": {"type": "DT_INT64"}}}, {"name": "StatefulPartitionedCall/sequential/text_vectorization/string_lookup/Equal", "op": "Equal", "input": ["StatefulPartitionedCall/sequential/text_vectorization/StringSplit/StringSplitV2:1", "unknown_1"], "attr": {"T": {"type": "DT_STRING"}, "incompatible_shape_error": {"b": true}}}, {"name": "StatefulPartitionedCall/sequential/text_vectorization/StringSplit/strided_slice_1", "op": "StridedSlice", "input": ["StatefulPartitionedCall/sequential/text_vectorization/StringSplit/StringSplitV2:2", "StatefulPartitionedCall/sequential/text_vectorization/StringSplit/strided_slice_1/stack", "StatefulPartitionedCall/sequential/text_vectorization/StringSplit/strided_slice_1/stack_1", "StatefulPartitionedCall/sequential/text_vectorization/StringSplit/strided_slice_1/stack_2"], "attr": {"new_axis_mask": {"i": "0"}, "end_mask": {"i": "0"}, "T": {"type": "DT_INT64"}, "Index": {"type": "DT_INT32"}, "shrink_axis_mask": {"i": "1"}, "begin_mask": {"i": "0"}, "ellipsis_mask": {"i": "0"}}}, {"name": "StatefulPartitionedCall/sequential/text_vectorization/string_lookup/None_Lookup/LookupTableFindV2", "op": "LookupTableFindV2", "input": ["unknown", "StatefulPartitionedCall/sequential/text_vectorization/StringSplit/StringSplitV2:1", "unknown_0"], "attr": {"Tout": {"type": "DT_INT64"}, "Tin": {"type": "DT_STRING"}}}, {"name": "StatefulPartitionedCall/sequential/text_vectorization/string_lookup/SelectV2", "op": "SelectV2", "input": ["StatefulPartitionedCall/sequential/text_vectorization/string_lookup/Equal", "unknown_2", "StatefulPartitionedCall/sequential/text_vectorization/string_lookup/None_Lookup/LookupTableFindV2"], "attr": {"T": {"type": "DT_INT64"}}}, {"name": "StatefulPartitionedCall/sequential/text_vectorization/RaggedToTensor/RaggedTensorToTensor", "op": "RaggedTensorToTensor", "input": ["StatefulPartitionedCall/sequential/text_vectorization/RaggedToTensor/Const", "StatefulPartitionedCall/sequential/text_vectorization/string_lookup/SelectV2", "StatefulPartitionedCall/sequential/text_vectorization/RaggedToTensor/default_value", "StatefulPartitionedCall/sequential/text_vectorization/StringSplit/strided_slice_1", "StatefulPartitionedCall/sequential/text_vectorization/StringSplit/strided_slice"], "attr": {"Tindex": {"type": "DT_INT64"}, "Tshape": {"type": "DT_INT64"}, "row_partition_types": {"list": {"s": ["RklSU1RfRElNX1NJWkU=", "VkFMVUVfUk9XSURT"]}}, "T": {"type": "DT_INT64"}, "num_row_partition_tensors": {"i": "2"}}}, {"name": "StatefulPartitionedCall/sequential/embedding/NotEqual", "op": "NotEqual", "input": ["StatefulPartitionedCall/sequential/text_vectorization/RaggedToTensor/RaggedTensorToTensor", "StatefulPartitionedCall/sequential/embedding/NotEqual/y"], "attr": {"incompatible_shape_error": {"b": true}, "T": {"type": "DT_INT64"}}}, {"name": "StatefulPartitionedCall/sequential/embedding/embedding_lookup", "op": "GatherV2", "input": ["unknown_3", "StatefulPartitionedCall/sequential/text_vectorization/RaggedToTensor/RaggedTensorToTensor", "StatefulPartitionedCall/sequential/embedding/embedding_lookup/axis"], "attr": {"Tparams": {"type": "DT_FLOAT"}, "Tindices": {"type": "DT_INT64"}, "batch_dims": {"i": "0"}, "Taxis": {"type": "DT_INT64"}}}, {"name": "StatefulPartitionedCall/sequential/bidirectional/forward_lstm/PartitionedCall/ExpandDims", "op": "ExpandDims", "input": ["StatefulPartitionedCall/sequential/embedding/NotEqual", "StatefulPartitionedCall/sequential/bidirectional/forward_lstm/PartitionedCall/ExpandDims/dim"], "attr": {"T": {"type": "DT_BOOL"}, "Tdim": {"type": "DT_INT32"}}}, {"name": "StatefulPartitionedCall/sequential/bidirectional/backward_lstm/PartitionedCall/ExpandDims", "op": "ExpandDims", "input": ["StatefulPartitionedCall/sequential/embedding/NotEqual", "StatefulPartitionedCall/sequential/bidirectional/backward_lstm/PartitionedCall/ExpandDims/dim"], "attr": {"T": {"type": "DT_BOOL"}, "Tdim": {"type": "DT_INT32"}}}, {"name": "StatefulPartitionedCall/sequential/bidirectional/forward_lstm/Shape", "op": "Shape", "input": ["StatefulPartitionedCall/sequential/embedding/embedding_lookup"], "attr": {"out_type": {"type": "DT_INT32"}, "T": {"type": "DT_FLOAT"}}}, {"name": "StatefulPartitionedCall/sequential/bidirectional/forward_lstm/PartitionedCall/transpose", "op": "Transpose", "input": ["StatefulPartitionedCall/sequential/embedding/embedding_lookup", "StatefulPartitionedCall/sequential/bidirectional/forward_lstm/PartitionedCall/transpose/perm"], "attr": {"T": {"type": "DT_FLOAT"}, "Tperm": {"type": "DT_INT32"}}}, {"name": "StatefulPartitionedCall/sequential/bidirectional/backward_lstm/Shape", "op": "Shape", "input": ["StatefulPartitionedCall/sequential/embedding/embedding_lookup"], "attr": {"out_type": {"type": "DT_INT32"}, "T": {"type": "DT_FLOAT"}}}, {"name": "StatefulPartitionedCall/sequential/bidirectional/backward_lstm/PartitionedCall/transpose", "op": "Transpose", "input": ["StatefulPartitionedCall/sequential/embedding/embedding_lookup", "StatefulPartitionedCall/sequential/bidirectional/backward_lstm/PartitionedCall/transpose/perm"], "attr": {"T": {"type": "DT_FLOAT"}, "Tperm": {"type": "DT_INT32"}}}, {"name": "StatefulPartitionedCall/sequential/bidirectional/forward_lstm/PartitionedCall/transpose_1", "op": "Transpose", "input": ["StatefulPartitionedCall/sequential/bidirectional/forward_lstm/PartitionedCall/ExpandDims", "StatefulPartitionedCall/sequential/bidirectional/forward_lstm/PartitionedCall/transpose_1/perm"], "attr": {"T": {"type": "DT_BOOL"}, "Tperm": {"type": "DT_INT32"}}}, {"name": "StatefulPartitionedCall/sequential/bidirectional/backward_lstm/PartitionedCall/transpose_1", "op": "Transpose", "input": ["StatefulPartitionedCall/sequential/bidirectional/backward_lstm/PartitionedCall/ExpandDims", "StatefulPartitionedCall/sequential/bidirectional/backward_lstm/PartitionedCall/transpose_1/perm"], "attr": {"T": {"type": "DT_BOOL"}, "Tperm": {"type": "DT_INT32"}}}, {"name": "StatefulPartitionedCall/sequential/bidirectional/forward_lstm/strided_slice", "op": "StridedSlice", "input": ["StatefulPartitionedCall/sequential/bidirectional/forward_lstm/Shape", "StatefulPartitionedCall/sequential/bidirectional/forward_lstm/strided_slice/stack", "StatefulPartitionedCall/sequential/bidirectional/forward_lstm/strided_slice/stack_1", "StatefulPartitionedCall/sequential/bidirectional/forward_lstm/strided_slice/stack_2"], "attr": {"end_mask": {"i": "0"}, "ellipsis_mask": {"i": "0"}, "T": {"type": "DT_INT32"}, "shrink_axis_mask": {"i": "1"}, "new_axis_mask": {"i": "0"}, "Index": {"type": "DT_INT32"}, "begin_mask": {"i": "0"}}}, {"name": "StatefulPartitionedCall/sequential/bidirectional/forward_lstm/PartitionedCall/TensorArrayUnstack/TensorListFromTensor", "op": "TensorListFromTensor", "input": ["StatefulPartitionedCall/sequential/bidirectional/forward_lstm/PartitionedCall/transpose", "StatefulPartitionedCall/sequential/bidirectional/forward_lstm/PartitionedCall/TensorArrayUnstack/TensorListFromTensor/element_shape"], "attr": {"shape_type": {"type": "DT_INT32"}, "element_dtype": {"type": "DT_FLOAT"}}, "experimentalType": {"typeId": "TFT_PRODUCT", "args": [{"typeId": "TFT_ARRAY", "args": [{"typeId": "TFT_TENSOR", "args": [{"typeId": "TFT_FLOAT"}]}]}]}}, {"name": "StatefulPartitionedCall/sequential/bidirectional/forward_lstm/PartitionedCall/strided_slice_1", "op": "StridedSlice", "input": ["StatefulPartitionedCall/sequential/bidirectional/forward_lstm/PartitionedCall/transpose", "StatefulPartitionedCall/sequential/bidirectional/forward_lstm/PartitionedCall/strided_slice_1/stack", "StatefulPartitionedCall/sequential/bidirectional/forward_lstm/PartitionedCall/strided_slice_1/stack_1", "StatefulPartitionedCall/sequential/bidirectional/forward_lstm/PartitionedCall/strided_slice_1/stack_2"], "attr": {"T": {"type": "DT_FLOAT"}, "shrink_axis_mask": {"i": "1"}, "new_axis_mask": {"i": "0"}, "end_mask": {"i": "0"}, "begin_mask": {"i": "0"}, "ellipsis_mask": {"i": "0"}, "Index": {"type": "DT_INT32"}}}, {"name": "StatefulPartitionedCall/sequential/bidirectional/forward_lstm/PartitionedCall/Shape", "op": "Shape", "input": ["StatefulPartitionedCall/sequential/bidirectional/forward_lstm/PartitionedCall/transpose"], "attr": {"out_type": {"type": "DT_INT32"}, "T": {"type": "DT_FLOAT"}}}, {"name": "StatefulPartitionedCall/sequential/bidirectional/backward_lstm/strided_slice", "op": "StridedSlice", "input": ["StatefulPartitionedCall/sequential/bidirectional/backward_lstm/Shape", "StatefulPartitionedCall/sequential/bidirectional/backward_lstm/strided_slice/stack", "StatefulPartitionedCall/sequential/bidirectional/backward_lstm/strided_slice/stack_1", "StatefulPartitionedCall/sequential/bidirectional/backward_lstm/strided_slice/stack_2"], "attr": {"Index": {"type": "DT_INT32"}, "shrink_axis_mask": {"i": "1"}, "end_mask": {"i": "0"}, "ellipsis_mask": {"i": "0"}, "T": {"type": "DT_INT32"}, "new_axis_mask": {"i": "0"}, "begin_mask": {"i": "0"}}}, {"name": "StatefulPartitionedCall/sequential/bidirectional/backward_lstm/PartitionedCall/ReverseV2", "op": "ReverseV2", "input": ["StatefulPartitionedCall/sequential/bidirectional/backward_lstm/PartitionedCall/transpose", "StatefulPartitionedCall/sequential/bidirectional/backward_lstm/PartitionedCall/ReverseV2/axis"], "attr": {"Tidx": {"type": "DT_INT32"}, "T": {"type": "DT_FLOAT"}}}, {"name": "StatefulPartitionedCall/sequential/bidirectional/backward_lstm/PartitionedCall/strided_slice_1", "op": "StridedSlice", "input": ["StatefulPartitionedCall/sequential/bidirectional/backward_lstm/PartitionedCall/transpose", "StatefulPartitionedCall/sequential/bidirectional/backward_lstm/PartitionedCall/strided_slice_1/stack", "StatefulPartitionedCall/sequential/bidirectional/backward_lstm/PartitionedCall/strided_slice_1/stack_1", "StatefulPartitionedCall/sequential/bidirectional/backward_lstm/PartitionedCall/strided_slice_1/stack_2"], "attr": {"new_axis_mask": {"i": "0"}, "end_mask": {"i": "0"}, "shrink_axis_mask": {"i": "1"}, "begin_mask": {"i": "0"}, "T": {"type": "DT_FLOAT"}, "ellipsis_mask": {"i": "0"}, "Index": {"type": "DT_INT32"}}}, {"name": "StatefulPartitionedCall/sequential/bidirectional/backward_lstm/PartitionedCall/Shape", "op": "Shape", "input": ["StatefulPartitionedCall/sequential/bidirectional/backward_lstm/PartitionedCall/transpose"], "attr": {"T": {"type": "DT_FLOAT"}, "out_type": {"type": "DT_INT32"}}}, {"name": "StatefulPartitionedCall/sequential/bidirectional/forward_lstm/PartitionedCall/TensorArrayUnstack_1/TensorListFromTensor", "op": "TensorListFromTensor", "input": ["StatefulPartitionedCall/sequential/bidirectional/forward_lstm/PartitionedCall/transpose_1", "StatefulPartitionedCall/sequential/bidirectional/forward_lstm/PartitionedCall/TensorArrayUnstack_1/TensorListFromTensor/element_shape"], "attr": {"shape_type": {"type": "DT_INT32"}, "element_dtype": {"type": "DT_BOOL"}}, "experimentalType": {"typeId": "TFT_PRODUCT", "args": [{"typeId": "TFT_ARRAY", "args": [{"typeId": "TFT_TENSOR", "args": [{"typeId": "TFT_BOOL"}]}]}]}}, {"name": "StatefulPartitionedCall/sequential/bidirectional/backward_lstm/PartitionedCall/ReverseV2_1", "op": "ReverseV2", "input": ["StatefulPartitionedCall/sequential/bidirectional/backward_lstm/PartitionedCall/transpose_1", "StatefulPartitionedCall/sequential/bidirectional/backward_lstm/PartitionedCall/ReverseV2_1/axis"], "attr": {"Tidx": {"type": "DT_INT32"}, "T": {"type": "DT_BOOL"}}}, {"name": "StatefulPartitionedCall/sequential/bidirectional/forward_lstm/zeros_1/packed", "op": "Pack", "input": ["StatefulPartitionedCall/sequential/bidirectional/forward_lstm/strided_slice", "StatefulPartitionedCall/sequential/bidirectional/forward_lstm/zeros_1/packed/1"], "attr": {"N": {"i": "2"}, "axis": {"i": "0"}, "T": {"type": "DT_INT32"}}}, {"name": "StatefulPartitionedCall/sequential/bidirectional/forward_lstm/zeros/packed", "op": "Pack", "input": ["StatefulPartitionedCall/sequential/bidirectional/forward_lstm/strided_slice", "StatefulPartitionedCall/sequential/bidirectional/forward_lstm/zeros/packed/1"], "attr": {"N": {"i": "2"}, "axis": {"i": "0"}, "T": {"type": "DT_INT32"}}}, {"name": "StatefulPartitionedCall/sequential/bidirectional/forward_lstm/PartitionedCall/while/enter/_52", "op": "Enter", "input": ["StatefulPartitionedCall/sequential/bidirectional/forward_lstm/PartitionedCall/TensorArrayUnstack/TensorListFromTensor"], "attr": {"T": {"type": "DT_VARIANT"}, "frame_name": {"s": "U3RhdGVmdWxQYXJ0aXRpb25lZENhbGwvc2VxdWVudGlhbC9iaWRpcmVjdGlvbmFsL2ZvcndhcmRfbHN0bS9QYXJ0aXRpb25lZENhbGwvd2hpbGU="}, "is_constant": {"b": false}, "parallel_iterations": {"i": "32"}}, "experimentalType": {"typeId": "TFT_PRODUCT", "args": [{"typeId": "TFT_ARRAY", "args": [{"typeId": "TFT_TENSOR", "args": [{"typeId": "TFT_FLOAT"}]}]}]}}, {"name": "StatefulPartitionedCall/sequential/bidirectional/forward_lstm/PartitionedCall/MatMul", "op": "MatMul", "input": ["StatefulPartitionedCall/sequential/bidirectional/forward_lstm/PartitionedCall/strided_slice_1", "StatefulPartitionedCall/sequential/bidirectional/forward_lstm/Read/ReadVariableOp"], "device": "/device:CPU:0", "attr": {"T": {"type": "DT_FLOAT"}, "transpose_b": {"b": false}, "transpose_a": {"b": false}}}, {"name": "StatefulPartitionedCall/sequential/bidirectional/forward_lstm/PartitionedCall/strided_slice", "op": "StridedSlice", "input": ["StatefulPartitionedCall/sequential/bidirectional/forward_lstm/PartitionedCall/Shape", "StatefulPartitionedCall/sequential/bidirectional/forward_lstm/PartitionedCall/strided_slice/stack", "StatefulPartitionedCall/sequential/bidirectional/forward_lstm/PartitionedCall/strided_slice/stack_1", "StatefulPartitionedCall/sequential/bidirectional/forward_lstm/PartitionedCall/strided_slice/stack_2"], "attr": {"end_mask": {"i": "0"}, "Index": {"type": "DT_INT32"}, "shrink_axis_mask": {"i": "1"}, "ellipsis_mask": {"i": "0"}, "T": {"type": "DT_INT32"}, "new_axis_mask": {"i": "0"}, "begin_mask": {"i": "0"}}}, {"name": "StatefulPartitionedCall/sequential/bidirectional/backward_lstm/zeros_1/packed", "op": "Pack", "input": ["StatefulPartitionedCall/sequential/bidirectional/backward_lstm/strided_slice", "StatefulPartitionedCall/sequential/bidirectional/backward_lstm/zeros_1/packed/1"], "attr": {"T": {"type": "DT_INT32"}, "axis": {"i": "0"}, "N": {"i": "2"}}}, {"name": "StatefulPartitionedCall/sequential/bidirectional/backward_lstm/zeros/packed", "op": "Pack", "input": ["StatefulPartitionedCall/sequential/bidirectional/backward_lstm/strided_slice", "StatefulPartitionedCall/sequential/bidirectional/backward_lstm/zeros/packed/1"], "attr": {"axis": {"i": "0"}, "T": {"type": "DT_INT32"}, "N": {"i": "2"}}}, {"name": "StatefulPartitionedCall/sequential/bidirectional/backward_lstm/PartitionedCall/TensorArrayUnstack/TensorListFromTensor", "op": "TensorListFromTensor", "input": ["StatefulPartitionedCall/sequential/bidirectional/backward_lstm/PartitionedCall/ReverseV2", "StatefulPartitionedCall/sequential/bidirectional/backward_lstm/PartitionedCall/TensorArrayUnstack/TensorListFromTensor/element_shape"], "attr": {"shape_type": {"type": "DT_INT32"}, "element_dtype": {"type": "DT_FLOAT"}}, "experimentalType": {"typeId": "TFT_PRODUCT", "args": [{"typeId": "TFT_ARRAY", "args": [{"typeId": "TFT_TENSOR", "args": [{"typeId": "TFT_FLOAT"}]}]}]}}, {"name": "StatefulPartitionedCall/sequential/bidirectional/backward_lstm/PartitionedCall/MatMul", "op": "MatMul", "input": ["StatefulPartitionedCall/sequential/bidirectional/backward_lstm/PartitionedCall/strided_slice_1", "StatefulPartitionedCall/sequential/bidirectional/backward_lstm/Read/ReadVariableOp"], "device": "/device:CPU:0", "attr": {"transpose_b": {"b": false}, "T": {"type": "DT_FLOAT"}, "transpose_a": {"b": false}}}, {"name": "StatefulPartitionedCall/sequential/bidirectional/backward_lstm/PartitionedCall/strided_slice", "op": "StridedSlice", "input": ["StatefulPartitionedCall/sequential/bidirectional/backward_lstm/PartitionedCall/Shape", "StatefulPartitionedCall/sequential/bidirectional/backward_lstm/PartitionedCall/strided_slice/stack", "StatefulPartitionedCall/sequential/bidirectional/backward_lstm/PartitionedCall/strided_slice/stack_1", "StatefulPartitionedCall/sequential/bidirectional/backward_lstm/PartitionedCall/strided_slice/stack_2"], "attr": {"ellipsis_mask": {"i": "0"}, "shrink_axis_mask": {"i": "1"}, "Index": {"type": "DT_INT32"}, "T": {"type": "DT_INT32"}, "begin_mask": {"i": "0"}, "end_mask": {"i": "0"}, "new_axis_mask": {"i": "0"}}}, {"name": "StatefulPartitionedCall/sequential/bidirectional/forward_lstm/PartitionedCall/while/enter/_53", "op": "Enter", "input": ["StatefulPartitionedCall/sequential/bidirectional/forward_lstm/PartitionedCall/TensorArrayUnstack_1/TensorListFromTensor"], "attr": {"frame_name": {"s": "U3RhdGVmdWxQYXJ0aXRpb25lZENhbGwvc2VxdWVudGlhbC9iaWRpcmVjdGlvbmFsL2ZvcndhcmRfbHN0bS9QYXJ0aXRpb25lZENhbGwvd2hpbGU="}, "T": {"type": "DT_VARIANT"}, "parallel_iterations": {"i": "32"}, "is_constant": {"b": false}}, "experimentalType": {"typeId": "TFT_PRODUCT", "args": [{"typeId": "TFT_ARRAY", "args": [{"typeId": "TFT_TENSOR", "args": [{"typeId": "TFT_BOOL"}]}]}]}}, {"name": "StatefulPartitionedCall/sequential/bidirectional/backward_lstm/PartitionedCall/TensorArrayUnstack_1/TensorListFromTensor", "op": "TensorListFromTensor", "input": ["StatefulPartitionedCall/sequential/bidirectional/backward_lstm/PartitionedCall/ReverseV2_1", "StatefulPartitionedCall/sequential/bidirectional/backward_lstm/PartitionedCall/TensorArrayUnstack_1/TensorListFromTensor/element_shape"], "attr": {"shape_type": {"type": "DT_INT32"}, "element_dtype": {"type": "DT_BOOL"}}, "experimentalType": {"typeId": "TFT_PRODUCT", "args": [{"typeId": "TFT_ARRAY", "args": [{"typeId": "TFT_TENSOR", "args": [{"typeId": "TFT_BOOL"}]}]}]}}, {"name": "StatefulPartitionedCall/sequential/bidirectional/forward_lstm/zeros_1", "op": "Fill", "input": ["StatefulPartitionedCall/sequential/bidirectional/forward_lstm/zeros_1/packed", "StatefulPartitionedCall/sequential/bidirectional/forward_lstm/zeros_1/Const"], "attr": {"T": {"type": "DT_FLOAT"}, "index_type": {"type": "DT_INT32"}}}, {"name": "StatefulPartitionedCall/sequential/bidirectional/forward_lstm/zeros", "op": "Fill", "input": ["StatefulPartitionedCall/sequential/bidirectional/forward_lstm/zeros/packed", "StatefulPartitionedCall/sequential/bidirectional/forward_lstm/zeros/Const"], "attr": {"T": {"type": "DT_FLOAT"}, "index_type": {"type": "DT_INT32"}}}, {"name": "StatefulPartitionedCall/sequential/bidirectional/forward_lstm/PartitionedCall/while/merge/_65", "op": "Merge", "input": ["StatefulPartitionedCall/sequential/bidirectional/forward_lstm/PartitionedCall/while/enter/_52", "StatefulPartitionedCall/sequential/bidirectional/forward_lstm/PartitionedCall/while/next_iteration/_107"], "attr": {"T": {"type": "DT_VARIANT"}, "N": {"i": "2"}}}, {"name": "StatefulPartitionedCall/sequential/bidirectional/forward_lstm/PartitionedCall/TensorArrayV2_1", "op": "TensorListReserve", "input": ["StatefulPartitionedCall/sequential/bidirectional/forward_lstm/PartitionedCall/TensorArrayV2_1/element_shape", "StatefulPartitionedCall/sequential/bidirectional/forward_lstm/PartitionedCall/strided_slice"], "attr": {"shape_type": {"type": "DT_INT32"}, "element_dtype": {"type": "DT_FLOAT"}}, "experimentalType": {"typeId": "TFT_PRODUCT", "args": [{"typeId": "TFT_ARRAY", "args": [{"typeId": "TFT_TENSOR", "args": [{"typeId": "TFT_FLOAT"}]}]}]}}, {"name": "StatefulPartitionedCall/sequential/bidirectional/forward_lstm/PartitionedCall/while/enter/_51", "op": "Enter", "input": ["StatefulPartitionedCall/sequential/bidirectional/forward_lstm/PartitionedCall/strided_slice"], "attr": {"is_constant": {"b": false}, "T": {"type": "DT_INT32"}, "parallel_iterations": {"i": "32"}, "frame_name": {"s": "U3RhdGVmdWxQYXJ0aXRpb25lZENhbGwvc2VxdWVudGlhbC9iaWRpcmVjdGlvbmFsL2ZvcndhcmRfbHN0bS9QYXJ0aXRpb25lZENhbGwvd2hpbGU="}}}, {"name": "StatefulPartitionedCall/sequential/bidirectional/backward_lstm/zeros_1", "op": "Fill", "input": ["StatefulPartitionedCall/sequential/bidirectional/backward_lstm/zeros_1/packed", "StatefulPartitionedCall/sequential/bidirectional/backward_lstm/zeros_1/Const"], "attr": {"T": {"type": "DT_FLOAT"}, "index_type": {"type": "DT_INT32"}}}, {"name": "StatefulPartitionedCall/sequential/bidirectional/backward_lstm/zeros", "op": "Fill", "input": ["StatefulPartitionedCall/sequential/bidirectional/backward_lstm/zeros/packed", "StatefulPartitionedCall/sequential/bidirectional/backward_lstm/zeros/Const"], "attr": {"index_type": {"type": "DT_INT32"}, "T": {"type": "DT_FLOAT"}}}, {"name": "StatefulPartitionedCall/sequential/bidirectional/backward_lstm/PartitionedCall/while/enter/_122", "op": "Enter", "input": ["StatefulPartitionedCall/sequential/bidirectional/backward_lstm/PartitionedCall/TensorArrayUnstack/TensorListFromTensor"], "attr": {"frame_name": {"s": "U3RhdGVmdWxQYXJ0aXRpb25lZENhbGwvc2VxdWVudGlhbC9iaWRpcmVjdGlvbmFsL2JhY2t3YXJkX2xzdG0vUGFydGl0aW9uZWRDYWxsL3doaWxl"}, "parallel_iterations": {"i": "32"}, "T": {"type": "DT_VARIANT"}, "is_constant": {"b": false}}, "experimentalType": {"typeId": "TFT_PRODUCT", "args": [{"typeId": "TFT_ARRAY", "args": [{"typeId": "TFT_TENSOR", "args": [{"typeId": "TFT_FLOAT"}]}]}]}}, {"name": "StatefulPartitionedCall/sequential/bidirectional/backward_lstm/PartitionedCall/TensorArrayV2_1", "op": "TensorListReserve", "input": ["StatefulPartitionedCall/sequential/bidirectional/backward_lstm/PartitionedCall/TensorArrayV2_1/element_shape", "StatefulPartitionedCall/sequential/bidirectional/backward_lstm/PartitionedCall/strided_slice"], "attr": {"shape_type": {"type": "DT_INT32"}, "element_dtype": {"type": "DT_FLOAT"}}, "experimentalType": {"typeId": "TFT_PRODUCT", "args": [{"typeId": "TFT_ARRAY", "args": [{"typeId": "TFT_TENSOR", "args": [{"typeId": "TFT_FLOAT"}]}]}]}}, {"name": "StatefulPartitionedCall/sequential/bidirectional/backward_lstm/PartitionedCall/while/enter/_121", "op": "Enter", "input": ["StatefulPartitionedCall/sequential/bidirectional/backward_lstm/PartitionedCall/strided_slice"], "attr": {"T": {"type": "DT_INT32"}, "frame_name": {"s": "U3RhdGVmdWxQYXJ0aXRpb25lZENhbGwvc2VxdWVudGlhbC9iaWRpcmVjdGlvbmFsL2JhY2t3YXJkX2xzdG0vUGFydGl0aW9uZWRDYWxsL3doaWxl"}, "parallel_iterations": {"i": "32"}, "is_constant": {"b": false}}}, {"name": "StatefulPartitionedCall/sequential/bidirectional/forward_lstm/PartitionedCall/while/merge/_66", "op": "Merge", "input": ["StatefulPartitionedCall/sequential/bidirectional/forward_lstm/PartitionedCall/while/enter/_53", "StatefulPartitionedCall/sequential/bidirectional/forward_lstm/PartitionedCall/while/next_iteration/_108"], "attr": {"T": {"type": "DT_VARIANT"}, "N": {"i": "2"}}}, {"name": "StatefulPartitionedCall/sequential/bidirectional/backward_lstm/PartitionedCall/while/enter/_123", "op": "Enter", "input": ["StatefulPartitionedCall/sequential/bidirectional/backward_lstm/PartitionedCall/TensorArrayUnstack_1/TensorListFromTensor"], "attr": {"T": {"type": "DT_VARIANT"}, "frame_name": {"s": "U3RhdGVmdWxQYXJ0aXRpb25lZENhbGwvc2VxdWVudGlhbC9iaWRpcmVjdGlvbmFsL2JhY2t3YXJkX2xzdG0vUGFydGl0aW9uZWRDYWxsL3doaWxl"}, "parallel_iterations": {"i": "32"}, "is_constant": {"b": false}}, "experimentalType": {"typeId": "TFT_PRODUCT", "args": [{"typeId": "TFT_ARRAY", "args": [{"typeId": "TFT_TENSOR", "args": [{"typeId": "TFT_BOOL"}]}]}]}}, {"name": "StatefulPartitionedCall/sequential/bidirectional/forward_lstm/PartitionedCall/while/enter/_50", "op": "Enter", "input": ["StatefulPartitionedCall/sequential/bidirectional/forward_lstm/zeros_1"], "attr": {"frame_name": {"s": "U3RhdGVmdWxQYXJ0aXRpb25lZENhbGwvc2VxdWVudGlhbC9iaWRpcmVjdGlvbmFsL2ZvcndhcmRfbHN0bS9QYXJ0aXRpb25lZENhbGwvd2hpbGU="}, "T": {"type": "DT_FLOAT"}, "parallel_iterations": {"i": "32"}, "is_constant": {"b": false}}}, {"name": "StatefulPartitionedCall/sequential/bidirectional/forward_lstm/PartitionedCall/while/enter/_49", "op": "Enter", "input": ["StatefulPartitionedCall/sequential/bidirectional/forward_lstm/zeros"], "attr": {"parallel_iterations": {"i": "32"}, "is_constant": {"b": false}, "frame_name": {"s": "U3RhdGVmdWxQYXJ0aXRpb25lZENhbGwvc2VxdWVudGlhbC9iaWRpcmVjdGlvbmFsL2ZvcndhcmRfbHN0bS9QYXJ0aXRpb25lZENhbGwvd2hpbGU="}, "T": {"type": "DT_FLOAT"}}}, {"name": "StatefulPartitionedCall/sequential/bidirectional/forward_lstm/PartitionedCall/MatMul_1", "op": "MatMul", "input": ["StatefulPartitionedCall/sequential/bidirectional/forward_lstm/zeros", "StatefulPartitionedCall/sequential/bidirectional/forward_lstm/Read_1/ReadVariableOp"], "device": "/device:CPU:0", "attr": {"transpose_b": {"b": false}, "transpose_a": {"b": false}, "T": {"type": "DT_FLOAT"}}}, {"name": "StatefulPartitionedCall/sequential/bidirectional/forward_lstm/PartitionedCall/while/enter/_47", "op": "Enter", "input": ["StatefulPartitionedCall/sequential/bidirectional/forward_lstm/PartitionedCall/TensorArrayV2_1"], "attr": {"frame_name": {"s": "U3RhdGVmdWxQYXJ0aXRpb25lZENhbGwvc2VxdWVudGlhbC9iaWRpcmVjdGlvbmFsL2ZvcndhcmRfbHN0bS9QYXJ0aXRpb25lZENhbGwvd2hpbGU="}, "is_constant": {"b": false}, "parallel_iterations": {"i": "32"}, "T": {"type": "DT_VARIANT"}}, "experimentalType": {"typeId": "TFT_PRODUCT", "args": [{"typeId": "TFT_ARRAY", "args": [{"typeId": "TFT_TENSOR", "args": [{"typeId": "TFT_FLOAT"}]}]}]}}, {"name": "StatefulPartitionedCall/sequential/bidirectional/forward_lstm/PartitionedCall/while/merge/_64", "op": "Merge", "input": ["StatefulPartitionedCall/sequential/bidirectional/forward_lstm/PartitionedCall/while/enter/_51", "StatefulPartitionedCall/sequential/bidirectional/forward_lstm/PartitionedCall/while/next_iteration/_106"], "attr": {"N": {"i": "2"}, "T": {"type": "DT_INT32"}}}, {"name": "StatefulPartitionedCall/sequential/bidirectional/backward_lstm/PartitionedCall/while/enter/_120", "op": "Enter", "input": ["StatefulPartitionedCall/sequential/bidirectional/backward_lstm/zeros_1"], "attr": {"T": {"type": "DT_FLOAT"}, "parallel_iterations": {"i": "32"}, "is_constant": {"b": false}, "frame_name": {"s": "U3RhdGVmdWxQYXJ0aXRpb25lZENhbGwvc2VxdWVudGlhbC9iaWRpcmVjdGlvbmFsL2JhY2t3YXJkX2xzdG0vUGFydGl0aW9uZWRDYWxsL3doaWxl"}}}, {"name": "StatefulPartitionedCall/sequential/bidirectional/backward_lstm/PartitionedCall/while/enter/_119", "op": "Enter", "input": ["StatefulPartitionedCall/sequential/bidirectional/backward_lstm/zeros"], "attr": {"is_constant": {"b": false}, "parallel_iterations": {"i": "32"}, "T": {"type": "DT_FLOAT"}, "frame_name": {"s": "U3RhdGVmdWxQYXJ0aXRpb25lZENhbGwvc2VxdWVudGlhbC9iaWRpcmVjdGlvbmFsL2JhY2t3YXJkX2xzdG0vUGFydGl0aW9uZWRDYWxsL3doaWxl"}}}, {"name": "StatefulPartitionedCall/sequential/bidirectional/backward_lstm/PartitionedCall/MatMul_1", "op": "MatMul", "input": ["StatefulPartitionedCall/sequential/bidirectional/backward_lstm/zeros", "StatefulPartitionedCall/sequential/bidirectional/backward_lstm/Read_1/ReadVariableOp"], "device": "/device:CPU:0", "attr": {"transpose_b": {"b": false}, "T": {"type": "DT_FLOAT"}, "transpose_a": {"b": false}}}, {"name": "StatefulPartitionedCall/sequential/bidirectional/backward_lstm/PartitionedCall/while/merge/_135", "op": "Merge", "input": ["StatefulPartitionedCall/sequential/bidirectional/backward_lstm/PartitionedCall/while/enter/_122", "StatefulPartitionedCall/sequential/bidirectional/backward_lstm/PartitionedCall/while/next_iteration/_177"], "attr": {"T": {"type": "DT_VARIANT"}, "N": {"i": "2"}}}, {"name": "StatefulPartitionedCall/sequential/bidirectional/backward_lstm/PartitionedCall/while/enter/_117", "op": "Enter", "input": ["StatefulPartitionedCall/sequential/bidirectional/backward_lstm/PartitionedCall/TensorArrayV2_1"], "attr": {"frame_name": {"s": "U3RhdGVmdWxQYXJ0aXRpb25lZENhbGwvc2VxdWVudGlhbC9iaWRpcmVjdGlvbmFsL2JhY2t3YXJkX2xzdG0vUGFydGl0aW9uZWRDYWxsL3doaWxl"}, "T": {"type": "DT_VARIANT"}, "parallel_iterations": {"i": "32"}, "is_constant": {"b": false}}, "experimentalType": {"typeId": "TFT_PRODUCT", "args": [{"typeId": "TFT_ARRAY", "args": [{"typeId": "TFT_TENSOR", "args": [{"typeId": "TFT_FLOAT"}]}]}]}}, {"name": "StatefulPartitionedCall/sequential/bidirectional/backward_lstm/PartitionedCall/while/merge/_134", "op": "Merge", "input": ["StatefulPartitionedCall/sequential/bidirectional/backward_lstm/PartitionedCall/while/enter/_121", "StatefulPartitionedCall/sequential/bidirectional/backward_lstm/PartitionedCall/while/next_iteration/_176"], "attr": {"N": {"i": "2"}, "T": {"type": "DT_INT32"}}}, {"name": "StatefulPartitionedCall/sequential/bidirectional/backward_lstm/PartitionedCall/while/merge/_136", "op": "Merge", "input": ["StatefulPartitionedCall/sequential/bidirectional/backward_lstm/PartitionedCall/while/enter/_123", "StatefulPartitionedCall/sequential/bidirectional/backward_lstm/PartitionedCall/while/next_iteration/_178"], "attr": {"N": {"i": "2"}, "T": {"type": "DT_VARIANT"}}}, {"name": "StatefulPartitionedCall/sequential/bidirectional/forward_lstm/PartitionedCall/while/merge/_63", "op": "Merge", "input": ["StatefulPartitionedCall/sequential/bidirectional/forward_lstm/PartitionedCall/while/enter/_50", "StatefulPartitionedCall/sequential/bidirectional/forward_lstm/PartitionedCall/while/next_iteration/_105"], "attr": {"N": {"i": "2"}, "T": {"type": "DT_FLOAT"}}}, {"name": "StatefulPartitionedCall/sequential/bidirectional/forward_lstm/PartitionedCall/while/merge/_62", "op": "Merge", "input": ["StatefulPartitionedCall/sequential/bidirectional/forward_lstm/PartitionedCall/while/enter/_49", "StatefulPartitionedCall/sequential/bidirectional/forward_lstm/PartitionedCall/while/next_iteration/_104"], "attr": {"T": {"type": "DT_FLOAT"}, "N": {"i": "2"}}}, {"name": "StatefulPartitionedCall/sequential/bidirectional/forward_lstm/PartitionedCall/add", "op": "AddV2", "input": ["StatefulPartitionedCall/sequential/bidirectional/forward_lstm/PartitionedCall/MatMul", "StatefulPartitionedCall/sequential/bidirectional/forward_lstm/PartitionedCall/MatMul_1"], "attr": {"T": {"type": "DT_FLOAT"}}}, {"name": "StatefulPartitionedCall/sequential/bidirectional/forward_lstm/PartitionedCall/while/merge/_60", "op": "Merge", "input": ["StatefulPartitionedCall/sequential/bidirectional/forward_lstm/PartitionedCall/while/enter/_47", "StatefulPartitionedCall/sequential/bidirectional/forward_lstm/PartitionedCall/while/next_iteration/_102"], "attr": {"N": {"i": "2"}, "T": {"type": "DT_VARIANT"}}, "experimentalType": {"typeId": "TFT_PRODUCT", "args": [{"typeId": "TFT_ARRAY", "args": [{"typeId": "TFT_TENSOR", "args": [{"typeId": "TFT_FLOAT"}]}]}]}}, {"name": "StatefulPartitionedCall/sequential/bidirectional/forward_lstm/PartitionedCall/while/cond/_42/while/Less", "op": "Less", "input": ["StatefulPartitionedCall/sequential/bidirectional/forward_lstm/PartitionedCall/while/merge/_59", "StatefulPartitionedCall/sequential/bidirectional/forward_lstm/PartitionedCall/while/merge/_64", "^StatefulPartitionedCall/sequential/bidirectional/forward_lstm/PartitionedCall/while/merge/_57"], "attr": {"T": {"type": "DT_INT32"}}}, {"name": "StatefulPartitionedCall/sequential/bidirectional/backward_lstm/PartitionedCall/while/merge/_133", "op": "Merge", "input": ["StatefulPartitionedCall/sequential/bidirectional/backward_lstm/PartitionedCall/while/enter/_120", "StatefulPartitionedCall/sequential/bidirectional/backward_lstm/PartitionedCall/while/next_iteration/_175"], "attr": {"N": {"i": "2"}, "T": {"type": "DT_FLOAT"}}}, {"name": "StatefulPartitionedCall/sequential/bidirectional/backward_lstm/PartitionedCall/while/merge/_132", "op": "Merge", "input": ["StatefulPartitionedCall/sequential/bidirectional/backward_lstm/PartitionedCall/while/enter/_119", "StatefulPartitionedCall/sequential/bidirectional/backward_lstm/PartitionedCall/while/next_iteration/_174"], "attr": {"T": {"type": "DT_FLOAT"}, "N": {"i": "2"}}}, {"name": "StatefulPartitionedCall/sequential/bidirectional/backward_lstm/PartitionedCall/add", "op": "AddV2", "input": ["StatefulPartitionedCall/sequential/bidirectional/backward_lstm/PartitionedCall/MatMul", "StatefulPartitionedCall/sequential/bidirectional/backward_lstm/PartitionedCall/MatMul_1"], "attr": {"T": {"type": "DT_FLOAT"}}}, {"name": "StatefulPartitionedCall/sequential/bidirectional/backward_lstm/PartitionedCall/while/merge/_130", "op": "Merge", "input": ["StatefulPartitionedCall/sequential/bidirectional/backward_lstm/PartitionedCall/while/enter/_117", "StatefulPartitionedCall/sequential/bidirectional/backward_lstm/PartitionedCall/while/next_iteration/_172"], "attr": {"N": {"i": "2"}, "T": {"type": "DT_VARIANT"}}, "experimentalType": {"typeId": "TFT_PRODUCT", "args": [{"typeId": "TFT_ARRAY", "args": [{"typeId": "TFT_TENSOR", "args": [{"typeId": "TFT_FLOAT"}]}]}]}}, {"name": "StatefulPartitionedCall/sequential/bidirectional/backward_lstm/PartitionedCall/while/cond/_112/while/Less", "op": "Less", "input": ["StatefulPartitionedCall/sequential/bidirectional/backward_lstm/PartitionedCall/while/merge/_129", "StatefulPartitionedCall/sequential/bidirectional/backward_lstm/PartitionedCall/while/merge/_134", "^StatefulPartitionedCall/sequential/bidirectional/backward_lstm/PartitionedCall/while/merge/_127"], "attr": {"T": {"type": "DT_INT32"}}}, {"name": "StatefulPartitionedCall/sequential/bidirectional/forward_lstm/PartitionedCall/BiasAdd", "op": "BiasAdd", "input": ["StatefulPartitionedCall/sequential/bidirectional/forward_lstm/PartitionedCall/add", "StatefulPartitionedCall/sequential/bidirectional/forward_lstm/Read_2/ReadVariableOp"], "attr": {"data_format": {"s": "TkhXQw=="}, "T": {"type": "DT_FLOAT"}}}, {"name": "StatefulPartitionedCall/sequential/bidirectional/forward_lstm/PartitionedCall/while/LoopCond/_70", "op": "LoopCond", "input": ["StatefulPartitionedCall/sequential/bidirectional/forward_lstm/PartitionedCall/while/cond/_42/while/Less"]}, {"name": "StatefulPartitionedCall/sequential/bidirectional/backward_lstm/PartitionedCall/BiasAdd", "op": "BiasAdd", "input": ["StatefulPartitionedCall/sequential/bidirectional/backward_lstm/PartitionedCall/add", "StatefulPartitionedCall/sequential/bidirectional/backward_lstm/Read_2/ReadVariableOp"], "attr": {"data_format": {"s": "TkhXQw=="}, "T": {"type": "DT_FLOAT"}}}, {"name": "StatefulPartitionedCall/sequential/bidirectional/backward_lstm/PartitionedCall/while/LoopCond/_140", "op": "LoopCond", "input": ["StatefulPartitionedCall/sequential/bidirectional/backward_lstm/PartitionedCall/while/cond/_112/while/Less"]}, {"name": "StatefulPartitionedCall/sequential/bidirectional/forward_lstm/PartitionedCall/split", "op": "Split", "input": ["StatefulPartitionedCall/sequential/bidirectional/forward_lstm/PartitionedCall/split/split_dim", "StatefulPartitionedCall/sequential/bidirectional/forward_lstm/PartitionedCall/BiasAdd"], "attr": {"T": {"type": "DT_FLOAT"}, "num_split": {"i": "4"}}}, {"name": "StatefulPartitionedCall/sequential/bidirectional/forward_lstm/PartitionedCall/while/Func/StatefulPartitionedCall/sequential/bidirectional/forward_lstm/PartitionedCall/input/_20_switch/_77", "op": "Switch", "input": ["StatefulPartitionedCall/sequential/bidirectional/forward_lstm/PartitionedCall/while/merge/_63", "StatefulPartitionedCall/sequential/bidirectional/forward_lstm/PartitionedCall/while/LoopCond/_70"], "attr": {"T": {"type": "DT_FLOAT"}}}, {"name": "StatefulPartitionedCall/sequential/bidirectional/forward_lstm/PartitionedCall/while/StatefulPartitionedCall/sequential/bidirectional/forward_lstm/PartitionedCall/TensorArrayUnstack/TensorListFromTensor_switch/_79", "op": "Switch", "input": ["StatefulPartitionedCall/sequential/bidirectional/forward_lstm/PartitionedCall/while/merge/_65", "StatefulPartitionedCall/sequential/bidirectional/forward_lstm/PartitionedCall/while/LoopCond/_70"], "attr": {"T": {"type": "DT_VARIANT"}}}, {"name": "StatefulPartitionedCall/sequential/bidirectional/forward_lstm/PartitionedCall/while/Func/StatefulPartitionedCall/sequential/bidirectional/forward_lstm/PartitionedCall/input/_21_switch/_81", "op": "Switch", "input": ["StatefulPartitionedCall/sequential/bidirectional/forward_lstm/PartitionedCall/while/merge/_67", "StatefulPartitionedCall/sequential/bidirectional/forward_lstm/PartitionedCall/while/LoopCond/_70"], "attr": {"T": {"type": "DT_FLOAT"}}}, {"name": "StatefulPartitionedCall/sequential/bidirectional/forward_lstm/PartitionedCall/while/StatefulPartitionedCall/sequential/bidirectional/forward_lstm/PartitionedCall/TensorArrayUnstack_1/TensorListFromTensor_switch/_80", "op": "Switch", "input": ["StatefulPartitionedCall/sequential/bidirectional/forward_lstm/PartitionedCall/while/merge/_66", "StatefulPartitionedCall/sequential/bidirectional/forward_lstm/PartitionedCall/while/LoopCond/_70"], "attr": {"T": {"type": "DT_VARIANT"}}}, {"name": "StatefulPartitionedCall/sequential/bidirectional/forward_lstm/PartitionedCall/while/Func/StatefulPartitionedCall/sequential/bidirectional/forward_lstm/PartitionedCall/input/_19_switch/_76", "op": "Switch", "input": ["StatefulPartitionedCall/sequential/bidirectional/forward_lstm/PartitionedCall/while/merge/_62", "StatefulPartitionedCall/sequential/bidirectional/forward_lstm/PartitionedCall/while/LoopCond/_70"], "attr": {"T": {"type": "DT_FLOAT"}}}, {"name": "StatefulPartitionedCall/sequential/bidirectional/forward_lstm/PartitionedCall/while/Func/StatefulPartitionedCall/sequential/bidirectional/forward_lstm/PartitionedCall/input/_22_switch/_82", "op": "Switch", "input": ["StatefulPartitionedCall/sequential/bidirectional/forward_lstm/PartitionedCall/while/merge/_68", "StatefulPartitionedCall/sequential/bidirectional/forward_lstm/PartitionedCall/while/LoopCond/_70"], "attr": {"T": {"type": "DT_FLOAT"}}}, {"name": "StatefulPartitionedCall/sequential/bidirectional/forward_lstm/PartitionedCall/while/Func/StatefulPartitionedCall/sequential/bidirectional/forward_lstm/PartitionedCall/input/_23_switch/_83", "op": "Switch", "input": ["StatefulPartitionedCall/sequential/bidirectional/forward_lstm/PartitionedCall/while/merge/_69", "StatefulPartitionedCall/sequential/bidirectional/forward_lstm/PartitionedCall/while/LoopCond/_70"], "attr": {"T": {"type": "DT_FLOAT"}}}, {"name": "StatefulPartitionedCall/sequential/bidirectional/forward_lstm/PartitionedCall/while/StatefulPartitionedCall/sequential/bidirectional/forward_lstm/PartitionedCall/time_switch/_73", "op": "Switch", "input": ["StatefulPartitionedCall/sequential/bidirectional/forward_lstm/PartitionedCall/while/merge/_59", "StatefulPartitionedCall/sequential/bidirectional/forward_lstm/PartitionedCall/while/LoopCond/_70"], "attr": {"T": {"type": "DT_INT32"}}}, {"name": "StatefulPartitionedCall/sequential/bidirectional/forward_lstm/PartitionedCall/while/StatefulPartitionedCall/sequential/bidirectional/forward_lstm/PartitionedCall/while/loop_counter_switch/_71", "op": "Switch", "input": ["StatefulPartitionedCall/sequential/bidirectional/forward_lstm/PartitionedCall/while/merge/_57", "StatefulPartitionedCall/sequential/bidirectional/forward_lstm/PartitionedCall/while/LoopCond/_70"], "attr": {"T": {"type": "DT_INT32"}}}, {"name": "StatefulPartitionedCall/sequential/bidirectional/forward_lstm/PartitionedCall/while/StatefulPartitionedCall/sequential/bidirectional/forward_lstm/PartitionedCall/TensorArrayV2_1_switch/_74", "op": "Switch", "input": ["StatefulPartitionedCall/sequential/bidirectional/forward_lstm/PartitionedCall/while/merge/_60", "StatefulPartitionedCall/sequential/bidirectional/forward_lstm/PartitionedCall/while/LoopCond/_70"], "attr": {"T": {"type": "DT_VARIANT"}}}, {"name": "StatefulPartitionedCall/sequential/bidirectional/forward_lstm/PartitionedCall/while/StatefulPartitionedCall/sequential/bidirectional/forward_lstm/PartitionedCall/strided_slice_switch/_78", "op": "Switch", "input": ["StatefulPartitionedCall/sequential/bidirectional/forward_lstm/PartitionedCall/while/merge/_64", "StatefulPartitionedCall/sequential/bidirectional/forward_lstm/PartitionedCall/while/LoopCond/_70"], "attr": {"T": {"type": "DT_INT32"}}}, {"name": "StatefulPartitionedCall/sequential/bidirectional/backward_lstm/PartitionedCall/split", "op": "Split", "input": ["StatefulPartitionedCall/sequential/bidirectional/backward_lstm/PartitionedCall/split/split_dim", "StatefulPartitionedCall/sequential/bidirectional/backward_lstm/PartitionedCall/BiasAdd"], "attr": {"num_split": {"i": "4"}, "T": {"type": "DT_FLOAT"}}}, {"name": "StatefulPartitionedCall/sequential/bidirectional/backward_lstm/PartitionedCall/while/Func/StatefulPartitionedCall/sequential/bidirectional/backward_lstm/PartitionedCall/input/_32_switch/_147", "op": "Switch", "input": ["StatefulPartitionedCall/sequential/bidirectional/backward_lstm/PartitionedCall/while/merge/_133", "StatefulPartitionedCall/sequential/bidirectional/backward_lstm/PartitionedCall/while/LoopCond/_140"], "attr": {"T": {"type": "DT_FLOAT"}}}, {"name": "StatefulPartitionedCall/sequential/bidirectional/backward_lstm/PartitionedCall/while/StatefulPartitionedCall/sequential/bidirectional/backward_lstm/PartitionedCall/TensorArrayUnstack/TensorListFromTensor_switch/_149", "op": "Switch", "input": ["StatefulPartitionedCall/sequential/bidirectional/backward_lstm/PartitionedCall/while/merge/_135", "StatefulPartitionedCall/sequential/bidirectional/backward_lstm/PartitionedCall/while/LoopCond/_140"], "attr": {"T": {"type": "DT_VARIANT"}}}, {"name": "StatefulPartitionedCall/sequential/bidirectional/backward_lstm/PartitionedCall/while/Func/StatefulPartitionedCall/sequential/bidirectional/backward_lstm/PartitionedCall/input/_33_switch/_151", "op": "Switch", "input": ["StatefulPartitionedCall/sequential/bidirectional/backward_lstm/PartitionedCall/while/merge/_137", "StatefulPartitionedCall/sequential/bidirectional/backward_lstm/PartitionedCall/while/LoopCond/_140"], "attr": {"T": {"type": "DT_FLOAT"}}}, {"name": "StatefulPartitionedCall/sequential/bidirectional/backward_lstm/PartitionedCall/while/StatefulPartitionedCall/sequential/bidirectional/backward_lstm/PartitionedCall/TensorArrayUnstack_1/TensorListFromTensor_switch/_150", "op": "Switch", "input": ["StatefulPartitionedCall/sequential/bidirectional/backward_lstm/PartitionedCall/while/merge/_136", "StatefulPartitionedCall/sequential/bidirectional/backward_lstm/PartitionedCall/while/LoopCond/_140"], "attr": {"T": {"type": "DT_VARIANT"}}}, {"name": "StatefulPartitionedCall/sequential/bidirectional/backward_lstm/PartitionedCall/while/Func/StatefulPartitionedCall/sequential/bidirectional/backward_lstm/PartitionedCall/input/_31_switch/_146", "op": "Switch", "input": ["StatefulPartitionedCall/sequential/bidirectional/backward_lstm/PartitionedCall/while/merge/_132", "StatefulPartitionedCall/sequential/bidirectional/backward_lstm/PartitionedCall/while/LoopCond/_140"], "attr": {"T": {"type": "DT_FLOAT"}}}, {"name": "StatefulPartitionedCall/sequential/bidirectional/backward_lstm/PartitionedCall/while/Func/StatefulPartitionedCall/sequential/bidirectional/backward_lstm/PartitionedCall/input/_34_switch/_152", "op": "Switch", "input": ["StatefulPartitionedCall/sequential/bidirectional/backward_lstm/PartitionedCall/while/merge/_138", "StatefulPartitionedCall/sequential/bidirectional/backward_lstm/PartitionedCall/while/LoopCond/_140"], "attr": {"T": {"type": "DT_FLOAT"}}}, {"name": "StatefulPartitionedCall/sequential/bidirectional/backward_lstm/PartitionedCall/while/Func/StatefulPartitionedCall/sequential/bidirectional/backward_lstm/PartitionedCall/input/_35_switch/_153", "op": "Switch", "input": ["StatefulPartitionedCall/sequential/bidirectional/backward_lstm/PartitionedCall/while/merge/_139", "StatefulPartitionedCall/sequential/bidirectional/backward_lstm/PartitionedCall/while/LoopCond/_140"], "attr": {"T": {"type": "DT_FLOAT"}}}, {"name": "StatefulPartitionedCall/sequential/bidirectional/backward_lstm/PartitionedCall/while/StatefulPartitionedCall/sequential/bidirectional/backward_lstm/PartitionedCall/time_switch/_143", "op": "Switch", "input": ["StatefulPartitionedCall/sequential/bidirectional/backward_lstm/PartitionedCall/while/merge/_129", "StatefulPartitionedCall/sequential/bidirectional/backward_lstm/PartitionedCall/while/LoopCond/_140"], "attr": {"T": {"type": "DT_INT32"}}}, {"name": "StatefulPartitionedCall/sequential/bidirectional/backward_lstm/PartitionedCall/while/StatefulPartitionedCall/sequential/bidirectional/backward_lstm/PartitionedCall/while/loop_counter_switch/_141", "op": "Switch", "input": ["StatefulPartitionedCall/sequential/bidirectional/backward_lstm/PartitionedCall/while/merge/_127", "StatefulPartitionedCall/sequential/bidirectional/backward_lstm/PartitionedCall/while/LoopCond/_140"], "attr": {"T": {"type": "DT_INT32"}}}, {"name": "StatefulPartitionedCall/sequential/bidirectional/backward_lstm/PartitionedCall/while/StatefulPartitionedCall/sequential/bidirectional/backward_lstm/PartitionedCall/TensorArrayV2_1_switch/_144", "op": "Switch", "input": ["StatefulPartitionedCall/sequential/bidirectional/backward_lstm/PartitionedCall/while/merge/_130", "StatefulPartitionedCall/sequential/bidirectional/backward_lstm/PartitionedCall/while/LoopCond/_140"], "attr": {"T": {"type": "DT_VARIANT"}}}, {"name": "StatefulPartitionedCall/sequential/bidirectional/backward_lstm/PartitionedCall/while/StatefulPartitionedCall/sequential/bidirectional/backward_lstm/PartitionedCall/strided_slice_switch/_148", "op": "Switch", "input": ["StatefulPartitionedCall/sequential/bidirectional/backward_lstm/PartitionedCall/while/merge/_134", "StatefulPartitionedCall/sequential/bidirectional/backward_lstm/PartitionedCall/while/LoopCond/_140"], "attr": {"T": {"type": "DT_INT32"}}}, {"name": "StatefulPartitionedCall/sequential/bidirectional/forward_lstm/PartitionedCall/Sigmoid", "op": "Sigmoid", "input": ["StatefulPartitionedCall/sequential/bidirectional/forward_lstm/PartitionedCall/split"], "attr": {"T": {"type": "DT_FLOAT"}}}, {"name": "StatefulPartitionedCall/sequential/bidirectional/forward_lstm/PartitionedCall/Sigmoid_1", "op": "Sigmoid", "input": ["StatefulPartitionedCall/sequential/bidirectional/forward_lstm/PartitionedCall/split:1"], "attr": {"T": {"type": "DT_FLOAT"}}}, {"name": "StatefulPartitionedCall/sequential/bidirectional/forward_lstm/PartitionedCall/Tanh", "op": "Tanh", "input": ["StatefulPartitionedCall/sequential/bidirectional/forward_lstm/PartitionedCall/split:2"], "attr": {"T": {"type": "DT_FLOAT"}}}, {"name": "StatefulPartitionedCall/sequential/bidirectional/forward_lstm/PartitionedCall/Sigmoid_2", "op": "Sigmoid", "input": ["StatefulPartitionedCall/sequential/bidirectional/forward_lstm/PartitionedCall/split:3"], "attr": {"T": {"type": "DT_FLOAT"}}}, {"name": "StatefulPartitionedCall/sequential/bidirectional/forward_lstm/PartitionedCall/while/loop_body_control/_84", "op": "Identity", "input": ["StatefulPartitionedCall/sequential/bidirectional/forward_lstm/PartitionedCall/while/StatefulPartitionedCall/sequential/bidirectional/forward_lstm/PartitionedCall/while/loop_counter_switch/_71:1"], "attr": {"T": {"type": "DT_INT32"}}}, {"name": "StatefulPartitionedCall/sequential/bidirectional/forward_lstm/PartitionedCall/while/exit/_88", "op": "Exit", "input": ["StatefulPartitionedCall/sequential/bidirectional/forward_lstm/PartitionedCall/while/StatefulPartitionedCall/sequential/bidirectional/forward_lstm/PartitionedCall/TensorArrayV2_1_switch/_74"], "attr": {"T": {"type": "DT_VARIANT"}}}, {"name": "StatefulPartitionedCall/sequential/bidirectional/backward_lstm/PartitionedCall/Sigmoid", "op": "Sigmoid", "input": ["StatefulPartitionedCall/sequential/bidirectional/backward_lstm/PartitionedCall/split"], "attr": {"T": {"type": "DT_FLOAT"}}}, {"name": "StatefulPartitionedCall/sequential/bidirectional/backward_lstm/PartitionedCall/Sigmoid_1", "op": "Sigmoid", "input": ["StatefulPartitionedCall/sequential/bidirectional/backward_lstm/PartitionedCall/split:1"], "attr": {"T": {"type": "DT_FLOAT"}}}, {"name": "StatefulPartitionedCall/sequential/bidirectional/backward_lstm/PartitionedCall/Tanh", "op": "Tanh", "input": ["StatefulPartitionedCall/sequential/bidirectional/backward_lstm/PartitionedCall/split:2"], "attr": {"T": {"type": "DT_FLOAT"}}}, {"name": "StatefulPartitionedCall/sequential/bidirectional/backward_lstm/PartitionedCall/Sigmoid_2", "op": "Sigmoid", "input": ["StatefulPartitionedCall/sequential/bidirectional/backward_lstm/PartitionedCall/split:3"], "attr": {"T": {"type": "DT_FLOAT"}}}, {"name": "StatefulPartitionedCall/sequential/bidirectional/backward_lstm/PartitionedCall/while/loop_body_control/_154", "op": "Identity", "input": ["StatefulPartitionedCall/sequential/bidirectional/backward_lstm/PartitionedCall/while/StatefulPartitionedCall/sequential/bidirectional/backward_lstm/PartitionedCall/while/loop_counter_switch/_141:1"], "attr": {"T": {"type": "DT_INT32"}}}, {"name": "StatefulPartitionedCall/sequential/bidirectional/backward_lstm/PartitionedCall/while/exit/_158", "op": "Exit", "input": ["StatefulPartitionedCall/sequential/bidirectional/backward_lstm/PartitionedCall/while/StatefulPartitionedCall/sequential/bidirectional/backward_lstm/PartitionedCall/TensorArrayV2_1_switch/_144"], "attr": {"T": {"type": "DT_VARIANT"}}}, {"name": "StatefulPartitionedCall/sequential/bidirectional/forward_lstm/PartitionedCall/mul", "op": "Mul", "input": ["StatefulPartitionedCall/sequential/bidirectional/forward_lstm/PartitionedCall/Sigmoid_1", "StatefulPartitionedCall/sequential/bidirectional/forward_lstm/zeros_1"], "attr": {"T": {"type": "DT_FLOAT"}}}, {"name": "StatefulPartitionedCall/sequential/bidirectional/forward_lstm/PartitionedCall/mul_1", "op": "Mul", "input": ["StatefulPartitionedCall/sequential/bidirectional/forward_lstm/PartitionedCall/Sigmoid", "StatefulPartitionedCall/sequential/bidirectional/forward_lstm/PartitionedCall/Tanh"], "attr": {"T": {"type": "DT_FLOAT"}}}, {"name": "StatefulPartitionedCall/sequential/bidirectional/forward_lstm/PartitionedCall/while/body/_43/while/split/split_dim", "op": "Const", "input": ["^StatefulPartitionedCall/sequential/bidirectional/forward_lstm/PartitionedCall/while/loop_body_control/_84"], "attr": {"value": {"tensor": {"dtype": "DT_INT32", "tensorShape": {}}}, "dtype": {"type": "DT_INT32"}}}, {"name": "StatefulPartitionedCall/sequential/bidirectional/forward_lstm/PartitionedCall/while/next_iteration/_107", "op": "NextIteration", "input": ["StatefulPartitionedCall/sequential/bidirectional/forward_lstm/PartitionedCall/while/StatefulPartitionedCall/sequential/bidirectional/forward_lstm/PartitionedCall/TensorArrayUnstack/TensorListFromTensor_switch/_79:1", "^StatefulPartitionedCall/sequential/bidirectional/forward_lstm/PartitionedCall/while/loop_body_control/_84"], "attr": {"T": {"type": "DT_VARIANT"}}}, {"name": "StatefulPartitionedCall/sequential/bidirectional/forward_lstm/PartitionedCall/while/body/_43/while/TensorArrayV2Read/TensorListGetItem/element_shape", "op": "Const", "input": ["^StatefulPartitionedCall/sequential/bidirectional/forward_lstm/PartitionedCall/while/loop_body_control/_84"], "attr": {"value": {"tensor": {"dtype": "DT_INT32", "tensorShape": {"dim": [{"size": "2"}]}}}, "dtype": {"type": "DT_INT32"}}}, {"name": "StatefulPartitionedCall/sequential/bidirectional/forward_lstm/PartitionedCall/while/next_iteration/_109", "op": "NextIteration", "input": ["StatefulPartitionedCall/sequential/bidirectional/forward_lstm/PartitionedCall/while/Func/StatefulPartitionedCall/sequential/bidirectional/forward_lstm/PartitionedCall/input/_21_switch/_81:1", "^StatefulPartitionedCall/sequential/bidirectional/forward_lstm/PartitionedCall/while/loop_body_control/_84"], "attr": {"T": {"type": "DT_FLOAT"}}}, {"name": "StatefulPartitionedCall/sequential/bidirectional/forward_lstm/PartitionedCall/while/next_iteration/_108", "op": "NextIteration", "input": ["StatefulPartitionedCall/sequential/bidirectional/forward_lstm/PartitionedCall/while/StatefulPartitionedCall/sequential/bidirectional/forward_lstm/PartitionedCall/TensorArrayUnstack_1/TensorListFromTensor_switch/_80:1", "^StatefulPartitionedCall/sequential/bidirectional/forward_lstm/PartitionedCall/while/loop_body_control/_84"], "attr": {"T": {"type": "DT_VARIANT"}}}, {"name": "StatefulPartitionedCall/sequential/bidirectional/forward_lstm/PartitionedCall/while/body/_43/while/TensorArrayV2Read_1/TensorListGetItem/element_shape", "op": "Const", "input": ["^StatefulPartitionedCall/sequential/bidirectional/forward_lstm/PartitionedCall/while/loop_body_control/_84"], "attr": {"dtype": {"type": "DT_INT32"}, "value": {"tensor": {"dtype": "DT_INT32", "tensorShape": {"dim": [{"size": "2"}]}}}}}, {"name": "StatefulPartitionedCall/sequential/bidirectional/forward_lstm/PartitionedCall/while/next_iteration/_110", "op": "NextIteration", "input": ["StatefulPartitionedCall/sequential/bidirectional/forward_lstm/PartitionedCall/while/Func/StatefulPartitionedCall/sequential/bidirectional/forward_lstm/PartitionedCall/input/_22_switch/_82:1", "^StatefulPartitionedCall/sequential/bidirectional/forward_lstm/PartitionedCall/while/loop_body_control/_84"], "attr": {"T": {"type": "DT_FLOAT"}}}, {"name": "StatefulPartitionedCall/sequential/bidirectional/forward_lstm/PartitionedCall/while/body/_43/while/MatMul_1", "op": "MatMul", "input": ["StatefulPartitionedCall/sequential/bidirectional/forward_lstm/PartitionedCall/while/Func/StatefulPartitionedCall/sequential/bidirectional/forward_lstm/PartitionedCall/input/_19_switch/_76:1", "StatefulPartitionedCall/sequential/bidirectional/forward_lstm/PartitionedCall/while/Func/StatefulPartitionedCall/sequential/bidirectional/forward_lstm/PartitionedCall/input/_22_switch/_82:1", "^StatefulPartitionedCall/sequential/bidirectional/forward_lstm/PartitionedCall/while/loop_body_control/_84"], "device": "/device:CPU:0", "attr": {"transpose_b": {"b": false}, "transpose_a": {"b": false}, "T": {"type": "DT_FLOAT"}}}, {"name": "StatefulPartitionedCall/sequential/bidirectional/forward_lstm/PartitionedCall/while/next_iteration/_111", "op": "NextIteration", "input": ["StatefulPartitionedCall/sequential/bidirectional/forward_lstm/PartitionedCall/while/Func/StatefulPartitionedCall/sequential/bidirectional/forward_lstm/PartitionedCall/input/_23_switch/_83:1", "^StatefulPartitionedCall/sequential/bidirectional/forward_lstm/PartitionedCall/while/loop_body_control/_84"], "attr": {"T": {"type": "DT_FLOAT"}}}, {"name": "Func/StatefulPartitionedCall/sequential/bidirectional/forward_lstm/PartitionedCall/while/body/_43/input/_200", "op": "Identity", "input": ["StatefulPartitionedCall/sequential/bidirectional/forward_lstm/PartitionedCall/while/StatefulPartitionedCall/sequential/bidirectional/forward_lstm/PartitionedCall/time_switch/_73:1", "^StatefulPartitionedCall/sequential/bidirectional/forward_lstm/PartitionedCall/while/loop_body_control/_84"], "attr": {"T": {"type": "DT_INT32"}}}, {"name": "StatefulPartitionedCall/sequential/bidirectional/forward_lstm/PartitionedCall/while/body/_43/while/add_2/y", "op": "Const", "input": ["^StatefulPartitionedCall/sequential/bidirectional/forward_lstm/PartitionedCall/while/loop_body_control/_84"], "attr": {"value": {"tensor": {"dtype": "DT_INT32", "tensorShape": {}}}, "dtype": {"type": "DT_INT32"}}}, {"name": "StatefulPartitionedCall/sequential/bidirectional/forward_lstm/PartitionedCall/while/body/_43/while/add_3/y", "op": "Const", "input": ["^StatefulPartitionedCall/sequential/bidirectional/forward_lstm/PartitionedCall/while/loop_body_control/_84"], "attr": {"dtype": {"type": "DT_INT32"}, "value": {"tensor": {"dtype": "DT_INT32", "tensorShape": {}}}}}, {"name": "StatefulPartitionedCall/sequential/bidirectional/forward_lstm/PartitionedCall/while/next_iteration/_106", "op": "NextIteration", "input": ["StatefulPartitionedCall/sequential/bidirectional/forward_lstm/PartitionedCall/while/StatefulPartitionedCall/sequential/bidirectional/forward_lstm/PartitionedCall/strided_slice_switch/_78:1", "^StatefulPartitionedCall/sequential/bidirectional/forward_lstm/PartitionedCall/while/loop_body_control/_84"], "attr": {"T": {"type": "DT_INT32"}}}, {"name": "StatefulPartitionedCall/sequential/bidirectional/forward_lstm/PartitionedCall/TensorArrayV2Stack/TensorListStack", "op": "TensorListStack", "input": ["StatefulPartitionedCall/sequential/bidirectional/forward_lstm/PartitionedCall/while/exit/_88", "StatefulPartitionedCall/sequential/bidirectional/forward_lstm/PartitionedCall/TensorArrayV2Stack/TensorListStack/element_shape"], "attr": {"num_elements": {"i": "-1"}, "element_dtype": {"type": "DT_FLOAT"}}}, {"name": "StatefulPartitionedCall/sequential/bidirectional/backward_lstm/PartitionedCall/mul", "op": "Mul", "input": ["StatefulPartitionedCall/sequential/bidirectional/backward_lstm/PartitionedCall/Sigmoid_1", "StatefulPartitionedCall/sequential/bidirectional/backward_lstm/zeros_1"], "attr": {"T": {"type": "DT_FLOAT"}}}, {"name": "StatefulPartitionedCall/sequential/bidirectional/backward_lstm/PartitionedCall/mul_1", "op": "Mul", "input": ["StatefulPartitionedCall/sequential/bidirectional/backward_lstm/PartitionedCall/Sigmoid", "StatefulPartitionedCall/sequential/bidirectional/backward_lstm/PartitionedCall/Tanh"], "attr": {"T": {"type": "DT_FLOAT"}}}, {"name": "StatefulPartitionedCall/sequential/bidirectional/backward_lstm/PartitionedCall/while/body/_113/while/split/split_dim", "op": "Const", "input": ["^StatefulPartitionedCall/sequential/bidirectional/backward_lstm/PartitionedCall/while/loop_body_control/_154"], "attr": {"value": {"tensor": {"dtype": "DT_INT32", "tensorShape": {}}}, "dtype": {"type": "DT_INT32"}}}, {"name": "StatefulPartitionedCall/sequential/bidirectional/backward_lstm/PartitionedCall/while/next_iteration/_177", "op": "NextIteration", "input": ["StatefulPartitionedCall/sequential/bidirectional/backward_lstm/PartitionedCall/while/StatefulPartitionedCall/sequential/bidirectional/backward_lstm/PartitionedCall/TensorArrayUnstack/TensorListFromTensor_switch/_149:1", "^StatefulPartitionedCall/sequential/bidirectional/backward_lstm/PartitionedCall/while/loop_body_control/_154"], "attr": {"T": {"type": "DT_VARIANT"}}}, {"name": "StatefulPartitionedCall/sequential/bidirectional/backward_lstm/PartitionedCall/while/body/_113/while/TensorArrayV2Read/TensorListGetItem/element_shape", "op": "Const", "input": ["^StatefulPartitionedCall/sequential/bidirectional/backward_lstm/PartitionedCall/while/loop_body_control/_154"], "attr": {"dtype": {"type": "DT_INT32"}, "value": {"tensor": {"dtype": "DT_INT32", "tensorShape": {"dim": [{"size": "2"}]}}}}}, {"name": "StatefulPartitionedCall/sequential/bidirectional/backward_lstm/PartitionedCall/while/next_iteration/_179", "op": "NextIteration", "input": ["StatefulPartitionedCall/sequential/bidirectional/backward_lstm/PartitionedCall/while/Func/StatefulPartitionedCall/sequential/bidirectional/backward_lstm/PartitionedCall/input/_33_switch/_151:1", "^StatefulPartitionedCall/sequential/bidirectional/backward_lstm/PartitionedCall/while/loop_body_control/_154"], "attr": {"T": {"type": "DT_FLOAT"}}}, {"name": "StatefulPartitionedCall/sequential/bidirectional/backward_lstm/PartitionedCall/while/next_iteration/_178", "op": "NextIteration", "input": ["StatefulPartitionedCall/sequential/bidirectional/backward_lstm/PartitionedCall/while/StatefulPartitionedCall/sequential/bidirectional/backward_lstm/PartitionedCall/TensorArrayUnstack_1/TensorListFromTensor_switch/_150:1", "^StatefulPartitionedCall/sequential/bidirectional/backward_lstm/PartitionedCall/while/loop_body_control/_154"], "attr": {"T": {"type": "DT_VARIANT"}}}, {"name": "StatefulPartitionedCall/sequential/bidirectional/backward_lstm/PartitionedCall/while/body/_113/while/TensorArrayV2Read_1/TensorListGetItem/element_shape", "op": "Const", "input": ["^StatefulPartitionedCall/sequential/bidirectional/backward_lstm/PartitionedCall/while/loop_body_control/_154"], "attr": {"value": {"tensor": {"dtype": "DT_INT32", "tensorShape": {"dim": [{"size": "2"}]}}}, "dtype": {"type": "DT_INT32"}}}, {"name": "StatefulPartitionedCall/sequential/bidirectional/backward_lstm/PartitionedCall/while/next_iteration/_180", "op": "NextIteration", "input": ["StatefulPartitionedCall/sequential/bidirectional/backward_lstm/PartitionedCall/while/Func/StatefulPartitionedCall/sequential/bidirectional/backward_lstm/PartitionedCall/input/_34_switch/_152:1", "^StatefulPartitionedCall/sequential/bidirectional/backward_lstm/PartitionedCall/while/loop_body_control/_154"], "attr": {"T": {"type": "DT_FLOAT"}}}, {"name": "StatefulPartitionedCall/sequential/bidirectional/backward_lstm/PartitionedCall/while/body/_113/while/MatMul_1", "op": "MatMul", "input": ["StatefulPartitionedCall/sequential/bidirectional/backward_lstm/PartitionedCall/while/Func/StatefulPartitionedCall/sequential/bidirectional/backward_lstm/PartitionedCall/input/_31_switch/_146:1", "StatefulPartitionedCall/sequential/bidirectional/backward_lstm/PartitionedCall/while/Func/StatefulPartitionedCall/sequential/bidirectional/backward_lstm/PartitionedCall/input/_34_switch/_152:1", "^StatefulPartitionedCall/sequential/bidirectional/backward_lstm/PartitionedCall/while/loop_body_control/_154"], "device": "/device:CPU:0", "attr": {"transpose_a": {"b": false}, "transpose_b": {"b": false}, "T": {"type": "DT_FLOAT"}}}, {"name": "StatefulPartitionedCall/sequential/bidirectional/backward_lstm/PartitionedCall/while/next_iteration/_181", "op": "NextIteration", "input": ["StatefulPartitionedCall/sequential/bidirectional/backward_lstm/PartitionedCall/while/Func/StatefulPartitionedCall/sequential/bidirectional/backward_lstm/PartitionedCall/input/_35_switch/_153:1", "^StatefulPartitionedCall/sequential/bidirectional/backward_lstm/PartitionedCall/while/loop_body_control/_154"], "attr": {"T": {"type": "DT_FLOAT"}}}, {"name": "Func/StatefulPartitionedCall/sequential/bidirectional/backward_lstm/PartitionedCall/while/body/_113/input/_243", "op": "Identity", "input": ["StatefulPartitionedCall/sequential/bidirectional/backward_lstm/PartitionedCall/while/StatefulPartitionedCall/sequential/bidirectional/backward_lstm/PartitionedCall/time_switch/_143:1", "^StatefulPartitionedCall/sequential/bidirectional/backward_lstm/PartitionedCall/while/loop_body_control/_154"], "attr": {"T": {"type": "DT_INT32"}}}, {"name": "StatefulPartitionedCall/sequential/bidirectional/backward_lstm/PartitionedCall/while/body/_113/while/add_2/y", "op": "Const", "input": ["^StatefulPartitionedCall/sequential/bidirectional/backward_lstm/PartitionedCall/while/loop_body_control/_154"], "attr": {"dtype": {"type": "DT_INT32"}, "value": {"tensor": {"dtype": "DT_INT32", "tensorShape": {}}}}}, {"name": "StatefulPartitionedCall/sequential/bidirectional/backward_lstm/PartitionedCall/while/body/_113/while/add_3/y", "op": "Const", "input": ["^StatefulPartitionedCall/sequential/bidirectional/backward_lstm/PartitionedCall/while/loop_body_control/_154"], "attr": {"value": {"tensor": {"dtype": "DT_INT32", "tensorShape": {}}}, "dtype": {"type": "DT_INT32"}}}, {"name": "StatefulPartitionedCall/sequential/bidirectional/backward_lstm/PartitionedCall/while/next_iteration/_176", "op": "NextIteration", "input": ["StatefulPartitionedCall/sequential/bidirectional/backward_lstm/PartitionedCall/while/StatefulPartitionedCall/sequential/bidirectional/backward_lstm/PartitionedCall/strided_slice_switch/_148:1", "^StatefulPartitionedCall/sequential/bidirectional/backward_lstm/PartitionedCall/while/loop_body_control/_154"], "attr": {"T": {"type": "DT_INT32"}}}, {"name": "StatefulPartitionedCall/sequential/bidirectional/backward_lstm/PartitionedCall/TensorArrayV2Stack/TensorListStack", "op": "TensorListStack", "input": ["StatefulPartitionedCall/sequential/bidirectional/backward_lstm/PartitionedCall/while/exit/_158", "StatefulPartitionedCall/sequential/bidirectional/backward_lstm/PartitionedCall/TensorArrayV2Stack/TensorListStack/element_shape"], "attr": {"element_dtype": {"type": "DT_FLOAT"}, "num_elements": {"i": "-1"}}}, {"name": "StatefulPartitionedCall/sequential/bidirectional/forward_lstm/PartitionedCall/add_1", "op": "AddV2", "input": ["StatefulPartitionedCall/sequential/bidirectional/forward_lstm/PartitionedCall/mul", "StatefulPartitionedCall/sequential/bidirectional/forward_lstm/PartitionedCall/mul_1"], "attr": {"T": {"type": "DT_FLOAT"}}}, {"name": "StatefulPartitionedCall/sequential/bidirectional/forward_lstm/PartitionedCall/while/body/_43/while/TensorArrayV2Read/TensorListGetItem", "op": "TensorListGetItem", "input": ["StatefulPartitionedCall/sequential/bidirectional/forward_lstm/PartitionedCall/while/StatefulPartitionedCall/sequential/bidirectional/forward_lstm/PartitionedCall/TensorArrayUnstack/TensorListFromTensor_switch/_79:1", "Func/StatefulPartitionedCall/sequential/bidirectional/forward_lstm/PartitionedCall/while/body/_43/input/_200", "StatefulPartitionedCall/sequential/bidirectional/forward_lstm/PartitionedCall/while/body/_43/while/TensorArrayV2Read/TensorListGetItem/element_shape"], "attr": {"element_dtype": {"type": "DT_FLOAT"}}}, {"name": "StatefulPartitionedCall/sequential/bidirectional/forward_lstm/PartitionedCall/while/body/_43/while/TensorArrayV2Read_1/TensorListGetItem", "op": "TensorListGetItem", "input": ["StatefulPartitionedCall/sequential/bidirectional/forward_lstm/PartitionedCall/while/StatefulPartitionedCall/sequential/bidirectional/forward_lstm/PartitionedCall/TensorArrayUnstack_1/TensorListFromTensor_switch/_80:1", "Func/StatefulPartitionedCall/sequential/bidirectional/forward_lstm/PartitionedCall/while/body/_43/input/_200", "StatefulPartitionedCall/sequential/bidirectional/forward_lstm/PartitionedCall/while/body/_43/while/TensorArrayV2Read_1/TensorListGetItem/element_shape"], "attr": {"element_dtype": {"type": "DT_BOOL"}}}, {"name": "StatefulPartitionedCall/sequential/bidirectional/forward_lstm/PartitionedCall/while/body/_43/while/add_2", "op": "AddV2", "input": ["Func/StatefulPartitionedCall/sequential/bidirectional/forward_lstm/PartitionedCall/while/body/_43/input/_200", "StatefulPartitionedCall/sequential/bidirectional/forward_lstm/PartitionedCall/while/body/_43/while/add_2/y"], "attr": {"T": {"type": "DT_INT32"}}}, {"name": "StatefulPartitionedCall/sequential/bidirectional/forward_lstm/PartitionedCall/while/body/_43/while/add_3", "op": "AddV2", "input": ["StatefulPartitionedCall/sequential/bidirectional/forward_lstm/PartitionedCall/while/StatefulPartitionedCall/sequential/bidirectional/forward_lstm/PartitionedCall/while/loop_counter_switch/_71:1", "StatefulPartitionedCall/sequential/bidirectional/forward_lstm/PartitionedCall/while/body/_43/while/add_3/y"], "attr": {"T": {"type": "DT_INT32"}}}, {"name": "StatefulPartitionedCall/sequential/bidirectional/forward_lstm/PartitionedCall/strided_slice_2", "op": "StridedSlice", "input": ["StatefulPartitionedCall/sequential/bidirectional/forward_lstm/PartitionedCall/TensorArrayV2Stack/TensorListStack", "StatefulPartitionedCall/sequential/bidirectional/forward_lstm/PartitionedCall/strided_slice_2/stack", "StatefulPartitionedCall/sequential/bidirectional/forward_lstm/PartitionedCall/strided_slice_2/stack_1", "StatefulPartitionedCall/sequential/bidirectional/forward_lstm/PartitionedCall/strided_slice_2/stack_2"], "attr": {"Index": {"type": "DT_INT32"}, "T": {"type": "DT_FLOAT"}, "end_mask": {"i": "0"}, "ellipsis_mask": {"i": "0"}, "shrink_axis_mask": {"i": "1"}, "begin_mask": {"i": "0"}, "new_axis_mask": {"i": "0"}}}, {"name": "StatefulPartitionedCall/sequential/bidirectional/backward_lstm/PartitionedCall/add_1", "op": "AddV2", "input": ["StatefulPartitionedCall/sequential/bidirectional/backward_lstm/PartitionedCall/mul", "StatefulPartitionedCall/sequential/bidirectional/backward_lstm/PartitionedCall/mul_1"], "attr": {"T": {"type": "DT_FLOAT"}}}, {"name": "StatefulPartitionedCall/sequential/bidirectional/backward_lstm/PartitionedCall/while/body/_113/while/TensorArrayV2Read/TensorListGetItem", "op": "TensorListGetItem", "input": ["StatefulPartitionedCall/sequential/bidirectional/backward_lstm/PartitionedCall/while/StatefulPartitionedCall/sequential/bidirectional/backward_lstm/PartitionedCall/TensorArrayUnstack/TensorListFromTensor_switch/_149:1", "Func/StatefulPartitionedCall/sequential/bidirectional/backward_lstm/PartitionedCall/while/body/_113/input/_243", "StatefulPartitionedCall/sequential/bidirectional/backward_lstm/PartitionedCall/while/body/_113/while/TensorArrayV2Read/TensorListGetItem/element_shape"], "attr": {"element_dtype": {"type": "DT_FLOAT"}}}, {"name": "StatefulPartitionedCall/sequential/bidirectional/backward_lstm/PartitionedCall/while/body/_113/while/TensorArrayV2Read_1/TensorListGetItem", "op": "TensorListGetItem", "input": ["StatefulPartitionedCall/sequential/bidirectional/backward_lstm/PartitionedCall/while/StatefulPartitionedCall/sequential/bidirectional/backward_lstm/PartitionedCall/TensorArrayUnstack_1/TensorListFromTensor_switch/_150:1", "Func/StatefulPartitionedCall/sequential/bidirectional/backward_lstm/PartitionedCall/while/body/_113/input/_243", "StatefulPartitionedCall/sequential/bidirectional/backward_lstm/PartitionedCall/while/body/_113/while/TensorArrayV2Read_1/TensorListGetItem/element_shape"], "attr": {"element_dtype": {"type": "DT_BOOL"}}}, {"name": "StatefulPartitionedCall/sequential/bidirectional/backward_lstm/PartitionedCall/while/body/_113/while/add_2", "op": "AddV2", "input": ["Func/StatefulPartitionedCall/sequential/bidirectional/backward_lstm/PartitionedCall/while/body/_113/input/_243", "StatefulPartitionedCall/sequential/bidirectional/backward_lstm/PartitionedCall/while/body/_113/while/add_2/y"], "attr": {"T": {"type": "DT_INT32"}}}, {"name": "StatefulPartitionedCall/sequential/bidirectional/backward_lstm/PartitionedCall/while/body/_113/while/add_3", "op": "AddV2", "input": ["StatefulPartitionedCall/sequential/bidirectional/backward_lstm/PartitionedCall/while/StatefulPartitionedCall/sequential/bidirectional/backward_lstm/PartitionedCall/while/loop_counter_switch/_141:1", "StatefulPartitionedCall/sequential/bidirectional/backward_lstm/PartitionedCall/while/body/_113/while/add_3/y"], "attr": {"T": {"type": "DT_INT32"}}}, {"name": "StatefulPartitionedCall/sequential/bidirectional/backward_lstm/PartitionedCall/strided_slice_2", "op": "StridedSlice", "input": ["StatefulPartitionedCall/sequential/bidirectional/backward_lstm/PartitionedCall/TensorArrayV2Stack/TensorListStack", "StatefulPartitionedCall/sequential/bidirectional/backward_lstm/PartitionedCall/strided_slice_2/stack", "StatefulPartitionedCall/sequential/bidirectional/backward_lstm/PartitionedCall/strided_slice_2/stack_1", "StatefulPartitionedCall/sequential/bidirectional/backward_lstm/PartitionedCall/strided_slice_2/stack_2"], "attr": {"begin_mask": {"i": "0"}, "T": {"type": "DT_FLOAT"}, "new_axis_mask": {"i": "0"}, "Index": {"type": "DT_INT32"}, "ellipsis_mask": {"i": "0"}, "end_mask": {"i": "0"}, "shrink_axis_mask": {"i": "1"}}}, {"name": "StatefulPartitionedCall/sequential/bidirectional/forward_lstm/PartitionedCall/Tanh_1", "op": "Tanh", "input": ["StatefulPartitionedCall/sequential/bidirectional/forward_lstm/PartitionedCall/add_1"], "attr": {"T": {"type": "DT_FLOAT"}}}, {"name": "StatefulPartitionedCall/sequential/bidirectional/forward_lstm/PartitionedCall/while/body/_43/while/MatMul", "op": "MatMul", "input": ["StatefulPartitionedCall/sequential/bidirectional/forward_lstm/PartitionedCall/while/body/_43/while/TensorArrayV2Read/TensorListGetItem", "StatefulPartitionedCall/sequential/bidirectional/forward_lstm/PartitionedCall/while/Func/StatefulPartitionedCall/sequential/bidirectional/forward_lstm/PartitionedCall/input/_21_switch/_81:1"], "device": "/device:CPU:0", "attr": {"T": {"type": "DT_FLOAT"}, "transpose_b": {"b": false}, "transpose_a": {"b": false}}}, {"name": "StatefulPartitionedCall/sequential/bidirectional/forward_lstm/PartitionedCall/while/next_iteration/_101", "op": "NextIteration", "input": ["StatefulPartitionedCall/sequential/bidirectional/forward_lstm/PartitionedCall/while/body/_43/while/add_2", "^StatefulPartitionedCall/sequential/bidirectional/forward_lstm/PartitionedCall/while/loop_body_control/_84"], "attr": {"T": {"type": "DT_INT32"}}}, {"name": "StatefulPartitionedCall/sequential/bidirectional/forward_lstm/PartitionedCall/while/next_iteration/_99", "op": "NextIteration", "input": ["StatefulPartitionedCall/sequential/bidirectional/forward_lstm/PartitionedCall/while/body/_43/while/add_3", "^StatefulPartitionedCall/sequential/bidirectional/forward_lstm/PartitionedCall/while/loop_body_control/_84"], "attr": {"T": {"type": "DT_INT32"}}}, {"name": "StatefulPartitionedCall/sequential/bidirectional/backward_lstm/PartitionedCall/Tanh_1", "op": "Tanh", "input": ["StatefulPartitionedCall/sequential/bidirectional/backward_lstm/PartitionedCall/add_1"], "attr": {"T": {"type": "DT_FLOAT"}}}, {"name": "StatefulPartitionedCall/sequential/bidirectional/backward_lstm/PartitionedCall/while/body/_113/while/MatMul", "op": "MatMul", "input": ["StatefulPartitionedCall/sequential/bidirectional/backward_lstm/PartitionedCall/while/body/_113/while/TensorArrayV2Read/TensorListGetItem", "StatefulPartitionedCall/sequential/bidirectional/backward_lstm/PartitionedCall/while/Func/StatefulPartitionedCall/sequential/bidirectional/backward_lstm/PartitionedCall/input/_33_switch/_151:1"], "device": "/device:CPU:0", "attr": {"transpose_b": {"b": false}, "transpose_a": {"b": false}, "T": {"type": "DT_FLOAT"}}}, {"name": "StatefulPartitionedCall/sequential/bidirectional/backward_lstm/PartitionedCall/while/next_iteration/_171", "op": "NextIteration", "input": ["StatefulPartitionedCall/sequential/bidirectional/backward_lstm/PartitionedCall/while/body/_113/while/add_2", "^StatefulPartitionedCall/sequential/bidirectional/backward_lstm/PartitionedCall/while/loop_body_control/_154"], "attr": {"T": {"type": "DT_INT32"}}}, {"name": "StatefulPartitionedCall/sequential/bidirectional/backward_lstm/PartitionedCall/while/next_iteration/_169", "op": "NextIteration", "input": ["StatefulPartitionedCall/sequential/bidirectional/backward_lstm/PartitionedCall/while/body/_113/while/add_3", "^StatefulPartitionedCall/sequential/bidirectional/backward_lstm/PartitionedCall/while/loop_body_control/_154"], "attr": {"T": {"type": "DT_INT32"}}}, {"name": "StatefulPartitionedCall/sequential/bidirectional/concat", "op": "ConcatV2", "input": ["StatefulPartitionedCall/sequential/bidirectional/forward_lstm/PartitionedCall/strided_slice_2", "StatefulPartitionedCall/sequential/bidirectional/backward_lstm/PartitionedCall/strided_slice_2", "StatefulPartitionedCall/sequential/bidirectional/concat/axis"], "attr": {"T": {"type": "DT_FLOAT"}, "N": {"i": "2"}, "Tidx": {"type": "DT_INT32"}}}, {"name": "StatefulPartitionedCall/sequential/bidirectional/forward_lstm/PartitionedCall/mul_2", "op": "Mul", "input": ["StatefulPartitionedCall/sequential/bidirectional/forward_lstm/PartitionedCall/Sigmoid_2", "StatefulPartitionedCall/sequential/bidirectional/forward_lstm/PartitionedCall/Tanh_1"], "attr": {"T": {"type": "DT_FLOAT"}}}, {"name": "StatefulPartitionedCall/sequential/bidirectional/forward_lstm/PartitionedCall/while/body/_43/while/add", "op": "AddV2", "input": ["StatefulPartitionedCall/sequential/bidirectional/forward_lstm/PartitionedCall/while/body/_43/while/MatMul", "StatefulPartitionedCall/sequential/bidirectional/forward_lstm/PartitionedCall/while/body/_43/while/MatMul_1"], "attr": {"T": {"type": "DT_FLOAT"}}}, {"name": "StatefulPartitionedCall/sequential/bidirectional/backward_lstm/PartitionedCall/mul_2", "op": "Mul", "input": ["StatefulPartitionedCall/sequential/bidirectional/backward_lstm/PartitionedCall/Sigmoid_2", "StatefulPartitionedCall/sequential/bidirectional/backward_lstm/PartitionedCall/Tanh_1"], "attr": {"T": {"type": "DT_FLOAT"}}}, {"name": "StatefulPartitionedCall/sequential/bidirectional/backward_lstm/PartitionedCall/while/body/_113/while/add", "op": "AddV2", "input": ["StatefulPartitionedCall/sequential/bidirectional/backward_lstm/PartitionedCall/while/body/_113/while/MatMul", "StatefulPartitionedCall/sequential/bidirectional/backward_lstm/PartitionedCall/while/body/_113/while/MatMul_1"], "attr": {"T": {"type": "DT_FLOAT"}}}, {"name": "StatefulPartitionedCall/sequential/dense/Relu", "op": "_FusedMatMul", "input": ["StatefulPartitionedCall/sequential/bidirectional/concat", "StatefulPartitionedCall/sequential/dense/MatMul/ReadVariableOp", "StatefulPartitionedCall/sequential/dense/BiasAdd/ReadVariableOp"], "device": "/device:CPU:0", "attr": {"fused_ops": {"list": {"s": ["Qmlhc0FkZA==", "UmVsdQ=="]}}, "transpose_a": {"b": false}, "T": {"type": "DT_FLOAT"}, "transpose_b": {"b": false}, "epsilon": {"f": 0.0}, "num_args": {"i": "1"}}}, {"name": "StatefulPartitionedCall/sequential/bidirectional/forward_lstm/PartitionedCall/zeros_like", "op": "ZerosLike", "input": ["StatefulPartitionedCall/sequential/bidirectional/forward_lstm/PartitionedCall/mul_2"], "attr": {"T": {"type": "DT_FLOAT"}}}, {"name": "StatefulPartitionedCall/sequential/bidirectional/forward_lstm/PartitionedCall/while/body/_43/while/BiasAdd", "op": "BiasAdd", "input": ["StatefulPartitionedCall/sequential/bidirectional/forward_lstm/PartitionedCall/while/body/_43/while/add", "StatefulPartitionedCall/sequential/bidirectional/forward_lstm/PartitionedCall/while/Func/StatefulPartitionedCall/sequential/bidirectional/forward_lstm/PartitionedCall/input/_23_switch/_83:1"], "attr": {"T": {"type": "DT_FLOAT"}, "data_format": {"s": "TkhXQw=="}}}, {"name": "StatefulPartitionedCall/sequential/bidirectional/backward_lstm/PartitionedCall/zeros_like", "op": "ZerosLike", "input": ["StatefulPartitionedCall/sequential/bidirectional/backward_lstm/PartitionedCall/mul_2"], "attr": {"T": {"type": "DT_FLOAT"}}}, {"name": "StatefulPartitionedCall/sequential/bidirectional/backward_lstm/PartitionedCall/while/body/_113/while/BiasAdd", "op": "BiasAdd", "input": ["StatefulPartitionedCall/sequential/bidirectional/backward_lstm/PartitionedCall/while/body/_113/while/add", "StatefulPartitionedCall/sequential/bidirectional/backward_lstm/PartitionedCall/while/Func/StatefulPartitionedCall/sequential/bidirectional/backward_lstm/PartitionedCall/input/_35_switch/_153:1"], "attr": {"data_format": {"s": "TkhXQw=="}, "T": {"type": "DT_FLOAT"}}}, {"name": "StatefulPartitionedCall/sequential/dense_1/BiasAdd", "op": "_FusedMatMul", "input": ["StatefulPartitionedCall/sequential/dense/Relu", "StatefulPartitionedCall/sequential/dense_1/MatMul/ReadVariableOp", "StatefulPartitionedCall/sequential/dense_1/BiasAdd/ReadVariableOp"], "device": "/device:CPU:0", "attr": {"transpose_a": {"b": false}, "epsilon": {"f": 0.0}, "transpose_b": {"b": false}, "fused_ops": {"list": {"s": ["Qmlhc0FkZA=="]}}, "num_args": {"i": "1"}, "T": {"type": "DT_FLOAT"}}}, {"name": "StatefulPartitionedCall/sequential/bidirectional/forward_lstm/PartitionedCall/while/enter/_48", "op": "Enter", "input": ["StatefulPartitionedCall/sequential/bidirectional/forward_lstm/PartitionedCall/zeros_like"], "attr": {"parallel_iterations": {"i": "32"}, "T": {"type": "DT_FLOAT"}, "is_constant": {"b": false}, "frame_name": {"s": "U3RhdGVmdWxQYXJ0aXRpb25lZENhbGwvc2VxdWVudGlhbC9iaWRpcmVjdGlvbmFsL2ZvcndhcmRfbHN0bS9QYXJ0aXRpb25lZENhbGwvd2hpbGU="}}}, {"name": "StatefulPartitionedCall/sequential/bidirectional/forward_lstm/PartitionedCall/while/body/_43/while/split", "op": "Split", "input": ["StatefulPartitionedCall/sequential/bidirectional/forward_lstm/PartitionedCall/while/body/_43/while/split/split_dim", "StatefulPartitionedCall/sequential/bidirectional/forward_lstm/PartitionedCall/while/body/_43/while/BiasAdd"], "attr": {"num_split": {"i": "4"}, "T": {"type": "DT_FLOAT"}}}, {"name": "StatefulPartitionedCall/sequential/bidirectional/backward_lstm/PartitionedCall/while/enter/_118", "op": "Enter", "input": ["StatefulPartitionedCall/sequential/bidirectional/backward_lstm/PartitionedCall/zeros_like"], "attr": {"parallel_iterations": {"i": "32"}, "T": {"type": "DT_FLOAT"}, "frame_name": {"s": "U3RhdGVmdWxQYXJ0aXRpb25lZENhbGwvc2VxdWVudGlhbC9iaWRpcmVjdGlvbmFsL2JhY2t3YXJkX2xzdG0vUGFydGl0aW9uZWRDYWxsL3doaWxl"}, "is_constant": {"b": false}}}, {"name": "StatefulPartitionedCall/sequential/bidirectional/backward_lstm/PartitionedCall/while/body/_113/while/split", "op": "Split", "input": ["StatefulPartitionedCall/sequential/bidirectional/backward_lstm/PartitionedCall/while/body/_113/while/split/split_dim", "StatefulPartitionedCall/sequential/bidirectional/backward_lstm/PartitionedCall/while/body/_113/while/BiasAdd"], "attr": {"T": {"type": "DT_FLOAT"}, "num_split": {"i": "4"}}}, {"name": "StatefulPartitionedCall/sequential/dense_1/Softmax", "op": "Softmax", "input": ["StatefulPartitionedCall/sequential/dense_1/BiasAdd"], "attr": {"T": {"type": "DT_FLOAT"}}}, {"name": "StatefulPartitionedCall/sequential/bidirectional/forward_lstm/PartitionedCall/while/merge/_61", "op": "Merge", "input": ["StatefulPartitionedCall/sequential/bidirectional/forward_lstm/PartitionedCall/while/enter/_48", "StatefulPartitionedCall/sequential/bidirectional/forward_lstm/PartitionedCall/while/next_iteration/_103"], "attr": {"T": {"type": "DT_FLOAT"}, "N": {"i": "2"}}}, {"name": "StatefulPartitionedCall/sequential/bidirectional/forward_lstm/PartitionedCall/while/body/_43/while/Sigmoid", "op": "Sigmoid", "input": ["StatefulPartitionedCall/sequential/bidirectional/forward_lstm/PartitionedCall/while/body/_43/while/split"], "attr": {"T": {"type": "DT_FLOAT"}}}, {"name": "StatefulPartitionedCall/sequential/bidirectional/forward_lstm/PartitionedCall/while/body/_43/while/Sigmoid_1", "op": "Sigmoid", "input": ["StatefulPartitionedCall/sequential/bidirectional/forward_lstm/PartitionedCall/while/body/_43/while/split:1"], "attr": {"T": {"type": "DT_FLOAT"}}}, {"name": "StatefulPartitionedCall/sequential/bidirectional/forward_lstm/PartitionedCall/while/body/_43/while/Tanh", "op": "Tanh", "input": ["StatefulPartitionedCall/sequential/bidirectional/forward_lstm/PartitionedCall/while/body/_43/while/split:2"], "attr": {"T": {"type": "DT_FLOAT"}}}, {"name": "StatefulPartitionedCall/sequential/bidirectional/forward_lstm/PartitionedCall/while/body/_43/while/Sigmoid_2", "op": "Sigmoid", "input": ["StatefulPartitionedCall/sequential/bidirectional/forward_lstm/PartitionedCall/while/body/_43/while/split:3"], "attr": {"T": {"type": "DT_FLOAT"}}}, {"name": "StatefulPartitionedCall/sequential/bidirectional/backward_lstm/PartitionedCall/while/merge/_131", "op": "Merge", "input": ["StatefulPartitionedCall/sequential/bidirectional/backward_lstm/PartitionedCall/while/enter/_118", "StatefulPartitionedCall/sequential/bidirectional/backward_lstm/PartitionedCall/while/next_iteration/_173"], "attr": {"N": {"i": "2"}, "T": {"type": "DT_FLOAT"}}}, {"name": "StatefulPartitionedCall/sequential/bidirectional/backward_lstm/PartitionedCall/while/body/_113/while/Sigmoid", "op": "Sigmoid", "input": ["StatefulPartitionedCall/sequential/bidirectional/backward_lstm/PartitionedCall/while/body/_113/while/split"], "attr": {"T": {"type": "DT_FLOAT"}}}, {"name": "StatefulPartitionedCall/sequential/bidirectional/backward_lstm/PartitionedCall/while/body/_113/while/Sigmoid_1", "op": "Sigmoid", "input": ["StatefulPartitionedCall/sequential/bidirectional/backward_lstm/PartitionedCall/while/body/_113/while/split:1"], "attr": {"T": {"type": "DT_FLOAT"}}}, {"name": "StatefulPartitionedCall/sequential/bidirectional/backward_lstm/PartitionedCall/while/body/_113/while/Tanh", "op": "Tanh", "input": ["StatefulPartitionedCall/sequential/bidirectional/backward_lstm/PartitionedCall/while/body/_113/while/split:2"], "attr": {"T": {"type": "DT_FLOAT"}}}, {"name": "StatefulPartitionedCall/sequential/bidirectional/backward_lstm/PartitionedCall/while/body/_113/while/Sigmoid_2", "op": "Sigmoid", "input": ["StatefulPartitionedCall/sequential/bidirectional/backward_lstm/PartitionedCall/while/body/_113/while/split:3"], "attr": {"T": {"type": "DT_FLOAT"}}}, {"name": "Identity", "op": "Identity", "input": ["StatefulPartitionedCall/sequential/dense_1/Softmax", "^StatefulPartitionedCall/sequential/embedding/embedding_lookup"], "attr": {"T": {"type": "DT_FLOAT"}}}, {"name": "StatefulPartitionedCall/sequential/bidirectional/forward_lstm/PartitionedCall/while/StatefulPartitionedCall/sequential/bidirectional/forward_lstm/PartitionedCall/zeros_like_switch/_75", "op": "Switch", "input": ["StatefulPartitionedCall/sequential/bidirectional/forward_lstm/PartitionedCall/while/merge/_61", "StatefulPartitionedCall/sequential/bidirectional/forward_lstm/PartitionedCall/while/LoopCond/_70"], "attr": {"T": {"type": "DT_FLOAT"}}}, {"name": "StatefulPartitionedCall/sequential/bidirectional/forward_lstm/PartitionedCall/while/body/_43/while/mul", "op": "Mul", "input": ["StatefulPartitionedCall/sequential/bidirectional/forward_lstm/PartitionedCall/while/body/_43/while/Sigmoid_1", "StatefulPartitionedCall/sequential/bidirectional/forward_lstm/PartitionedCall/while/Func/StatefulPartitionedCall/sequential/bidirectional/forward_lstm/PartitionedCall/input/_20_switch/_77:1"], "attr": {"T": {"type": "DT_FLOAT"}}}, {"name": "StatefulPartitionedCall/sequential/bidirectional/forward_lstm/PartitionedCall/while/body/_43/while/mul_1", "op": "Mul", "input": ["StatefulPartitionedCall/sequential/bidirectional/forward_lstm/PartitionedCall/while/body/_43/while/Sigmoid", "StatefulPartitionedCall/sequential/bidirectional/forward_lstm/PartitionedCall/while/body/_43/while/Tanh"], "attr": {"T": {"type": "DT_FLOAT"}}}, {"name": "StatefulPartitionedCall/sequential/bidirectional/backward_lstm/PartitionedCall/while/StatefulPartitionedCall/sequential/bidirectional/backward_lstm/PartitionedCall/zeros_like_switch/_145", "op": "Switch", "input": ["StatefulPartitionedCall/sequential/bidirectional/backward_lstm/PartitionedCall/while/merge/_131", "StatefulPartitionedCall/sequential/bidirectional/backward_lstm/PartitionedCall/while/LoopCond/_140"], "attr": {"T": {"type": "DT_FLOAT"}}}, {"name": "StatefulPartitionedCall/sequential/bidirectional/backward_lstm/PartitionedCall/while/body/_113/while/mul", "op": "Mul", "input": ["StatefulPartitionedCall/sequential/bidirectional/backward_lstm/PartitionedCall/while/body/_113/while/Sigmoid_1", "StatefulPartitionedCall/sequential/bidirectional/backward_lstm/PartitionedCall/while/Func/StatefulPartitionedCall/sequential/bidirectional/backward_lstm/PartitionedCall/input/_32_switch/_147:1"], "attr": {"T": {"type": "DT_FLOAT"}}}, {"name": "StatefulPartitionedCall/sequential/bidirectional/backward_lstm/PartitionedCall/while/body/_113/while/mul_1", "op": "Mul", "input": ["StatefulPartitionedCall/sequential/bidirectional/backward_lstm/PartitionedCall/while/body/_113/while/Sigmoid", "StatefulPartitionedCall/sequential/bidirectional/backward_lstm/PartitionedCall/while/body/_113/while/Tanh"], "attr": {"T": {"type": "DT_FLOAT"}}}, {"name": "StatefulPartitionedCall/sequential/bidirectional/forward_lstm/PartitionedCall/while/body/_43/while/add_1", "op": "AddV2", "input": ["StatefulPartitionedCall/sequential/bidirectional/forward_lstm/PartitionedCall/while/body/_43/while/mul", "StatefulPartitionedCall/sequential/bidirectional/forward_lstm/PartitionedCall/while/body/_43/while/mul_1"], "attr": {"T": {"type": "DT_FLOAT"}}}, {"name": "StatefulPartitionedCall/sequential/bidirectional/backward_lstm/PartitionedCall/while/body/_113/while/add_1", "op": "AddV2", "input": ["StatefulPartitionedCall/sequential/bidirectional/backward_lstm/PartitionedCall/while/body/_113/while/mul", "StatefulPartitionedCall/sequential/bidirectional/backward_lstm/PartitionedCall/while/body/_113/while/mul_1"], "attr": {"T": {"type": "DT_FLOAT"}}}, {"name": "StatefulPartitionedCall/sequential/bidirectional/forward_lstm/PartitionedCall/while/body/_43/while/Tanh_1", "op": "Tanh", "input": ["StatefulPartitionedCall/sequential/bidirectional/forward_lstm/PartitionedCall/while/body/_43/while/add_1"], "attr": {"T": {"type": "DT_FLOAT"}}}, {"name": "StatefulPartitionedCall/sequential/bidirectional/forward_lstm/PartitionedCall/while/body/_43/while/SelectV2_2", "op": "SelectV2", "input": ["StatefulPartitionedCall/sequential/bidirectional/forward_lstm/PartitionedCall/while/body/_43/while/TensorArrayV2Read_1/TensorListGetItem", "StatefulPartitionedCall/sequential/bidirectional/forward_lstm/PartitionedCall/while/body/_43/while/add_1", "StatefulPartitionedCall/sequential/bidirectional/forward_lstm/PartitionedCall/while/Func/StatefulPartitionedCall/sequential/bidirectional/forward_lstm/PartitionedCall/input/_20_switch/_77:1"], "attr": {"T": {"type": "DT_FLOAT"}}}, {"name": "StatefulPartitionedCall/sequential/bidirectional/backward_lstm/PartitionedCall/while/body/_113/while/Tanh_1", "op": "Tanh", "input": ["StatefulPartitionedCall/sequential/bidirectional/backward_lstm/PartitionedCall/while/body/_113/while/add_1"], "attr": {"T": {"type": "DT_FLOAT"}}}, {"name": "StatefulPartitionedCall/sequential/bidirectional/backward_lstm/PartitionedCall/while/body/_113/while/SelectV2_2", "op": "SelectV2", "input": ["StatefulPartitionedCall/sequential/bidirectional/backward_lstm/PartitionedCall/while/body/_113/while/TensorArrayV2Read_1/TensorListGetItem", "StatefulPartitionedCall/sequential/bidirectional/backward_lstm/PartitionedCall/while/body/_113/while/add_1", "StatefulPartitionedCall/sequential/bidirectional/backward_lstm/PartitionedCall/while/Func/StatefulPartitionedCall/sequential/bidirectional/backward_lstm/PartitionedCall/input/_32_switch/_147:1"], "attr": {"T": {"type": "DT_FLOAT"}}}, {"name": "StatefulPartitionedCall/sequential/bidirectional/forward_lstm/PartitionedCall/while/body/_43/while/mul_2", "op": "Mul", "input": ["StatefulPartitionedCall/sequential/bidirectional/forward_lstm/PartitionedCall/while/body/_43/while/Sigmoid_2", "StatefulPartitionedCall/sequential/bidirectional/forward_lstm/PartitionedCall/while/body/_43/while/Tanh_1"], "attr": {"T": {"type": "DT_FLOAT"}}}, {"name": "StatefulPartitionedCall/sequential/bidirectional/forward_lstm/PartitionedCall/while/next_iteration/_105", "op": "NextIteration", "input": ["StatefulPartitionedCall/sequential/bidirectional/forward_lstm/PartitionedCall/while/body/_43/while/SelectV2_2", "^StatefulPartitionedCall/sequential/bidirectional/forward_lstm/PartitionedCall/while/loop_body_control/_84"], "attr": {"T": {"type": "DT_FLOAT"}}}, {"name": "StatefulPartitionedCall/sequential/bidirectional/backward_lstm/PartitionedCall/while/body/_113/while/mul_2", "op": "Mul", "input": ["StatefulPartitionedCall/sequential/bidirectional/backward_lstm/PartitionedCall/while/body/_113/while/Sigmoid_2", "StatefulPartitionedCall/sequential/bidirectional/backward_lstm/PartitionedCall/while/body/_113/while/Tanh_1"], "attr": {"T": {"type": "DT_FLOAT"}}}, {"name": "StatefulPartitionedCall/sequential/bidirectional/backward_lstm/PartitionedCall/while/next_iteration/_175", "op": "NextIteration", "input": ["StatefulPartitionedCall/sequential/bidirectional/backward_lstm/PartitionedCall/while/body/_113/while/SelectV2_2", "^StatefulPartitionedCall/sequential/bidirectional/backward_lstm/PartitionedCall/while/loop_body_control/_154"], "attr": {"T": {"type": "DT_FLOAT"}}}, {"name": "StatefulPartitionedCall/sequential/bidirectional/forward_lstm/PartitionedCall/while/body/_43/while/SelectV2_1", "op": "SelectV2", "input": ["StatefulPartitionedCall/sequential/bidirectional/forward_lstm/PartitionedCall/while/body/_43/while/TensorArrayV2Read_1/TensorListGetItem", "StatefulPartitionedCall/sequential/bidirectional/forward_lstm/PartitionedCall/while/body/_43/while/mul_2", "StatefulPartitionedCall/sequential/bidirectional/forward_lstm/PartitionedCall/while/Func/StatefulPartitionedCall/sequential/bidirectional/forward_lstm/PartitionedCall/input/_19_switch/_76:1"], "attr": {"T": {"type": "DT_FLOAT"}}}, {"name": "StatefulPartitionedCall/sequential/bidirectional/forward_lstm/PartitionedCall/while/body/_43/while/SelectV2", "op": "SelectV2", "input": ["StatefulPartitionedCall/sequential/bidirectional/forward_lstm/PartitionedCall/while/body/_43/while/TensorArrayV2Read_1/TensorListGetItem", "StatefulPartitionedCall/sequential/bidirectional/forward_lstm/PartitionedCall/while/body/_43/while/mul_2", "StatefulPartitionedCall/sequential/bidirectional/forward_lstm/PartitionedCall/while/StatefulPartitionedCall/sequential/bidirectional/forward_lstm/PartitionedCall/zeros_like_switch/_75:1"], "attr": {"T": {"type": "DT_FLOAT"}}}, {"name": "StatefulPartitionedCall/sequential/bidirectional/backward_lstm/PartitionedCall/while/body/_113/while/SelectV2_1", "op": "SelectV2", "input": ["StatefulPartitionedCall/sequential/bidirectional/backward_lstm/PartitionedCall/while/body/_113/while/TensorArrayV2Read_1/TensorListGetItem", "StatefulPartitionedCall/sequential/bidirectional/backward_lstm/PartitionedCall/while/body/_113/while/mul_2", "StatefulPartitionedCall/sequential/bidirectional/backward_lstm/PartitionedCall/while/Func/StatefulPartitionedCall/sequential/bidirectional/backward_lstm/PartitionedCall/input/_31_switch/_146:1"], "attr": {"T": {"type": "DT_FLOAT"}}}, {"name": "StatefulPartitionedCall/sequential/bidirectional/backward_lstm/PartitionedCall/while/body/_113/while/SelectV2", "op": "SelectV2", "input": ["StatefulPartitionedCall/sequential/bidirectional/backward_lstm/PartitionedCall/while/body/_113/while/TensorArrayV2Read_1/TensorListGetItem", "StatefulPartitionedCall/sequential/bidirectional/backward_lstm/PartitionedCall/while/body/_113/while/mul_2", "StatefulPartitionedCall/sequential/bidirectional/backward_lstm/PartitionedCall/while/StatefulPartitionedCall/sequential/bidirectional/backward_lstm/PartitionedCall/zeros_like_switch/_145:1"], "attr": {"T": {"type": "DT_FLOAT"}}}, {"name": "StatefulPartitionedCall/sequential/bidirectional/forward_lstm/PartitionedCall/while/next_iteration/_104", "op": "NextIteration", "input": ["StatefulPartitionedCall/sequential/bidirectional/forward_lstm/PartitionedCall/while/body/_43/while/SelectV2_1", "^StatefulPartitionedCall/sequential/bidirectional/forward_lstm/PartitionedCall/while/loop_body_control/_84"], "attr": {"T": {"type": "DT_FLOAT"}}}, {"name": "StatefulPartitionedCall/sequential/bidirectional/forward_lstm/PartitionedCall/while/next_iteration/_103", "op": "NextIteration", "input": ["StatefulPartitionedCall/sequential/bidirectional/forward_lstm/PartitionedCall/while/body/_43/while/SelectV2", "^StatefulPartitionedCall/sequential/bidirectional/forward_lstm/PartitionedCall/while/loop_body_control/_84"], "attr": {"T": {"type": "DT_FLOAT"}}}, {"name": "StatefulPartitionedCall/sequential/bidirectional/forward_lstm/PartitionedCall/while/body/_43/while/TensorArrayV2Write/TensorListSetItem", "op": "TensorListSetItem", "input": ["StatefulPartitionedCall/sequential/bidirectional/forward_lstm/PartitionedCall/while/StatefulPartitionedCall/sequential/bidirectional/forward_lstm/PartitionedCall/TensorArrayV2_1_switch/_74:1", "Func/StatefulPartitionedCall/sequential/bidirectional/forward_lstm/PartitionedCall/while/body/_43/input/_200", "StatefulPartitionedCall/sequential/bidirectional/forward_lstm/PartitionedCall/while/body/_43/while/SelectV2"], "attr": {"element_dtype": {"type": "DT_FLOAT"}}, "experimentalType": {"typeId": "TFT_PRODUCT", "args": [{"typeId": "TFT_ARRAY", "args": [{"typeId": "TFT_TENSOR", "args": [{"typeId": "TFT_FLOAT"}]}]}]}}, {"name": "StatefulPartitionedCall/sequential/bidirectional/backward_lstm/PartitionedCall/while/next_iteration/_174", "op": "NextIteration", "input": ["StatefulPartitionedCall/sequential/bidirectional/backward_lstm/PartitionedCall/while/body/_113/while/SelectV2_1", "^StatefulPartitionedCall/sequential/bidirectional/backward_lstm/PartitionedCall/while/loop_body_control/_154"], "attr": {"T": {"type": "DT_FLOAT"}}}, {"name": "StatefulPartitionedCall/sequential/bidirectional/backward_lstm/PartitionedCall/while/next_iteration/_173", "op": "NextIteration", "input": ["StatefulPartitionedCall/sequential/bidirectional/backward_lstm/PartitionedCall/while/body/_113/while/SelectV2", "^StatefulPartitionedCall/sequential/bidirectional/backward_lstm/PartitionedCall/while/loop_body_control/_154"], "attr": {"T": {"type": "DT_FLOAT"}}}, {"name": "StatefulPartitionedCall/sequential/bidirectional/backward_lstm/PartitionedCall/while/body/_113/while/TensorArrayV2Write/TensorListSetItem", "op": "TensorListSetItem", "input": ["StatefulPartitionedCall/sequential/bidirectional/backward_lstm/PartitionedCall/while/StatefulPartitionedCall/sequential/bidirectional/backward_lstm/PartitionedCall/TensorArrayV2_1_switch/_144:1", "Func/StatefulPartitionedCall/sequential/bidirectional/backward_lstm/PartitionedCall/while/body/_113/input/_243", "StatefulPartitionedCall/sequential/bidirectional/backward_lstm/PartitionedCall/while/body/_113/while/SelectV2"], "attr": {"element_dtype": {"type": "DT_FLOAT"}}, "experimentalType": {"typeId": "TFT_PRODUCT", "args": [{"typeId": "TFT_ARRAY", "args": [{"typeId": "TFT_TENSOR", "args": [{"typeId": "TFT_FLOAT"}]}]}]}}, {"name": "StatefulPartitionedCall/sequential/bidirectional/forward_lstm/PartitionedCall/while/next_iteration/_102", "op": "NextIteration", "input": ["StatefulPartitionedCall/sequential/bidirectional/forward_lstm/PartitionedCall/while/body/_43/while/TensorArrayV2Write/TensorListSetItem", "^StatefulPartitionedCall/sequential/bidirectional/forward_lstm/PartitionedCall/while/loop_body_control/_84"], "attr": {"T": {"type": "DT_VARIANT"}}, "experimentalType": {"typeId": "TFT_PRODUCT", "args": [{"typeId": "TFT_ARRAY", "args": [{"typeId": "TFT_TENSOR", "args": [{"typeId": "TFT_FLOAT"}]}]}]}}, {"name": "StatefulPartitionedCall/sequential/bidirectional/backward_lstm/PartitionedCall/while/next_iteration/_172", "op": "NextIteration", "input": ["StatefulPartitionedCall/sequential/bidirectional/backward_lstm/PartitionedCall/while/body/_113/while/TensorArrayV2Write/TensorListSetItem", "^StatefulPartitionedCall/sequential/bidirectional/backward_lstm/PartitionedCall/while/loop_body_control/_154"], "attr": {"T": {"type": "DT_VARIANT"}}, "experimentalType": {"typeId": "TFT_PRODUCT", "args": [{"typeId": "TFT_ARRAY", "args": [{"typeId": "TFT_TENSOR", "args": [{"typeId": "TFT_FLOAT"}]}]}]}}], "library": {}, "versions": {"producer": 987}}, "weightsManifest": [{"paths": ["group1-shard1of1.bin"], "weights": [{"name": "StatefulPartitionedCall/sequential/bidirectional/forward_lstm/PartitionedCall/TensorArrayV2_1/element_shape", "shape": [2], "dtype": "int32"}, {"name": "StatefulPartitionedCall/sequential/bidirectional/forward_lstm/PartitionedCall/TensorArrayUnstack/TensorListFromTensor/element_shape", "shape": [2], "dtype": "int32"}, {"name": "StatefulPartitionedCall/sequential/bidirectional/forward_lstm/PartitionedCall/ExpandDims/dim", "shape": [], "dtype": "int32"}, {"name": "StatefulPartitionedCall/sequential/bidirectional/forward_lstm/PartitionedCall/transpose_1/perm", "shape": [3], "dtype": "int32"}, {"name": "StatefulPartitionedCall/sequential/bidirectional/forward_lstm/PartitionedCall/TensorArrayUnstack_1/TensorListFromTensor/element_shape", "shape": [2], "dtype": "int32"}, {"name": "StatefulPartitionedCall/sequential/bidirectional/forward_lstm/zeros_1/packed/1", "shape": [], "dtype": "int32"}, {"name": "StatefulPartitionedCall/sequential/bidirectional/forward_lstm/zeros_1/Const", "shape": [], "dtype": "float32"}, {"name": "StatefulPartitionedCall/sequential/bidirectional/forward_lstm/PartitionedCall/split/split_dim", "shape": [], "dtype": "int32"}, {"name": "StatefulPartitionedCall/sequential/bidirectional/forward_lstm/PartitionedCall/strided_slice_1/stack", "shape": [1], "dtype": "int32"}, {"name": "StatefulPartitionedCall/sequential/bidirectional/forward_lstm/PartitionedCall/strided_slice_1/stack_1", "shape": [1], "dtype": "int32"}, {"name": "StatefulPartitionedCall/sequential/bidirectional/forward_lstm/PartitionedCall/strided_slice_1/stack_2", "shape": [1], "dtype": "int32"}, {"name": "StatefulPartitionedCall/sequential/bidirectional/forward_lstm/Read/ReadVariableOp", "shape": [64, 256], "dtype": "float32"}, {"name": "StatefulPartitionedCall/sequential/bidirectional/forward_lstm/strided_slice/stack", "shape": [1], "dtype": "int32"}, {"name": "StatefulPartitionedCall/sequential/bidirectional/forward_lstm/strided_slice/stack_1", "shape": [1], "dtype": "int32"}, {"name": "StatefulPartitionedCall/sequential/bidirectional/forward_lstm/strided_slice/stack_2", "shape": [1], "dtype": "int32"}, {"name": "StatefulPartitionedCall/sequential/bidirectional/forward_lstm/zeros/packed/1", "shape": [], "dtype": "int32"}, {"name": "StatefulPartitionedCall/sequential/bidirectional/forward_lstm/zeros/Const", "shape": [], "dtype": "float32"}, {"name": "StatefulPartitionedCall/sequential/bidirectional/forward_lstm/Read_1/ReadVariableOp", "shape": [64, 256], "dtype": "float32"}, {"name": "StatefulPartitionedCall/sequential/bidirectional/forward_lstm/Read_2/ReadVariableOp", "shape": [256], "dtype": "float32"}, {"name": "StatefulPartitionedCall/sequential/bidirectional/forward_lstm/PartitionedCall/time", "shape": [], "dtype": "int32"}, {"name": "StatefulPartitionedCall/sequential/bidirectional/forward_lstm/PartitionedCall/transpose/perm", "shape": [3], "dtype": "int32"}, {"name": "StatefulPartitionedCall/sequential/bidirectional/forward_lstm/PartitionedCall/strided_slice/stack", "shape": [1], "dtype": "int32"}, {"name": "StatefulPartitionedCall/sequential/bidirectional/forward_lstm/PartitionedCall/strided_slice/stack_1", "shape": [1], "dtype": "int32"}, {"name": "StatefulPartitionedCall/sequential/bidirectional/forward_lstm/PartitionedCall/strided_slice/stack_2", "shape": [1], "dtype": "int32"}, {"name": "StatefulPartitionedCall/sequential/bidirectional/forward_lstm/PartitionedCall/while/loop_counter", "shape": [], "dtype": "int32"}, {"name": "StatefulPartitionedCall/sequential/bidirectional/forward_lstm/PartitionedCall/TensorArrayV2Stack/TensorListStack/element_shape", "shape": [2], "dtype": "int32"}, {"name": "StatefulPartitionedCall/sequential/bidirectional/forward_lstm/PartitionedCall/strided_slice_2/stack", "shape": [1], "dtype": "int32"}, {"name": "StatefulPartitionedCall/sequential/bidirectional/forward_lstm/PartitionedCall/strided_slice_2/stack_1", "shape": [1], "dtype": "int32"}, {"name": "StatefulPartitionedCall/sequential/bidirectional/forward_lstm/PartitionedCall/strided_slice_2/stack_2", "shape": [1], "dtype": "int32"}, {"name": "StatefulPartitionedCall/sequential/bidirectional/backward_lstm/PartitionedCall/TensorArrayV2_1/element_shape", "shape": [2], "dtype": "int32"}, {"name": "StatefulPartitionedCall/sequential/bidirectional/backward_lstm/PartitionedCall/ReverseV2/axis", "shape": [1], "dtype": "int32"}, {"name": "StatefulPartitionedCall/sequential/bidirectional/backward_lstm/PartitionedCall/TensorArrayUnstack/TensorListFromTensor/element_shape", "shape": [2], "dtype": "int32"}, {"name": "StatefulPartitionedCall/sequential/embedding/NotEqual/y", "shape": [], "dtype": "int32"}, {"name": "StatefulPartitionedCall/sequential/bidirectional/backward_lstm/PartitionedCall/ExpandDims/dim", "shape": [], "dtype": "int32"}, {"name": "StatefulPartitionedCall/sequential/bidirectional/backward_lstm/PartitionedCall/transpose_1/perm", "shape": [3], "dtype": "int32"}, {"name": "StatefulPartitionedCall/sequential/bidirectional/backward_lstm/PartitionedCall/ReverseV2_1/axis", "shape": [1], "dtype": "int32"}, {"name": "StatefulPartitionedCall/sequential/bidirectional/backward_lstm/PartitionedCall/TensorArrayUnstack_1/TensorListFromTensor/element_shape", "shape": [2], "dtype": "int32"}, {"name": "StatefulPartitionedCall/sequential/bidirectional/backward_lstm/zeros_1/packed/1", "shape": [], "dtype": "int32"}, {"name": "StatefulPartitionedCall/sequential/bidirectional/backward_lstm/zeros_1/Const", "shape": [], "dtype": "float32"}, {"name": "StatefulPartitionedCall/sequential/bidirectional/backward_lstm/PartitionedCall/split/split_dim", "shape": [], "dtype": "int32"}, {"name": "StatefulPartitionedCall/sequential/bidirectional/backward_lstm/PartitionedCall/strided_slice_1/stack", "shape": [1], "dtype": "int32"}, {"name": "StatefulPartitionedCall/sequential/bidirectional/backward_lstm/PartitionedCall/strided_slice_1/stack_1", "shape": [1], "dtype": "int32"}, {"name": "StatefulPartitionedCall/sequential/bidirectional/backward_lstm/PartitionedCall/strided_slice_1/stack_2", "shape": [1], "dtype": "int32"}, {"name": "StatefulPartitionedCall/sequential/bidirectional/backward_lstm/Read/ReadVariableOp", "shape": [64, 256], "dtype": "float32"}, {"name": "StatefulPartitionedCall/sequential/bidirectional/backward_lstm/strided_slice/stack", "shape": [1], "dtype": "int32"}, {"name": "StatefulPartitionedCall/sequential/bidirectional/backward_lstm/strided_slice/stack_1", "shape": [1], "dtype": "int32"}, {"name": "StatefulPartitionedCall/sequential/bidirectional/backward_lstm/strided_slice/stack_2", "shape": [1], "dtype": "int32"}, {"name": "StatefulPartitionedCall/sequential/bidirectional/backward_lstm/zeros/packed/1", "shape": [], "dtype": "int32"}, {"name": "StatefulPartitionedCall/sequential/bidirectional/backward_lstm/zeros/Const", "shape": [], "dtype": "float32"}, {"name": "StatefulPartitionedCall/sequential/bidirectional/backward_lstm/Read_1/ReadVariableOp", "shape": [64, 256], "dtype": "float32"}, {"name": "StatefulPartitionedCall/sequential/bidirectional/backward_lstm/Read_2/ReadVariableOp", "shape": [256], "dtype": "float32"}, {"name": "StatefulPartitionedCall/sequential/bidirectional/backward_lstm/PartitionedCall/time", "shape": [], "dtype": "int32"}, {"name": "StatefulPartitionedCall/sequential/bidirectional/backward_lstm/PartitionedCall/transpose/perm", "shape": [3], "dtype": "int32"}, {"name": "StatefulPartitionedCall/sequential/bidirectional/backward_lstm/PartitionedCall/strided_slice/stack", "shape": [1], "dtype": "int32"}, {"name": "StatefulPartitionedCall/sequential/bidirectional/backward_lstm/PartitionedCall/strided_slice/stack_1", "shape": [1], "dtype": "int32"}, {"name": "StatefulPartitionedCall/sequential/bidirectional/backward_lstm/PartitionedCall/strided_slice/stack_2", "shape": [1], "dtype": "int32"}, {"name": "StatefulPartitionedCall/sequential/bidirectional/backward_lstm/PartitionedCall/while/loop_counter", "shape": [], "dtype": "int32"}, {"name": "StatefulPartitionedCall/sequential/bidirectional/backward_lstm/PartitionedCall/TensorArrayV2Stack/TensorListStack/element_shape", "shape": [2], "dtype": "int32"}, {"name": "StatefulPartitionedCall/sequential/bidirectional/backward_lstm/PartitionedCall/strided_slice_2/stack", "shape": [1], "dtype": "int32"}, {"name": "StatefulPartitionedCall/sequential/bidirectional/backward_lstm/PartitionedCall/strided_slice_2/stack_1", "shape": [1], "dtype": "int32"}, {"name": "StatefulPartitionedCall/sequential/bidirectional/backward_lstm/PartitionedCall/strided_slice_2/stack_2", "shape": [1], "dtype": "int32"}, {"name": "StatefulPartitionedCall/sequential/bidirectional/concat/axis", "shape": [], "dtype": "int32"}, {"name": "StatefulPartitionedCall/sequential/dense/MatMul/ReadVariableOp", "shape": [128, 64], "dtype": "float32"}, {"name": "StatefulPartitionedCall/sequential/dense/BiasAdd/ReadVariableOp", "shape": [64], "dtype": "float32"}, {"name": "StatefulPartitionedCall/sequential/dense_1/MatMul/ReadVariableOp", "shape": [64, 2], "dtype": "float32"}, {"name": "StatefulPartitionedCall/sequential/dense_1/BiasAdd/ReadVariableOp", "shape": [2], "dtype": "float32"}, {"name": "unknown_3", "shape": [1000, 64], "dtype": "float32"}, {"name": "StatefulPartitionedCall/sequential/text_vectorization/RaggedToTensor/Const", "shape": [2], "dtype": "int32"}, {"name": "unknown_1", "shape": [], "dtype": "string"}, {"name": "unknown_2", "shape": [], "dtype": "int32"}, {"name": "unknown_0", "shape": [], "dtype": "int32"}, {"name": "StatefulPartitionedCall/sequential/text_vectorization/RaggedToTensor/default_value", "shape": [], "dtype": "int32"}, {"name": "StatefulPartitionedCall/sequential/text_vectorization/StringSplit/strided_slice_1/stack", "shape": [1], "dtype": "int32"}, {"name": "StatefulPartitionedCall/sequential/text_vectorization/StringSplit/strided_slice_1/stack_1", "shape": [1], "dtype": "int32"}, {"name": "StatefulPartitionedCall/sequential/text_vectorization/StringSplit/strided_slice_1/stack_2", "shape": [1], "dtype": "int32"}, {"name": "StatefulPartitionedCall/sequential/text_vectorization/StringSplit/Const", "shape": [], "dtype": "string"}, {"name": "StatefulPartitionedCall/sequential/text_vectorization/StringSplit/strided_slice/stack", "shape": [2], "dtype": "int32"}, {"name": "StatefulPartitionedCall/sequential/text_vectorization/StringSplit/strided_slice/stack_1", "shape": [2], "dtype": "int32"}, {"name": "StatefulPartitionedCall/sequential/text_vectorization/StringSplit/strided_slice/stack_2", "shape": [2], "dtype": "int32"}, {"name": "StatefulPartitionedCall/sequential/embedding/embedding_lookup/axis", "shape": [], "dtype": "int32"}, {"name": "StatefulPartitionedCall/sequential/bidirectional/forward_lstm/PartitionedCall/while/body/_43/while/split/split_dim", "shape": [], "dtype": "int32"}, {"name": "StatefulPartitionedCall/sequential/bidirectional/forward_lstm/PartitionedCall/while/body/_43/while/TensorArrayV2Read/TensorListGetItem/element_shape", "shape": [2], "dtype": "int32"}, {"name": "StatefulPartitionedCall/sequential/bidirectional/forward_lstm/PartitionedCall/while/body/_43/while/TensorArrayV2Read_1/TensorListGetItem/element_shape", "shape": [2], "dtype": "int32"}, {"name": "StatefulPartitionedCall/sequential/bidirectional/forward_lstm/PartitionedCall/while/body/_43/while/add_2/y", "shape": [], "dtype": "int32"}, {"name": "StatefulPartitionedCall/sequential/bidirectional/forward_lstm/PartitionedCall/while/body/_43/while/add_3/y", "shape": [], "dtype": "int32"}, {"name": "StatefulPartitionedCall/sequential/bidirectional/backward_lstm/PartitionedCall/while/body/_113/while/split/split_dim", "shape": [], "dtype": "int32"}, {"name": "StatefulPartitionedCall/sequential/bidirectional/backward_lstm/PartitionedCall/while/body/_113/while/TensorArrayV2Read/TensorListGetItem/element_shape", "shape": [2], "dtype": "int32"}, {"name": "StatefulPartitionedCall/sequential/bidirectional/backward_lstm/PartitionedCall/while/body/_113/while/TensorArrayV2Read_1/TensorListGetItem/element_shape", "shape": [2], "dtype": "int32"}, {"name": "StatefulPartitionedCall/sequential/bidirectional/backward_lstm/PartitionedCall/while/body/_113/while/add_2/y", "shape": [], "dtype": "int32"}, {"name": "StatefulPartitionedCall/sequential/bidirectional/backward_lstm/PartitionedCall/while/body/_113/while/add_3/y", "shape": [], "dtype": "int32"}]}]}