{"format": "graph-model", "generatedBy": "2.6.0", "convertedBy": "TensorFlow.js Converter v3.9.0", "signature": {"inputs": {"input_3": {"name": "input_3:0", "dtype": "DT_FLOAT", "tensorShape": {"dim": [{"size": "-1"}, {"size": "240"}, {"size": "240"}, {"size": "3"}]}}}, "outputs": {"predictions": {"name": "Identity:0", "dtype": "DT_FLOAT", "tensorShape": {"dim": [{"size": "-1"}, {"size": "76"}]}}}}, "modelTopology": {"node": [{"name": "StatefulPartitionedCall/EfficientNetV1B1/tf.math.reduce_mean_49/Mean/reduction_indices", "op": "Const", "attr": {"value": {"tensor": {"dtype": "DT_INT32", "tensorShape": {"dim": [{"size": "2"}]}}}, "dtype": {"type": "DT_INT32"}}}, {"name": "StatefulPartitionedCall/EfficientNetV1B1/stack_0_block0_se_1_conv/Conv2D/ReadVariableOp", "op": "Const", "attr": {"value": {"tensor": {"dtype": "DT_FLOAT", "tensorShape": {"dim": [{"size": "1"}, {"size": "1"}, {"size": "32"}, {"size": "8"}]}}}, "dtype": {"type": "DT_FLOAT"}}}, {"name": "StatefulPartitionedCall/EfficientNetV1B1/stack_0_block0_se_1_conv/BiasAdd/ReadVariableOp", "op": "Const", "attr": {"value": {"tensor": {"dtype": "DT_FLOAT", "tensorShape": {"dim": [{"size": "8"}]}}}, "dtype": {"type": "DT_FLOAT"}}}, {"name": "StatefulPartitionedCall/EfficientNetV1B1/stack_0_block0_se_2_conv/Conv2D/ReadVariableOp", "op": "Const", "attr": {"value": {"tensor": {"dtype": "DT_FLOAT", "tensorShape": {"dim": [{"size": "1"}, {"size": "1"}, {"size": "8"}, {"size": "32"}]}}}, "dtype": {"type": "DT_FLOAT"}}}, {"name": "StatefulPartitionedCall/EfficientNetV1B1/stack_0_block0_se_2_conv/BiasAdd/ReadVariableOp", "op": "Const", "attr": {"dtype": {"type": "DT_FLOAT"}, "value": {"tensor": {"dtype": "DT_FLOAT", "tensorShape": {"dim": [{"size": "32"}]}}}}}, {"name": "StatefulPartitionedCall/EfficientNetV1B1/tf.math.reduce_mean_50/Mean/reduction_indices", "op": "Const", "attr": {"value": {"tensor": {"dtype": "DT_INT32", "tensorShape": {"dim": [{"size": "2"}]}}}, "dtype": {"type": "DT_INT32"}}}, {"name": "StatefulPartitionedCall/EfficientNetV1B1/stack_0_block1_se_1_conv/Conv2D/ReadVariableOp", "op": "Const", "attr": {"value": {"tensor": {"dtype": "DT_FLOAT", "tensorShape": {"dim": [{"size": "1"}, {"size": "1"}, {"size": "16"}, {"size": "4"}]}}}, "dtype": {"type": "DT_FLOAT"}}}, {"name": "StatefulPartitionedCall/EfficientNetV1B1/stack_0_block1_se_1_conv/BiasAdd/ReadVariableOp", "op": "Const", "attr": {"dtype": {"type": "DT_FLOAT"}, "value": {"tensor": {"dtype": "DT_FLOAT", "tensorShape": {"dim": [{"size": "4"}]}}}}}, {"name": "StatefulPartitionedCall/EfficientNetV1B1/stack_0_block1_se_2_conv/Conv2D/ReadVariableOp", "op": "Const", "attr": {"value": {"tensor": {"dtype": "DT_FLOAT", "tensorShape": {"dim": [{"size": "1"}, {"size": "1"}, {"size": "4"}, {"size": "16"}]}}}, "dtype": {"type": "DT_FLOAT"}}}, {"name": "StatefulPartitionedCall/EfficientNetV1B1/stack_0_block1_se_2_conv/BiasAdd/ReadVariableOp", "op": "Const", "attr": {"value": {"tensor": {"dtype": "DT_FLOAT", "tensorShape": {"dim": [{"size": "16"}]}}}, "dtype": {"type": "DT_FLOAT"}}}, {"name": "StatefulPartitionedCall/EfficientNetV1B1/tf.math.reduce_mean_51/Mean/reduction_indices", "op": "Const", "attr": {"value": {"tensor": {"dtype": "DT_INT32", "tensorShape": {"dim": [{"size": "2"}]}}}, "dtype": {"type": "DT_INT32"}}}, {"name": "StatefulPartitionedCall/EfficientNetV1B1/stack_1_block0_se_1_conv/Conv2D/ReadVariableOp", "op": "Const", "attr": {"value": {"tensor": {"dtype": "DT_FLOAT", "tensorShape": {"dim": [{"size": "1"}, {"size": "1"}, {"size": "96"}, {"size": "4"}]}}}, "dtype": {"type": "DT_FLOAT"}}}, {"name": "StatefulPartitionedCall/EfficientNetV1B1/stack_1_block0_se_1_conv/BiasAdd/ReadVariableOp", "op": "Const", "attr": {"value": {"tensor": {"dtype": "DT_FLOAT", "tensorShape": {"dim": [{"size": "4"}]}}}, "dtype": {"type": "DT_FLOAT"}}}, {"name": "StatefulPartitionedCall/EfficientNetV1B1/stack_1_block0_se_2_conv/Conv2D/ReadVariableOp", "op": "Const", "attr": {"value": {"tensor": {"dtype": "DT_FLOAT", "tensorShape": {"dim": [{"size": "1"}, {"size": "1"}, {"size": "4"}, {"size": "96"}]}}}, "dtype": {"type": "DT_FLOAT"}}}, {"name": "StatefulPartitionedCall/EfficientNetV1B1/stack_1_block0_se_2_conv/BiasAdd/ReadVariableOp", "op": "Const", "attr": {"value": {"tensor": {"dtype": "DT_FLOAT", "tensorShape": {"dim": [{"size": "96"}]}}}, "dtype": {"type": "DT_FLOAT"}}}, {"name": "StatefulPartitionedCall/EfficientNetV1B1/tf.math.reduce_mean_52/Mean/reduction_indices", "op": "Const", "attr": {"value": {"tensor": {"dtype": "DT_INT32", "tensorShape": {"dim": [{"size": "2"}]}}}, "dtype": {"type": "DT_INT32"}}}, {"name": "StatefulPartitionedCall/EfficientNetV1B1/stack_1_block1_se_1_conv/Conv2D/ReadVariableOp", "op": "Const", "attr": {"value": {"tensor": {"dtype": "DT_FLOAT", "tensorShape": {"dim": [{"size": "1"}, {"size": "1"}, {"size": "144"}, {"size": "6"}]}}}, "dtype": {"type": "DT_FLOAT"}}}, {"name": "StatefulPartitionedCall/EfficientNetV1B1/stack_1_block1_se_1_conv/BiasAdd/ReadVariableOp", "op": "Const", "attr": {"value": {"tensor": {"dtype": "DT_FLOAT", "tensorShape": {"dim": [{"size": "6"}]}}}, "dtype": {"type": "DT_FLOAT"}}}, {"name": "StatefulPartitionedCall/EfficientNetV1B1/stack_1_block1_se_2_conv/Conv2D/ReadVariableOp", "op": "Const", "attr": {"dtype": {"type": "DT_FLOAT"}, "value": {"tensor": {"dtype": "DT_FLOAT", "tensorShape": {"dim": [{"size": "1"}, {"size": "1"}, {"size": "6"}, {"size": "144"}]}}}}}, {"name": "StatefulPartitionedCall/EfficientNetV1B1/stack_1_block1_se_2_conv/BiasAdd/ReadVariableOp", "op": "Const", "attr": {"dtype": {"type": "DT_FLOAT"}, "value": {"tensor": {"dtype": "DT_FLOAT", "tensorShape": {"dim": [{"size": "144"}]}}}}}, {"name": "StatefulPartitionedCall/EfficientNetV1B1/tf.math.reduce_mean_53/Mean/reduction_indices", "op": "Const", "attr": {"value": {"tensor": {"dtype": "DT_INT32", "tensorShape": {"dim": [{"size": "2"}]}}}, "dtype": {"type": "DT_INT32"}}}, {"name": "StatefulPartitionedCall/EfficientNetV1B1/stack_1_block2_se_1_conv/Conv2D/ReadVariableOp", "op": "Const", "attr": {"value": {"tensor": {"dtype": "DT_FLOAT", "tensorShape": {"dim": [{"size": "1"}, {"size": "1"}, {"size": "144"}, {"size": "6"}]}}}, "dtype": {"type": "DT_FLOAT"}}}, {"name": "StatefulPartitionedCall/EfficientNetV1B1/stack_1_block2_se_1_conv/BiasAdd/ReadVariableOp", "op": "Const", "attr": {"value": {"tensor": {"dtype": "DT_FLOAT", "tensorShape": {"dim": [{"size": "6"}]}}}, "dtype": {"type": "DT_FLOAT"}}}, {"name": "StatefulPartitionedCall/EfficientNetV1B1/stack_1_block2_se_2_conv/Conv2D/ReadVariableOp", "op": "Const", "attr": {"value": {"tensor": {"dtype": "DT_FLOAT", "tensorShape": {"dim": [{"size": "1"}, {"size": "1"}, {"size": "6"}, {"size": "144"}]}}}, "dtype": {"type": "DT_FLOAT"}}}, {"name": "StatefulPartitionedCall/EfficientNetV1B1/stack_1_block2_se_2_conv/BiasAdd/ReadVariableOp", "op": "Const", "attr": {"value": {"tensor": {"dtype": "DT_FLOAT", "tensorShape": {"dim": [{"size": "144"}]}}}, "dtype": {"type": "DT_FLOAT"}}}, {"name": "StatefulPartitionedCall/EfficientNetV1B1/tf.math.reduce_mean_54/Mean/reduction_indices", "op": "Const", "attr": {"value": {"tensor": {"dtype": "DT_INT32", "tensorShape": {"dim": [{"size": "2"}]}}}, "dtype": {"type": "DT_INT32"}}}, {"name": "StatefulPartitionedCall/EfficientNetV1B1/stack_2_block0_se_1_conv/Conv2D/ReadVariableOp", "op": "Const", "attr": {"value": {"tensor": {"dtype": "DT_FLOAT", "tensorShape": {"dim": [{"size": "1"}, {"size": "1"}, {"size": "144"}, {"size": "6"}]}}}, "dtype": {"type": "DT_FLOAT"}}}, {"name": "StatefulPartitionedCall/EfficientNetV1B1/stack_2_block0_se_1_conv/BiasAdd/ReadVariableOp", "op": "Const", "attr": {"value": {"tensor": {"dtype": "DT_FLOAT", "tensorShape": {"dim": [{"size": "6"}]}}}, "dtype": {"type": "DT_FLOAT"}}}, {"name": "StatefulPartitionedCall/EfficientNetV1B1/stack_2_block0_se_2_conv/Conv2D/ReadVariableOp", "op": "Const", "attr": {"value": {"tensor": {"dtype": "DT_FLOAT", "tensorShape": {"dim": [{"size": "1"}, {"size": "1"}, {"size": "6"}, {"size": "144"}]}}}, "dtype": {"type": "DT_FLOAT"}}}, {"name": "StatefulPartitionedCall/EfficientNetV1B1/stack_2_block0_se_2_conv/BiasAdd/ReadVariableOp", "op": "Const", "attr": {"value": {"tensor": {"dtype": "DT_FLOAT", "tensorShape": {"dim": [{"size": "144"}]}}}, "dtype": {"type": "DT_FLOAT"}}}, {"name": "StatefulPartitionedCall/EfficientNetV1B1/tf.math.reduce_mean_55/Mean/reduction_indices", "op": "Const", "attr": {"value": {"tensor": {"dtype": "DT_INT32", "tensorShape": {"dim": [{"size": "2"}]}}}, "dtype": {"type": "DT_INT32"}}}, {"name": "StatefulPartitionedCall/EfficientNetV1B1/stack_2_block1_se_1_conv/Conv2D/ReadVariableOp", "op": "Const", "attr": {"value": {"tensor": {"dtype": "DT_FLOAT", "tensorShape": {"dim": [{"size": "1"}, {"size": "1"}, {"size": "240"}, {"size": "10"}]}}}, "dtype": {"type": "DT_FLOAT"}}}, {"name": "StatefulPartitionedCall/EfficientNetV1B1/stack_2_block1_se_1_conv/BiasAdd/ReadVariableOp", "op": "Const", "attr": {"value": {"tensor": {"dtype": "DT_FLOAT", "tensorShape": {"dim": [{"size": "10"}]}}}, "dtype": {"type": "DT_FLOAT"}}}, {"name": "StatefulPartitionedCall/EfficientNetV1B1/stack_2_block1_se_2_conv/Conv2D/ReadVariableOp", "op": "Const", "attr": {"value": {"tensor": {"dtype": "DT_FLOAT", "tensorShape": {"dim": [{"size": "1"}, {"size": "1"}, {"size": "10"}, {"size": "240"}]}}}, "dtype": {"type": "DT_FLOAT"}}}, {"name": "StatefulPartitionedCall/EfficientNetV1B1/stack_2_block1_se_2_conv/BiasAdd/ReadVariableOp", "op": "Const", "attr": {"value": {"tensor": {"dtype": "DT_FLOAT", "tensorShape": {"dim": [{"size": "240"}]}}}, "dtype": {"type": "DT_FLOAT"}}}, {"name": "StatefulPartitionedCall/EfficientNetV1B1/tf.math.reduce_mean_56/Mean/reduction_indices", "op": "Const", "attr": {"value": {"tensor": {"dtype": "DT_INT32", "tensorShape": {"dim": [{"size": "2"}]}}}, "dtype": {"type": "DT_INT32"}}}, {"name": "StatefulPartitionedCall/EfficientNetV1B1/stack_2_block2_se_1_conv/Conv2D/ReadVariableOp", "op": "Const", "attr": {"value": {"tensor": {"dtype": "DT_FLOAT", "tensorShape": {"dim": [{"size": "1"}, {"size": "1"}, {"size": "240"}, {"size": "10"}]}}}, "dtype": {"type": "DT_FLOAT"}}}, {"name": "StatefulPartitionedCall/EfficientNetV1B1/stack_2_block2_se_1_conv/BiasAdd/ReadVariableOp", "op": "Const", "attr": {"value": {"tensor": {"dtype": "DT_FLOAT", "tensorShape": {"dim": [{"size": "10"}]}}}, "dtype": {"type": "DT_FLOAT"}}}, {"name": "StatefulPartitionedCall/EfficientNetV1B1/stack_2_block2_se_2_conv/Conv2D/ReadVariableOp", "op": "Const", "attr": {"value": {"tensor": {"dtype": "DT_FLOAT", "tensorShape": {"dim": [{"size": "1"}, {"size": "1"}, {"size": "10"}, {"size": "240"}]}}}, "dtype": {"type": "DT_FLOAT"}}}, {"name": "StatefulPartitionedCall/EfficientNetV1B1/stack_2_block2_se_2_conv/BiasAdd/ReadVariableOp", "op": "Const", "attr": {"value": {"tensor": {"dtype": "DT_FLOAT", "tensorShape": {"dim": [{"size": "240"}]}}}, "dtype": {"type": "DT_FLOAT"}}}, {"name": "StatefulPartitionedCall/EfficientNetV1B1/tf.math.reduce_mean_57/Mean/reduction_indices", "op": "Const", "attr": {"value": {"tensor": {"dtype": "DT_INT32", "tensorShape": {"dim": [{"size": "2"}]}}}, "dtype": {"type": "DT_INT32"}}}, {"name": "StatefulPartitionedCall/EfficientNetV1B1/stack_3_block0_se_1_conv/Conv2D/ReadVariableOp", "op": "Const", "attr": {"value": {"tensor": {"dtype": "DT_FLOAT", "tensorShape": {"dim": [{"size": "1"}, {"size": "1"}, {"size": "240"}, {"size": "10"}]}}}, "dtype": {"type": "DT_FLOAT"}}}, {"name": "StatefulPartitionedCall/EfficientNetV1B1/stack_3_block0_se_1_conv/BiasAdd/ReadVariableOp", "op": "Const", "attr": {"value": {"tensor": {"dtype": "DT_FLOAT", "tensorShape": {"dim": [{"size": "10"}]}}}, "dtype": {"type": "DT_FLOAT"}}}, {"name": "StatefulPartitionedCall/EfficientNetV1B1/stack_3_block0_se_2_conv/Conv2D/ReadVariableOp", "op": "Const", "attr": {"value": {"tensor": {"dtype": "DT_FLOAT", "tensorShape": {"dim": [{"size": "1"}, {"size": "1"}, {"size": "10"}, {"size": "240"}]}}}, "dtype": {"type": "DT_FLOAT"}}}, {"name": "StatefulPartitionedCall/EfficientNetV1B1/stack_3_block0_se_2_conv/BiasAdd/ReadVariableOp", "op": "Const", "attr": {"value": {"tensor": {"dtype": "DT_FLOAT", "tensorShape": {"dim": [{"size": "240"}]}}}, "dtype": {"type": "DT_FLOAT"}}}, {"name": "StatefulPartitionedCall/EfficientNetV1B1/tf.math.reduce_mean_58/Mean/reduction_indices", "op": "Const", "attr": {"value": {"tensor": {"dtype": "DT_INT32", "tensorShape": {"dim": [{"size": "2"}]}}}, "dtype": {"type": "DT_INT32"}}}, {"name": "StatefulPartitionedCall/EfficientNetV1B1/stack_3_block1_se_1_conv/Conv2D/ReadVariableOp", "op": "Const", "attr": {"value": {"tensor": {"dtype": "DT_FLOAT", "tensorShape": {"dim": [{"size": "1"}, {"size": "1"}, {"size": "480"}, {"size": "20"}]}}}, "dtype": {"type": "DT_FLOAT"}}}, {"name": "StatefulPartitionedCall/EfficientNetV1B1/stack_3_block1_se_1_conv/BiasAdd/ReadVariableOp", "op": "Const", "attr": {"value": {"tensor": {"dtype": "DT_FLOAT", "tensorShape": {"dim": [{"size": "20"}]}}}, "dtype": {"type": "DT_FLOAT"}}}, {"name": "StatefulPartitionedCall/EfficientNetV1B1/stack_3_block1_se_2_conv/Conv2D/ReadVariableOp", "op": "Const", "attr": {"value": {"tensor": {"dtype": "DT_FLOAT", "tensorShape": {"dim": [{"size": "1"}, {"size": "1"}, {"size": "20"}, {"size": "480"}]}}}, "dtype": {"type": "DT_FLOAT"}}}, {"name": "StatefulPartitionedCall/EfficientNetV1B1/stack_3_block1_se_2_conv/BiasAdd/ReadVariableOp", "op": "Const", "attr": {"value": {"tensor": {"dtype": "DT_FLOAT", "tensorShape": {"dim": [{"size": "480"}]}}}, "dtype": {"type": "DT_FLOAT"}}}, {"name": "StatefulPartitionedCall/EfficientNetV1B1/tf.math.reduce_mean_59/Mean/reduction_indices", "op": "Const", "attr": {"value": {"tensor": {"dtype": "DT_INT32", "tensorShape": {"dim": [{"size": "2"}]}}}, "dtype": {"type": "DT_INT32"}}}, {"name": "StatefulPartitionedCall/EfficientNetV1B1/stack_3_block2_se_1_conv/Conv2D/ReadVariableOp", "op": "Const", "attr": {"value": {"tensor": {"dtype": "DT_FLOAT", "tensorShape": {"dim": [{"size": "1"}, {"size": "1"}, {"size": "480"}, {"size": "20"}]}}}, "dtype": {"type": "DT_FLOAT"}}}, {"name": "StatefulPartitionedCall/EfficientNetV1B1/stack_3_block2_se_1_conv/BiasAdd/ReadVariableOp", "op": "Const", "attr": {"value": {"tensor": {"dtype": "DT_FLOAT", "tensorShape": {"dim": [{"size": "20"}]}}}, "dtype": {"type": "DT_FLOAT"}}}, {"name": "StatefulPartitionedCall/EfficientNetV1B1/stack_3_block2_se_2_conv/Conv2D/ReadVariableOp", "op": "Const", "attr": {"value": {"tensor": {"dtype": "DT_FLOAT", "tensorShape": {"dim": [{"size": "1"}, {"size": "1"}, {"size": "20"}, {"size": "480"}]}}}, "dtype": {"type": "DT_FLOAT"}}}, {"name": "StatefulPartitionedCall/EfficientNetV1B1/stack_3_block2_se_2_conv/BiasAdd/ReadVariableOp", "op": "Const", "attr": {"value": {"tensor": {"dtype": "DT_FLOAT", "tensorShape": {"dim": [{"size": "480"}]}}}, "dtype": {"type": "DT_FLOAT"}}}, {"name": "StatefulPartitionedCall/EfficientNetV1B1/tf.math.reduce_mean_60/Mean/reduction_indices", "op": "Const", "attr": {"value": {"tensor": {"dtype": "DT_INT32", "tensorShape": {"dim": [{"size": "2"}]}}}, "dtype": {"type": "DT_INT32"}}}, {"name": "StatefulPartitionedCall/EfficientNetV1B1/stack_3_block3_se_1_conv/Conv2D/ReadVariableOp", "op": "Const", "attr": {"value": {"tensor": {"dtype": "DT_FLOAT", "tensorShape": {"dim": [{"size": "1"}, {"size": "1"}, {"size": "480"}, {"size": "20"}]}}}, "dtype": {"type": "DT_FLOAT"}}}, {"name": "StatefulPartitionedCall/EfficientNetV1B1/stack_3_block3_se_1_conv/BiasAdd/ReadVariableOp", "op": "Const", "attr": {"value": {"tensor": {"dtype": "DT_FLOAT", "tensorShape": {"dim": [{"size": "20"}]}}}, "dtype": {"type": "DT_FLOAT"}}}, {"name": "StatefulPartitionedCall/EfficientNetV1B1/stack_3_block3_se_2_conv/Conv2D/ReadVariableOp", "op": "Const", "attr": {"value": {"tensor": {"dtype": "DT_FLOAT", "tensorShape": {"dim": [{"size": "1"}, {"size": "1"}, {"size": "20"}, {"size": "480"}]}}}, "dtype": {"type": "DT_FLOAT"}}}, {"name": "StatefulPartitionedCall/EfficientNetV1B1/stack_3_block3_se_2_conv/BiasAdd/ReadVariableOp", "op": "Const", "attr": {"value": {"tensor": {"dtype": "DT_FLOAT", "tensorShape": {"dim": [{"size": "480"}]}}}, "dtype": {"type": "DT_FLOAT"}}}, {"name": "StatefulPartitionedCall/EfficientNetV1B1/tf.math.reduce_mean_61/Mean/reduction_indices", "op": "Const", "attr": {"value": {"tensor": {"dtype": "DT_INT32", "tensorShape": {"dim": [{"size": "2"}]}}}, "dtype": {"type": "DT_INT32"}}}, {"name": "StatefulPartitionedCall/EfficientNetV1B1/stack_4_block0_se_1_conv/Conv2D/ReadVariableOp", "op": "Const", "attr": {"value": {"tensor": {"dtype": "DT_FLOAT", "tensorShape": {"dim": [{"size": "1"}, {"size": "1"}, {"size": "480"}, {"size": "20"}]}}}, "dtype": {"type": "DT_FLOAT"}}}, {"name": "StatefulPartitionedCall/EfficientNetV1B1/stack_4_block0_se_1_conv/BiasAdd/ReadVariableOp", "op": "Const", "attr": {"value": {"tensor": {"dtype": "DT_FLOAT", "tensorShape": {"dim": [{"size": "20"}]}}}, "dtype": {"type": "DT_FLOAT"}}}, {"name": "StatefulPartitionedCall/EfficientNetV1B1/stack_4_block0_se_2_conv/Conv2D/ReadVariableOp", "op": "Const", "attr": {"value": {"tensor": {"dtype": "DT_FLOAT", "tensorShape": {"dim": [{"size": "1"}, {"size": "1"}, {"size": "20"}, {"size": "480"}]}}}, "dtype": {"type": "DT_FLOAT"}}}, {"name": "StatefulPartitionedCall/EfficientNetV1B1/stack_4_block0_se_2_conv/BiasAdd/ReadVariableOp", "op": "Const", "attr": {"value": {"tensor": {"dtype": "DT_FLOAT", "tensorShape": {"dim": [{"size": "480"}]}}}, "dtype": {"type": "DT_FLOAT"}}}, {"name": "StatefulPartitionedCall/EfficientNetV1B1/tf.math.reduce_mean_62/Mean/reduction_indices", "op": "Const", "attr": {"value": {"tensor": {"dtype": "DT_INT32", "tensorShape": {"dim": [{"size": "2"}]}}}, "dtype": {"type": "DT_INT32"}}}, {"name": "StatefulPartitionedCall/EfficientNetV1B1/stack_4_block1_se_1_conv/Conv2D/ReadVariableOp", "op": "Const", "attr": {"value": {"tensor": {"dtype": "DT_FLOAT", "tensorShape": {"dim": [{"size": "1"}, {"size": "1"}, {"size": "672"}, {"size": "28"}]}}}, "dtype": {"type": "DT_FLOAT"}}}, {"name": "StatefulPartitionedCall/EfficientNetV1B1/stack_4_block1_se_1_conv/BiasAdd/ReadVariableOp", "op": "Const", "attr": {"value": {"tensor": {"dtype": "DT_FLOAT", "tensorShape": {"dim": [{"size": "28"}]}}}, "dtype": {"type": "DT_FLOAT"}}}, {"name": "StatefulPartitionedCall/EfficientNetV1B1/stack_4_block1_se_2_conv/Conv2D/ReadVariableOp", "op": "Const", "attr": {"value": {"tensor": {"dtype": "DT_FLOAT", "tensorShape": {"dim": [{"size": "1"}, {"size": "1"}, {"size": "28"}, {"size": "672"}]}}}, "dtype": {"type": "DT_FLOAT"}}}, {"name": "StatefulPartitionedCall/EfficientNetV1B1/stack_4_block1_se_2_conv/BiasAdd/ReadVariableOp", "op": "Const", "attr": {"value": {"tensor": {"dtype": "DT_FLOAT", "tensorShape": {"dim": [{"size": "672"}]}}}, "dtype": {"type": "DT_FLOAT"}}}, {"name": "StatefulPartitionedCall/EfficientNetV1B1/tf.math.reduce_mean_63/Mean/reduction_indices", "op": "Const", "attr": {"value": {"tensor": {"dtype": "DT_INT32", "tensorShape": {"dim": [{"size": "2"}]}}}, "dtype": {"type": "DT_INT32"}}}, {"name": "StatefulPartitionedCall/EfficientNetV1B1/stack_4_block2_se_1_conv/Conv2D/ReadVariableOp", "op": "Const", "attr": {"value": {"tensor": {"dtype": "DT_FLOAT", "tensorShape": {"dim": [{"size": "1"}, {"size": "1"}, {"size": "672"}, {"size": "28"}]}}}, "dtype": {"type": "DT_FLOAT"}}}, {"name": "StatefulPartitionedCall/EfficientNetV1B1/stack_4_block2_se_1_conv/BiasAdd/ReadVariableOp", "op": "Const", "attr": {"value": {"tensor": {"dtype": "DT_FLOAT", "tensorShape": {"dim": [{"size": "28"}]}}}, "dtype": {"type": "DT_FLOAT"}}}, {"name": "StatefulPartitionedCall/EfficientNetV1B1/stack_4_block2_se_2_conv/Conv2D/ReadVariableOp", "op": "Const", "attr": {"value": {"tensor": {"dtype": "DT_FLOAT", "tensorShape": {"dim": [{"size": "1"}, {"size": "1"}, {"size": "28"}, {"size": "672"}]}}}, "dtype": {"type": "DT_FLOAT"}}}, {"name": "StatefulPartitionedCall/EfficientNetV1B1/stack_4_block2_se_2_conv/BiasAdd/ReadVariableOp", "op": "Const", "attr": {"value": {"tensor": {"dtype": "DT_FLOAT", "tensorShape": {"dim": [{"size": "672"}]}}}, "dtype": {"type": "DT_FLOAT"}}}, {"name": "StatefulPartitionedCall/EfficientNetV1B1/tf.math.reduce_mean_64/Mean/reduction_indices", "op": "Const", "attr": {"value": {"tensor": {"dtype": "DT_INT32", "tensorShape": {"dim": [{"size": "2"}]}}}, "dtype": {"type": "DT_INT32"}}}, {"name": "StatefulPartitionedCall/EfficientNetV1B1/stack_4_block3_se_1_conv/Conv2D/ReadVariableOp", "op": "Const", "attr": {"value": {"tensor": {"dtype": "DT_FLOAT", "tensorShape": {"dim": [{"size": "1"}, {"size": "1"}, {"size": "672"}, {"size": "28"}]}}}, "dtype": {"type": "DT_FLOAT"}}}, {"name": "StatefulPartitionedCall/EfficientNetV1B1/stack_4_block3_se_1_conv/BiasAdd/ReadVariableOp", "op": "Const", "attr": {"value": {"tensor": {"dtype": "DT_FLOAT", "tensorShape": {"dim": [{"size": "28"}]}}}, "dtype": {"type": "DT_FLOAT"}}}, {"name": "StatefulPartitionedCall/EfficientNetV1B1/stack_4_block3_se_2_conv/Conv2D/ReadVariableOp", "op": "Const", "attr": {"value": {"tensor": {"dtype": "DT_FLOAT", "tensorShape": {"dim": [{"size": "1"}, {"size": "1"}, {"size": "28"}, {"size": "672"}]}}}, "dtype": {"type": "DT_FLOAT"}}}, {"name": "StatefulPartitionedCall/EfficientNetV1B1/stack_4_block3_se_2_conv/BiasAdd/ReadVariableOp", "op": "Const", "attr": {"value": {"tensor": {"dtype": "DT_FLOAT", "tensorShape": {"dim": [{"size": "672"}]}}}, "dtype": {"type": "DT_FLOAT"}}}, {"name": "StatefulPartitionedCall/EfficientNetV1B1/tf.math.reduce_mean_65/Mean/reduction_indices", "op": "Const", "attr": {"value": {"tensor": {"dtype": "DT_INT32", "tensorShape": {"dim": [{"size": "2"}]}}}, "dtype": {"type": "DT_INT32"}}}, {"name": "StatefulPartitionedCall/EfficientNetV1B1/stack_5_block0_se_1_conv/Conv2D/ReadVariableOp", "op": "Const", "attr": {"value": {"tensor": {"dtype": "DT_FLOAT", "tensorShape": {"dim": [{"size": "1"}, {"size": "1"}, {"size": "672"}, {"size": "28"}]}}}, "dtype": {"type": "DT_FLOAT"}}}, {"name": "StatefulPartitionedCall/EfficientNetV1B1/stack_5_block0_se_1_conv/BiasAdd/ReadVariableOp", "op": "Const", "attr": {"value": {"tensor": {"dtype": "DT_FLOAT", "tensorShape": {"dim": [{"size": "28"}]}}}, "dtype": {"type": "DT_FLOAT"}}}, {"name": "StatefulPartitionedCall/EfficientNetV1B1/stack_5_block0_se_2_conv/Conv2D/ReadVariableOp", "op": "Const", "attr": {"value": {"tensor": {"dtype": "DT_FLOAT", "tensorShape": {"dim": [{"size": "1"}, {"size": "1"}, {"size": "28"}, {"size": "672"}]}}}, "dtype": {"type": "DT_FLOAT"}}}, {"name": "StatefulPartitionedCall/EfficientNetV1B1/stack_5_block0_se_2_conv/BiasAdd/ReadVariableOp", "op": "Const", "attr": {"value": {"tensor": {"dtype": "DT_FLOAT", "tensorShape": {"dim": [{"size": "672"}]}}}, "dtype": {"type": "DT_FLOAT"}}}, {"name": "StatefulPartitionedCall/EfficientNetV1B1/tf.math.reduce_mean_66/Mean/reduction_indices", "op": "Const", "attr": {"value": {"tensor": {"dtype": "DT_INT32", "tensorShape": {"dim": [{"size": "2"}]}}}, "dtype": {"type": "DT_INT32"}}}, {"name": "StatefulPartitionedCall/EfficientNetV1B1/stack_5_block1_se_1_conv/Conv2D/ReadVariableOp", "op": "Const", "attr": {"value": {"tensor": {"dtype": "DT_FLOAT", "tensorShape": {"dim": [{"size": "1"}, {"size": "1"}, {"size": "1152"}, {"size": "48"}]}}}, "dtype": {"type": "DT_FLOAT"}}}, {"name": "StatefulPartitionedCall/EfficientNetV1B1/stack_5_block1_se_1_conv/BiasAdd/ReadVariableOp", "op": "Const", "attr": {"value": {"tensor": {"dtype": "DT_FLOAT", "tensorShape": {"dim": [{"size": "48"}]}}}, "dtype": {"type": "DT_FLOAT"}}}, {"name": "StatefulPartitionedCall/EfficientNetV1B1/stack_5_block1_se_2_conv/Conv2D/ReadVariableOp", "op": "Const", "attr": {"dtype": {"type": "DT_FLOAT"}, "value": {"tensor": {"dtype": "DT_FLOAT", "tensorShape": {"dim": [{"size": "1"}, {"size": "1"}, {"size": "48"}, {"size": "1152"}]}}}}}, {"name": "StatefulPartitionedCall/EfficientNetV1B1/stack_5_block1_se_2_conv/BiasAdd/ReadVariableOp", "op": "Const", "attr": {"dtype": {"type": "DT_FLOAT"}, "value": {"tensor": {"dtype": "DT_FLOAT", "tensorShape": {"dim": [{"size": "1152"}]}}}}}, {"name": "StatefulPartitionedCall/EfficientNetV1B1/tf.math.reduce_mean_67/Mean/reduction_indices", "op": "Const", "attr": {"value": {"tensor": {"dtype": "DT_INT32", "tensorShape": {"dim": [{"size": "2"}]}}}, "dtype": {"type": "DT_INT32"}}}, {"name": "StatefulPartitionedCall/EfficientNetV1B1/stack_5_block2_se_1_conv/Conv2D/ReadVariableOp", "op": "Const", "attr": {"value": {"tensor": {"dtype": "DT_FLOAT", "tensorShape": {"dim": [{"size": "1"}, {"size": "1"}, {"size": "1152"}, {"size": "48"}]}}}, "dtype": {"type": "DT_FLOAT"}}}, {"name": "StatefulPartitionedCall/EfficientNetV1B1/stack_5_block2_se_1_conv/BiasAdd/ReadVariableOp", "op": "Const", "attr": {"value": {"tensor": {"dtype": "DT_FLOAT", "tensorShape": {"dim": [{"size": "48"}]}}}, "dtype": {"type": "DT_FLOAT"}}}, {"name": "StatefulPartitionedCall/EfficientNetV1B1/stack_5_block2_se_2_conv/Conv2D/ReadVariableOp", "op": "Const", "attr": {"value": {"tensor": {"dtype": "DT_FLOAT", "tensorShape": {"dim": [{"size": "1"}, {"size": "1"}, {"size": "48"}, {"size": "1152"}]}}}, "dtype": {"type": "DT_FLOAT"}}}, {"name": "StatefulPartitionedCall/EfficientNetV1B1/stack_5_block2_se_2_conv/BiasAdd/ReadVariableOp", "op": "Const", "attr": {"value": {"tensor": {"dtype": "DT_FLOAT", "tensorShape": {"dim": [{"size": "1152"}]}}}, "dtype": {"type": "DT_FLOAT"}}}, {"name": "StatefulPartitionedCall/EfficientNetV1B1/tf.math.reduce_mean_68/Mean/reduction_indices", "op": "Const", "attr": {"value": {"tensor": {"dtype": "DT_INT32", "tensorShape": {"dim": [{"size": "2"}]}}}, "dtype": {"type": "DT_INT32"}}}, {"name": "StatefulPartitionedCall/EfficientNetV1B1/stack_5_block3_se_1_conv/Conv2D/ReadVariableOp", "op": "Const", "attr": {"value": {"tensor": {"dtype": "DT_FLOAT", "tensorShape": {"dim": [{"size": "1"}, {"size": "1"}, {"size": "1152"}, {"size": "48"}]}}}, "dtype": {"type": "DT_FLOAT"}}}, {"name": "StatefulPartitionedCall/EfficientNetV1B1/stack_5_block3_se_1_conv/BiasAdd/ReadVariableOp", "op": "Const", "attr": {"dtype": {"type": "DT_FLOAT"}, "value": {"tensor": {"dtype": "DT_FLOAT", "tensorShape": {"dim": [{"size": "48"}]}}}}}, {"name": "StatefulPartitionedCall/EfficientNetV1B1/stack_5_block3_se_2_conv/Conv2D/ReadVariableOp", "op": "Const", "attr": {"value": {"tensor": {"dtype": "DT_FLOAT", "tensorShape": {"dim": [{"size": "1"}, {"size": "1"}, {"size": "48"}, {"size": "1152"}]}}}, "dtype": {"type": "DT_FLOAT"}}}, {"name": "StatefulPartitionedCall/EfficientNetV1B1/stack_5_block3_se_2_conv/BiasAdd/ReadVariableOp", "op": "Const", "attr": {"value": {"tensor": {"dtype": "DT_FLOAT", "tensorShape": {"dim": [{"size": "1152"}]}}}, "dtype": {"type": "DT_FLOAT"}}}, {"name": "StatefulPartitionedCall/EfficientNetV1B1/tf.math.reduce_mean_69/Mean/reduction_indices", "op": "Const", "attr": {"dtype": {"type": "DT_INT32"}, "value": {"tensor": {"dtype": "DT_INT32", "tensorShape": {"dim": [{"size": "2"}]}}}}}, {"name": "StatefulPartitionedCall/EfficientNetV1B1/stack_5_block4_se_1_conv/Conv2D/ReadVariableOp", "op": "Const", "attr": {"value": {"tensor": {"dtype": "DT_FLOAT", "tensorShape": {"dim": [{"size": "1"}, {"size": "1"}, {"size": "1152"}, {"size": "48"}]}}}, "dtype": {"type": "DT_FLOAT"}}}, {"name": "StatefulPartitionedCall/EfficientNetV1B1/stack_5_block4_se_1_conv/BiasAdd/ReadVariableOp", "op": "Const", "attr": {"dtype": {"type": "DT_FLOAT"}, "value": {"tensor": {"dtype": "DT_FLOAT", "tensorShape": {"dim": [{"size": "48"}]}}}}}, {"name": "StatefulPartitionedCall/EfficientNetV1B1/stack_5_block4_se_2_conv/Conv2D/ReadVariableOp", "op": "Const", "attr": {"value": {"tensor": {"dtype": "DT_FLOAT", "tensorShape": {"dim": [{"size": "1"}, {"size": "1"}, {"size": "48"}, {"size": "1152"}]}}}, "dtype": {"type": "DT_FLOAT"}}}, {"name": "StatefulPartitionedCall/EfficientNetV1B1/stack_5_block4_se_2_conv/BiasAdd/ReadVariableOp", "op": "Const", "attr": {"dtype": {"type": "DT_FLOAT"}, "value": {"tensor": {"dtype": "DT_FLOAT", "tensorShape": {"dim": [{"size": "1152"}]}}}}}, {"name": "StatefulPartitionedCall/EfficientNetV1B1/tf.math.reduce_mean_70/Mean/reduction_indices", "op": "Const", "attr": {"value": {"tensor": {"dtype": "DT_INT32", "tensorShape": {"dim": [{"size": "2"}]}}}, "dtype": {"type": "DT_INT32"}}}, {"name": "StatefulPartitionedCall/EfficientNetV1B1/stack_6_block0_se_1_conv/Conv2D/ReadVariableOp", "op": "Const", "attr": {"dtype": {"type": "DT_FLOAT"}, "value": {"tensor": {"dtype": "DT_FLOAT", "tensorShape": {"dim": [{"size": "1"}, {"size": "1"}, {"size": "1152"}, {"size": "48"}]}}}}}, {"name": "StatefulPartitionedCall/EfficientNetV1B1/stack_6_block0_se_1_conv/BiasAdd/ReadVariableOp", "op": "Const", "attr": {"value": {"tensor": {"dtype": "DT_FLOAT", "tensorShape": {"dim": [{"size": "48"}]}}}, "dtype": {"type": "DT_FLOAT"}}}, {"name": "StatefulPartitionedCall/EfficientNetV1B1/stack_6_block0_se_2_conv/Conv2D/ReadVariableOp", "op": "Const", "attr": {"value": {"tensor": {"dtype": "DT_FLOAT", "tensorShape": {"dim": [{"size": "1"}, {"size": "1"}, {"size": "48"}, {"size": "1152"}]}}}, "dtype": {"type": "DT_FLOAT"}}}, {"name": "StatefulPartitionedCall/EfficientNetV1B1/stack_6_block0_se_2_conv/BiasAdd/ReadVariableOp", "op": "Const", "attr": {"dtype": {"type": "DT_FLOAT"}, "value": {"tensor": {"dtype": "DT_FLOAT", "tensorShape": {"dim": [{"size": "1152"}]}}}}}, {"name": "StatefulPartitionedCall/EfficientNetV1B1/tf.math.reduce_mean_71/Mean/reduction_indices", "op": "Const", "attr": {"value": {"tensor": {"dtype": "DT_INT32", "tensorShape": {"dim": [{"size": "2"}]}}}, "dtype": {"type": "DT_INT32"}}}, {"name": "StatefulPartitionedCall/EfficientNetV1B1/stack_6_block1_se_1_conv/Conv2D/ReadVariableOp", "op": "Const", "attr": {"value": {"tensor": {"dtype": "DT_FLOAT", "tensorShape": {"dim": [{"size": "1"}, {"size": "1"}, {"size": "1920"}, {"size": "80"}]}}}, "dtype": {"type": "DT_FLOAT"}}}, {"name": "StatefulPartitionedCall/EfficientNetV1B1/stack_6_block1_se_1_conv/BiasAdd/ReadVariableOp", "op": "Const", "attr": {"dtype": {"type": "DT_FLOAT"}, "value": {"tensor": {"dtype": "DT_FLOAT", "tensorShape": {"dim": [{"size": "80"}]}}}}}, {"name": "StatefulPartitionedCall/EfficientNetV1B1/stack_6_block1_se_2_conv/Conv2D/ReadVariableOp", "op": "Const", "attr": {"dtype": {"type": "DT_FLOAT"}, "value": {"tensor": {"dtype": "DT_FLOAT", "tensorShape": {"dim": [{"size": "1"}, {"size": "1"}, {"size": "80"}, {"size": "1920"}]}}}}}, {"name": "StatefulPartitionedCall/EfficientNetV1B1/stack_6_block1_se_2_conv/BiasAdd/ReadVariableOp", "op": "Const", "attr": {"value": {"tensor": {"dtype": "DT_FLOAT", "tensorShape": {"dim": [{"size": "1920"}]}}}, "dtype": {"type": "DT_FLOAT"}}}, {"name": "StatefulPartitionedCall/EfficientNetV1B1/avg_pool/Mean/reduction_indices", "op": "Const", "attr": {"value": {"tensor": {"dtype": "DT_INT32", "tensorShape": {"dim": [{"size": "2"}]}}}, "dtype": {"type": "DT_INT32"}}}, {"name": "StatefulPartitionedCall/EfficientNetV1B1/predictions/MatMul/ReadVariableOp", "op": "Const", "attr": {"value": {"tensor": {"dtype": "DT_FLOAT", "tensorShape": {"dim": [{"size": "1280"}, {"size": "76"}]}}}, "dtype": {"type": "DT_FLOAT"}}}, {"name": "StatefulPartitionedCall/EfficientNetV1B1/predictions/BiasAdd/ReadVariableOp", "op": "Const", "attr": {"dtype": {"type": "DT_FLOAT"}, "value": {"tensor": {"dtype": "DT_FLOAT", "tensorShape": {"dim": [{"size": "76"}]}}}}}, {"name": "input_3", "op": "Placeholder", "attr": {"shape": {"shape": {"dim": [{"size": "-1"}, {"size": "240"}, {"size": "240"}, {"size": "3"}]}}, "dtype": {"type": "DT_FLOAT"}}}, {"name": "StatefulPartitionedCall/EfficientNetV1B1/stem_conv/Conv2D_weights", "op": "Const", "attr": {"dtype": {"type": "DT_FLOAT"}, "value": {"tensor": {"dtype": "DT_FLOAT", "tensorShape": {"dim": [{"size": "3"}, {"size": "3"}, {"size": "3"}, {"size": "32"}]}}}}}, {"name": "StatefulPartitionedCall/EfficientNetV1B1/stack_5_block3_MB_pw_conv/Conv2D_weights", "op": "Const", "attr": {"dtype": {"type": "DT_FLOAT"}, "value": {"tensor": {"dtype": "DT_FLOAT", "tensorShape": {"dim": [{"size": "1"}, {"size": "1"}, {"size": "1152"}, {"size": "192"}]}}}}}, {"name": "StatefulPartitionedCall/EfficientNetV1B1/stem_conv/Conv2D_bn_offset", "op": "Const", "attr": {"value": {"tensor": {"dtype": "DT_FLOAT", "tensorShape": {"dim": [{"size": "32"}]}}}, "dtype": {"type": "DT_FLOAT"}}}, {"name": "StatefulPartitionedCall/EfficientNetV1B1/stack_0_block0_MB_dw_/depthwise_weights", "op": "Const", "attr": {"value": {"tensor": {"dtype": "DT_FLOAT", "tensorShape": {"dim": [{"size": "3"}, {"size": "3"}, {"size": "32"}, {"size": "1"}]}}}, "dtype": {"type": "DT_FLOAT"}}}, {"name": "StatefulPartitionedCall/EfficientNetV1B1/stack_0_block0_MB_dw_/depthwise_bn_offset", "op": "Const", "attr": {"dtype": {"type": "DT_FLOAT"}, "value": {"tensor": {"dtype": "DT_FLOAT", "tensorShape": {"dim": [{"size": "32"}]}}}}}, {"name": "StatefulPartitionedCall/EfficientNetV1B1/stack_5_block3_MB_pw_conv/Conv2D_bn_offset", "op": "Const", "attr": {"value": {"tensor": {"dtype": "DT_FLOAT", "tensorShape": {"dim": [{"size": "192"}]}}}, "dtype": {"type": "DT_FLOAT"}}}, {"name": "StatefulPartitionedCall/EfficientNetV1B1/stack_0_block0_MB_pw_conv/Conv2D_weights", "op": "Const", "attr": {"value": {"tensor": {"dtype": "DT_FLOAT", "tensorShape": {"dim": [{"size": "1"}, {"size": "1"}, {"size": "32"}, {"size": "16"}]}}}, "dtype": {"type": "DT_FLOAT"}}}, {"name": "StatefulPartitionedCall/EfficientNetV1B1/stack_0_block0_MB_pw_conv/Conv2D_bn_offset", "op": "Const", "attr": {"value": {"tensor": {"dtype": "DT_FLOAT", "tensorShape": {"dim": [{"size": "16"}]}}}, "dtype": {"type": "DT_FLOAT"}}}, {"name": "StatefulPartitionedCall/EfficientNetV1B1/stack_0_block1_MB_dw_/depthwise_weights", "op": "Const", "attr": {"value": {"tensor": {"dtype": "DT_FLOAT", "tensorShape": {"dim": [{"size": "3"}, {"size": "3"}, {"size": "16"}, {"size": "1"}]}}}, "dtype": {"type": "DT_FLOAT"}}}, {"name": "StatefulPartitionedCall/EfficientNetV1B1/stack_0_block1_MB_dw_/depthwise_bn_offset", "op": "Const", "attr": {"dtype": {"type": "DT_FLOAT"}, "value": {"tensor": {"dtype": "DT_FLOAT", "tensorShape": {"dim": [{"size": "16"}]}}}}}, {"name": "StatefulPartitionedCall/EfficientNetV1B1/stack_5_block4_sortcut_conv/Conv2D_weights", "op": "Const", "attr": {"value": {"tensor": {"dtype": "DT_FLOAT", "tensorShape": {"dim": [{"size": "1"}, {"size": "1"}, {"size": "192"}, {"size": "1152"}]}}}, "dtype": {"type": "DT_FLOAT"}}}, {"name": "StatefulPartitionedCall/EfficientNetV1B1/stack_0_block1_MB_pw_conv/Conv2D_weights", "op": "Const", "attr": {"value": {"tensor": {"dtype": "DT_FLOAT", "tensorShape": {"dim": [{"size": "1"}, {"size": "1"}, {"size": "16"}, {"size": "16"}]}}}, "dtype": {"type": "DT_FLOAT"}}}, {"name": "StatefulPartitionedCall/EfficientNetV1B1/stack_6_block1_MB_pw_conv/Conv2D_bn_offset", "op": "Const", "attr": {"value": {"tensor": {"dtype": "DT_FLOAT", "tensorShape": {"dim": [{"size": "320"}]}}}, "dtype": {"type": "DT_FLOAT"}}}, {"name": "StatefulPartitionedCall/EfficientNetV1B1/stack_0_block1_MB_pw_conv/Conv2D_bn_offset", "op": "Const", "attr": {"value": {"tensor": {"dtype": "DT_FLOAT", "tensorShape": {"dim": [{"size": "16"}]}}}, "dtype": {"type": "DT_FLOAT"}}}, {"name": "StatefulPartitionedCall/EfficientNetV1B1/stack_1_block0_sortcut_conv/Conv2D_weights", "op": "Const", "attr": {"value": {"tensor": {"dtype": "DT_FLOAT", "tensorShape": {"dim": [{"size": "1"}, {"size": "1"}, {"size": "16"}, {"size": "96"}]}}}, "dtype": {"type": "DT_FLOAT"}}}, {"name": "StatefulPartitionedCall/EfficientNetV1B1/stack_5_block4_sortcut_conv/Conv2D_bn_offset", "op": "Const", "attr": {"value": {"tensor": {"dtype": "DT_FLOAT", "tensorShape": {"dim": [{"size": "1152"}]}}}, "dtype": {"type": "DT_FLOAT"}}}, {"name": "StatefulPartitionedCall/EfficientNetV1B1/stack_1_block0_sortcut_conv/Conv2D_bn_offset", "op": "Const", "attr": {"value": {"tensor": {"dtype": "DT_FLOAT", "tensorShape": {"dim": [{"size": "96"}]}}}, "dtype": {"type": "DT_FLOAT"}}}, {"name": "StatefulPartitionedCall/EfficientNetV1B1/stack_1_block0_MB_dw_/depthwise_weights", "op": "Const", "attr": {"value": {"tensor": {"dtype": "DT_FLOAT", "tensorShape": {"dim": [{"size": "3"}, {"size": "3"}, {"size": "96"}, {"size": "1"}]}}}, "dtype": {"type": "DT_FLOAT"}}}, {"name": "StatefulPartitionedCall/EfficientNetV1B1/stack_1_block0_MB_dw_/depthwise_bn_offset", "op": "Const", "attr": {"value": {"tensor": {"dtype": "DT_FLOAT", "tensorShape": {"dim": [{"size": "96"}]}}}, "dtype": {"type": "DT_FLOAT"}}}, {"name": "StatefulPartitionedCall/EfficientNetV1B1/stack_1_block0_MB_pw_conv/Conv2D_weights", "op": "Const", "attr": {"value": {"tensor": {"dtype": "DT_FLOAT", "tensorShape": {"dim": [{"size": "1"}, {"size": "1"}, {"size": "96"}, {"size": "24"}]}}}, "dtype": {"type": "DT_FLOAT"}}}, {"name": "StatefulPartitionedCall/EfficientNetV1B1/stack_1_block0_MB_pw_conv/Conv2D_bn_offset", "op": "Const", "attr": {"value": {"tensor": {"dtype": "DT_FLOAT", "tensorShape": {"dim": [{"size": "24"}]}}}, "dtype": {"type": "DT_FLOAT"}}}, {"name": "StatefulPartitionedCall/EfficientNetV1B1/stack_1_block1_sortcut_conv/Conv2D_weights", "op": "Const", "attr": {"value": {"tensor": {"dtype": "DT_FLOAT", "tensorShape": {"dim": [{"size": "1"}, {"size": "1"}, {"size": "24"}, {"size": "144"}]}}}, "dtype": {"type": "DT_FLOAT"}}}, {"name": "StatefulPartitionedCall/EfficientNetV1B1/stack_5_block4_MB_dw_/depthwise_weights", "op": "Const", "attr": {"value": {"tensor": {"dtype": "DT_FLOAT", "tensorShape": {"dim": [{"size": "5"}, {"size": "5"}, {"size": "1152"}, {"size": "1"}]}}}, "dtype": {"type": "DT_FLOAT"}}}, {"name": "StatefulPartitionedCall/EfficientNetV1B1/stack_1_block1_sortcut_conv/Conv2D_bn_offset", "op": "Const", "attr": {"value": {"tensor": {"dtype": "DT_FLOAT", "tensorShape": {"dim": [{"size": "144"}]}}}, "dtype": {"type": "DT_FLOAT"}}}, {"name": "StatefulPartitionedCall/EfficientNetV1B1/stack_1_block1_MB_dw_/depthwise_weights", "op": "Const", "attr": {"value": {"tensor": {"dtype": "DT_FLOAT", "tensorShape": {"dim": [{"size": "3"}, {"size": "3"}, {"size": "144"}, {"size": "1"}]}}}, "dtype": {"type": "DT_FLOAT"}}}, {"name": "StatefulPartitionedCall/EfficientNetV1B1/stack_1_block1_MB_dw_/depthwise_bn_offset", "op": "Const", "attr": {"value": {"tensor": {"dtype": "DT_FLOAT", "tensorShape": {"dim": [{"size": "144"}]}}}, "dtype": {"type": "DT_FLOAT"}}}, {"name": "StatefulPartitionedCall/EfficientNetV1B1/stack_5_block4_MB_dw_/depthwise_bn_offset", "op": "Const", "attr": {"dtype": {"type": "DT_FLOAT"}, "value": {"tensor": {"dtype": "DT_FLOAT", "tensorShape": {"dim": [{"size": "1152"}]}}}}}, {"name": "StatefulPartitionedCall/EfficientNetV1B1/stack_1_block1_MB_pw_conv/Conv2D_weights", "op": "Const", "attr": {"value": {"tensor": {"dtype": "DT_FLOAT", "tensorShape": {"dim": [{"size": "1"}, {"size": "1"}, {"size": "144"}, {"size": "24"}]}}}, "dtype": {"type": "DT_FLOAT"}}}, {"name": "StatefulPartitionedCall/EfficientNetV1B1/stack_1_block1_MB_pw_conv/Conv2D_bn_offset", "op": "Const", "attr": {"dtype": {"type": "DT_FLOAT"}, "value": {"tensor": {"dtype": "DT_FLOAT", "tensorShape": {"dim": [{"size": "24"}]}}}}}, {"name": "StatefulPartitionedCall/EfficientNetV1B1/stack_1_block2_sortcut_conv/Conv2D_weights", "op": "Const", "attr": {"value": {"tensor": {"dtype": "DT_FLOAT", "tensorShape": {"dim": [{"size": "1"}, {"size": "1"}, {"size": "24"}, {"size": "144"}]}}}, "dtype": {"type": "DT_FLOAT"}}}, {"name": "StatefulPartitionedCall/EfficientNetV1B1/stack_1_block2_sortcut_conv/Conv2D_bn_offset", "op": "Const", "attr": {"value": {"tensor": {"dtype": "DT_FLOAT", "tensorShape": {"dim": [{"size": "144"}]}}}, "dtype": {"type": "DT_FLOAT"}}}, {"name": "StatefulPartitionedCall/EfficientNetV1B1/stack_1_block2_MB_dw_/depthwise_weights", "op": "Const", "attr": {"value": {"tensor": {"dtype": "DT_FLOAT", "tensorShape": {"dim": [{"size": "3"}, {"size": "3"}, {"size": "144"}, {"size": "1"}]}}}, "dtype": {"type": "DT_FLOAT"}}}, {"name": "StatefulPartitionedCall/EfficientNetV1B1/stack_1_block2_MB_dw_/depthwise_bn_offset", "op": "Const", "attr": {"dtype": {"type": "DT_FLOAT"}, "value": {"tensor": {"dtype": "DT_FLOAT", "tensorShape": {"dim": [{"size": "144"}]}}}}}, {"name": "StatefulPartitionedCall/EfficientNetV1B1/stack_1_block2_MB_pw_conv/Conv2D_weights", "op": "Const", "attr": {"value": {"tensor": {"dtype": "DT_FLOAT", "tensorShape": {"dim": [{"size": "1"}, {"size": "1"}, {"size": "144"}, {"size": "24"}]}}}, "dtype": {"type": "DT_FLOAT"}}}, {"name": "StatefulPartitionedCall/EfficientNetV1B1/stack_1_block2_MB_pw_conv/Conv2D_bn_offset", "op": "Const", "attr": {"dtype": {"type": "DT_FLOAT"}, "value": {"tensor": {"dtype": "DT_FLOAT", "tensorShape": {"dim": [{"size": "24"}]}}}}}, {"name": "StatefulPartitionedCall/EfficientNetV1B1/stack_2_block0_sortcut_conv/Conv2D_weights", "op": "Const", "attr": {"value": {"tensor": {"dtype": "DT_FLOAT", "tensorShape": {"dim": [{"size": "1"}, {"size": "1"}, {"size": "24"}, {"size": "144"}]}}}, "dtype": {"type": "DT_FLOAT"}}}, {"name": "StatefulPartitionedCall/EfficientNetV1B1/stack_2_block0_sortcut_conv/Conv2D_bn_offset", "op": "Const", "attr": {"dtype": {"type": "DT_FLOAT"}, "value": {"tensor": {"dtype": "DT_FLOAT", "tensorShape": {"dim": [{"size": "144"}]}}}}}, {"name": "StatefulPartitionedCall/EfficientNetV1B1/stack_2_block0_MB_dw_/depthwise_weights", "op": "Const", "attr": {"value": {"tensor": {"dtype": "DT_FLOAT", "tensorShape": {"dim": [{"size": "5"}, {"size": "5"}, {"size": "144"}, {"size": "1"}]}}}, "dtype": {"type": "DT_FLOAT"}}}, {"name": "StatefulPartitionedCall/EfficientNetV1B1/stack_2_block0_MB_dw_/depthwise_bn_offset", "op": "Const", "attr": {"value": {"tensor": {"dtype": "DT_FLOAT", "tensorShape": {"dim": [{"size": "144"}]}}}, "dtype": {"type": "DT_FLOAT"}}}, {"name": "StatefulPartitionedCall/EfficientNetV1B1/stack_2_block0_MB_pw_conv/Conv2D_weights", "op": "Const", "attr": {"value": {"tensor": {"dtype": "DT_FLOAT", "tensorShape": {"dim": [{"size": "1"}, {"size": "1"}, {"size": "144"}, {"size": "40"}]}}}, "dtype": {"type": "DT_FLOAT"}}}, {"name": "StatefulPartitionedCall/EfficientNetV1B1/stack_2_block0_MB_pw_conv/Conv2D_bn_offset", "op": "Const", "attr": {"value": {"tensor": {"dtype": "DT_FLOAT", "tensorShape": {"dim": [{"size": "40"}]}}}, "dtype": {"type": "DT_FLOAT"}}}, {"name": "StatefulPartitionedCall/EfficientNetV1B1/stack_2_block1_sortcut_conv/Conv2D_weights", "op": "Const", "attr": {"dtype": {"type": "DT_FLOAT"}, "value": {"tensor": {"dtype": "DT_FLOAT", "tensorShape": {"dim": [{"size": "1"}, {"size": "1"}, {"size": "40"}, {"size": "240"}]}}}}}, {"name": "StatefulPartitionedCall/EfficientNetV1B1/stack_2_block1_sortcut_conv/Conv2D_bn_offset", "op": "Const", "attr": {"value": {"tensor": {"dtype": "DT_FLOAT", "tensorShape": {"dim": [{"size": "240"}]}}}, "dtype": {"type": "DT_FLOAT"}}}, {"name": "StatefulPartitionedCall/EfficientNetV1B1/stack_2_block1_MB_dw_/depthwise_weights", "op": "Const", "attr": {"value": {"tensor": {"dtype": "DT_FLOAT", "tensorShape": {"dim": [{"size": "5"}, {"size": "5"}, {"size": "240"}, {"size": "1"}]}}}, "dtype": {"type": "DT_FLOAT"}}}, {"name": "StatefulPartitionedCall/EfficientNetV1B1/stack_2_block1_MB_dw_/depthwise_bn_offset", "op": "Const", "attr": {"value": {"tensor": {"dtype": "DT_FLOAT", "tensorShape": {"dim": [{"size": "240"}]}}}, "dtype": {"type": "DT_FLOAT"}}}, {"name": "StatefulPartitionedCall/EfficientNetV1B1/stack_2_block1_MB_pw_conv/Conv2D_weights", "op": "Const", "attr": {"value": {"tensor": {"dtype": "DT_FLOAT", "tensorShape": {"dim": [{"size": "1"}, {"size": "1"}, {"size": "240"}, {"size": "40"}]}}}, "dtype": {"type": "DT_FLOAT"}}}, {"name": "StatefulPartitionedCall/EfficientNetV1B1/stack_5_block4_MB_pw_conv/Conv2D_weights", "op": "Const", "attr": {"dtype": {"type": "DT_FLOAT"}, "value": {"tensor": {"dtype": "DT_FLOAT", "tensorShape": {"dim": [{"size": "1"}, {"size": "1"}, {"size": "1152"}, {"size": "192"}]}}}}}, {"name": "StatefulPartitionedCall/EfficientNetV1B1/stack_2_block1_MB_pw_conv/Conv2D_bn_offset", "op": "Const", "attr": {"dtype": {"type": "DT_FLOAT"}, "value": {"tensor": {"dtype": "DT_FLOAT", "tensorShape": {"dim": [{"size": "40"}]}}}}}, {"name": "StatefulPartitionedCall/EfficientNetV1B1/stack_2_block2_sortcut_conv/Conv2D_weights", "op": "Const", "attr": {"dtype": {"type": "DT_FLOAT"}, "value": {"tensor": {"dtype": "DT_FLOAT", "tensorShape": {"dim": [{"size": "1"}, {"size": "1"}, {"size": "40"}, {"size": "240"}]}}}}}, {"name": "StatefulPartitionedCall/EfficientNetV1B1/post_conv/Conv2D_weights", "op": "Const", "attr": {"value": {"tensor": {"dtype": "DT_FLOAT", "tensorShape": {"dim": [{"size": "1"}, {"size": "1"}, {"size": "320"}, {"size": "1280"}]}}}, "dtype": {"type": "DT_FLOAT"}}}, {"name": "StatefulPartitionedCall/EfficientNetV1B1/stack_2_block2_sortcut_conv/Conv2D_bn_offset", "op": "Const", "attr": {"value": {"tensor": {"dtype": "DT_FLOAT", "tensorShape": {"dim": [{"size": "240"}]}}}, "dtype": {"type": "DT_FLOAT"}}}, {"name": "StatefulPartitionedCall/EfficientNetV1B1/stack_2_block2_MB_dw_/depthwise_weights", "op": "Const", "attr": {"value": {"tensor": {"dtype": "DT_FLOAT", "tensorShape": {"dim": [{"size": "5"}, {"size": "5"}, {"size": "240"}, {"size": "1"}]}}}, "dtype": {"type": "DT_FLOAT"}}}, {"name": "StatefulPartitionedCall/EfficientNetV1B1/stack_2_block2_MB_dw_/depthwise_bn_offset", "op": "Const", "attr": {"dtype": {"type": "DT_FLOAT"}, "value": {"tensor": {"dtype": "DT_FLOAT", "tensorShape": {"dim": [{"size": "240"}]}}}}}, {"name": "StatefulPartitionedCall/EfficientNetV1B1/stack_5_block4_MB_pw_conv/Conv2D_bn_offset", "op": "Const", "attr": {"dtype": {"type": "DT_FLOAT"}, "value": {"tensor": {"dtype": "DT_FLOAT", "tensorShape": {"dim": [{"size": "192"}]}}}}}, {"name": "StatefulPartitionedCall/EfficientNetV1B1/stack_2_block2_MB_pw_conv/Conv2D_weights", "op": "Const", "attr": {"value": {"tensor": {"dtype": "DT_FLOAT", "tensorShape": {"dim": [{"size": "1"}, {"size": "1"}, {"size": "240"}, {"size": "40"}]}}}, "dtype": {"type": "DT_FLOAT"}}}, {"name": "StatefulPartitionedCall/EfficientNetV1B1/stack_2_block2_MB_pw_conv/Conv2D_bn_offset", "op": "Const", "attr": {"dtype": {"type": "DT_FLOAT"}, "value": {"tensor": {"dtype": "DT_FLOAT", "tensorShape": {"dim": [{"size": "40"}]}}}}}, {"name": "StatefulPartitionedCall/EfficientNetV1B1/stack_3_block0_sortcut_conv/Conv2D_weights", "op": "Const", "attr": {"dtype": {"type": "DT_FLOAT"}, "value": {"tensor": {"dtype": "DT_FLOAT", "tensorShape": {"dim": [{"size": "1"}, {"size": "1"}, {"size": "40"}, {"size": "240"}]}}}}}, {"name": "StatefulPartitionedCall/EfficientNetV1B1/stack_6_block0_sortcut_conv/Conv2D_weights", "op": "Const", "attr": {"value": {"tensor": {"dtype": "DT_FLOAT", "tensorShape": {"dim": [{"size": "1"}, {"size": "1"}, {"size": "192"}, {"size": "1152"}]}}}, "dtype": {"type": "DT_FLOAT"}}}, {"name": "StatefulPartitionedCall/EfficientNetV1B1/stack_3_block0_sortcut_conv/Conv2D_bn_offset", "op": "Const", "attr": {"value": {"tensor": {"dtype": "DT_FLOAT", "tensorShape": {"dim": [{"size": "240"}]}}}, "dtype": {"type": "DT_FLOAT"}}}, {"name": "StatefulPartitionedCall/EfficientNetV1B1/stack_3_block0_MB_dw_/depthwise_weights", "op": "Const", "attr": {"dtype": {"type": "DT_FLOAT"}, "value": {"tensor": {"dtype": "DT_FLOAT", "tensorShape": {"dim": [{"size": "3"}, {"size": "3"}, {"size": "240"}, {"size": "1"}]}}}}}, {"name": "StatefulPartitionedCall/EfficientNetV1B1/stack_3_block0_MB_dw_/depthwise_bn_offset", "op": "Const", "attr": {"dtype": {"type": "DT_FLOAT"}, "value": {"tensor": {"dtype": "DT_FLOAT", "tensorShape": {"dim": [{"size": "240"}]}}}}}, {"name": "StatefulPartitionedCall/EfficientNetV1B1/stack_6_block0_sortcut_conv/Conv2D_bn_offset", "op": "Const", "attr": {"dtype": {"type": "DT_FLOAT"}, "value": {"tensor": {"dtype": "DT_FLOAT", "tensorShape": {"dim": [{"size": "1152"}]}}}}}, {"name": "StatefulPartitionedCall/EfficientNetV1B1/stack_3_block0_MB_pw_conv/Conv2D_weights", "op": "Const", "attr": {"dtype": {"type": "DT_FLOAT"}, "value": {"tensor": {"dtype": "DT_FLOAT", "tensorShape": {"dim": [{"size": "1"}, {"size": "1"}, {"size": "240"}, {"size": "80"}]}}}}}, {"name": "StatefulPartitionedCall/EfficientNetV1B1/stack_3_block0_MB_pw_conv/Conv2D_bn_offset", "op": "Const", "attr": {"value": {"tensor": {"dtype": "DT_FLOAT", "tensorShape": {"dim": [{"size": "80"}]}}}, "dtype": {"type": "DT_FLOAT"}}}, {"name": "StatefulPartitionedCall/EfficientNetV1B1/stack_3_block1_sortcut_conv/Conv2D_weights", "op": "Const", "attr": {"dtype": {"type": "DT_FLOAT"}, "value": {"tensor": {"dtype": "DT_FLOAT", "tensorShape": {"dim": [{"size": "1"}, {"size": "1"}, {"size": "80"}, {"size": "480"}]}}}}}, {"name": "StatefulPartitionedCall/EfficientNetV1B1/stack_3_block1_sortcut_conv/Conv2D_bn_offset", "op": "Const", "attr": {"dtype": {"type": "DT_FLOAT"}, "value": {"tensor": {"dtype": "DT_FLOAT", "tensorShape": {"dim": [{"size": "480"}]}}}}}, {"name": "StatefulPartitionedCall/EfficientNetV1B1/stack_3_block1_MB_dw_/depthwise_weights", "op": "Const", "attr": {"dtype": {"type": "DT_FLOAT"}, "value": {"tensor": {"dtype": "DT_FLOAT", "tensorShape": {"dim": [{"size": "3"}, {"size": "3"}, {"size": "480"}, {"size": "1"}]}}}}}, {"name": "StatefulPartitionedCall/EfficientNetV1B1/stack_3_block1_MB_dw_/depthwise_bn_offset", "op": "Const", "attr": {"dtype": {"type": "DT_FLOAT"}, "value": {"tensor": {"dtype": "DT_FLOAT", "tensorShape": {"dim": [{"size": "480"}]}}}}}, {"name": "StatefulPartitionedCall/EfficientNetV1B1/stack_6_block0_MB_dw_/depthwise_weights", "op": "Const", "attr": {"dtype": {"type": "DT_FLOAT"}, "value": {"tensor": {"dtype": "DT_FLOAT", "tensorShape": {"dim": [{"size": "3"}, {"size": "3"}, {"size": "1152"}, {"size": "1"}]}}}}}, {"name": "StatefulPartitionedCall/EfficientNetV1B1/stack_3_block1_MB_pw_conv/Conv2D_weights", "op": "Const", "attr": {"dtype": {"type": "DT_FLOAT"}, "value": {"tensor": {"dtype": "DT_FLOAT", "tensorShape": {"dim": [{"size": "1"}, {"size": "1"}, {"size": "480"}, {"size": "80"}]}}}}}, {"name": "StatefulPartitionedCall/EfficientNetV1B1/stack_3_block1_MB_pw_conv/Conv2D_bn_offset", "op": "Const", "attr": {"dtype": {"type": "DT_FLOAT"}, "value": {"tensor": {"dtype": "DT_FLOAT", "tensorShape": {"dim": [{"size": "80"}]}}}}}, {"name": "StatefulPartitionedCall/EfficientNetV1B1/stack_3_block2_sortcut_conv/Conv2D_weights", "op": "Const", "attr": {"dtype": {"type": "DT_FLOAT"}, "value": {"tensor": {"dtype": "DT_FLOAT", "tensorShape": {"dim": [{"size": "1"}, {"size": "1"}, {"size": "80"}, {"size": "480"}]}}}}}, {"name": "StatefulPartitionedCall/EfficientNetV1B1/stack_6_block0_MB_dw_/depthwise_bn_offset", "op": "Const", "attr": {"dtype": {"type": "DT_FLOAT"}, "value": {"tensor": {"dtype": "DT_FLOAT", "tensorShape": {"dim": [{"size": "1152"}]}}}}}, {"name": "StatefulPartitionedCall/EfficientNetV1B1/stack_3_block2_sortcut_conv/Conv2D_bn_offset", "op": "Const", "attr": {"dtype": {"type": "DT_FLOAT"}, "value": {"tensor": {"dtype": "DT_FLOAT", "tensorShape": {"dim": [{"size": "480"}]}}}}}, {"name": "StatefulPartitionedCall/EfficientNetV1B1/stack_3_block2_MB_dw_/depthwise_weights", "op": "Const", "attr": {"dtype": {"type": "DT_FLOAT"}, "value": {"tensor": {"dtype": "DT_FLOAT", "tensorShape": {"dim": [{"size": "3"}, {"size": "3"}, {"size": "480"}, {"size": "1"}]}}}}}, {"name": "StatefulPartitionedCall/EfficientNetV1B1/stack_3_block2_MB_dw_/depthwise_bn_offset", "op": "Const", "attr": {"value": {"tensor": {"dtype": "DT_FLOAT", "tensorShape": {"dim": [{"size": "480"}]}}}, "dtype": {"type": "DT_FLOAT"}}}, {"name": "StatefulPartitionedCall/EfficientNetV1B1/stack_3_block2_MB_pw_conv/Conv2D_weights", "op": "Const", "attr": {"value": {"tensor": {"dtype": "DT_FLOAT", "tensorShape": {"dim": [{"size": "1"}, {"size": "1"}, {"size": "480"}, {"size": "80"}]}}}, "dtype": {"type": "DT_FLOAT"}}}, {"name": "StatefulPartitionedCall/EfficientNetV1B1/stack_3_block2_MB_pw_conv/Conv2D_bn_offset", "op": "Const", "attr": {"value": {"tensor": {"dtype": "DT_FLOAT", "tensorShape": {"dim": [{"size": "80"}]}}}, "dtype": {"type": "DT_FLOAT"}}}, {"name": "StatefulPartitionedCall/EfficientNetV1B1/stack_3_block3_sortcut_conv/Conv2D_weights", "op": "Const", "attr": {"value": {"tensor": {"dtype": "DT_FLOAT", "tensorShape": {"dim": [{"size": "1"}, {"size": "1"}, {"size": "80"}, {"size": "480"}]}}}, "dtype": {"type": "DT_FLOAT"}}}, {"name": "StatefulPartitionedCall/EfficientNetV1B1/stack_3_block3_sortcut_conv/Conv2D_bn_offset", "op": "Const", "attr": {"value": {"tensor": {"dtype": "DT_FLOAT", "tensorShape": {"dim": [{"size": "480"}]}}}, "dtype": {"type": "DT_FLOAT"}}}, {"name": "StatefulPartitionedCall/EfficientNetV1B1/stack_3_block3_MB_dw_/depthwise_weights", "op": "Const", "attr": {"value": {"tensor": {"dtype": "DT_FLOAT", "tensorShape": {"dim": [{"size": "3"}, {"size": "3"}, {"size": "480"}, {"size": "1"}]}}}, "dtype": {"type": "DT_FLOAT"}}}, {"name": "StatefulPartitionedCall/EfficientNetV1B1/stack_3_block3_MB_dw_/depthwise_bn_offset", "op": "Const", "attr": {"value": {"tensor": {"dtype": "DT_FLOAT", "tensorShape": {"dim": [{"size": "480"}]}}}, "dtype": {"type": "DT_FLOAT"}}}, {"name": "StatefulPartitionedCall/EfficientNetV1B1/post_conv/Conv2D_bn_offset", "op": "Const", "attr": {"value": {"tensor": {"dtype": "DT_FLOAT", "tensorShape": {"dim": [{"size": "1280"}]}}}, "dtype": {"type": "DT_FLOAT"}}}, {"name": "StatefulPartitionedCall/EfficientNetV1B1/stack_3_block3_MB_pw_conv/Conv2D_weights", "op": "Const", "attr": {"value": {"tensor": {"dtype": "DT_FLOAT", "tensorShape": {"dim": [{"size": "1"}, {"size": "1"}, {"size": "480"}, {"size": "80"}]}}}, "dtype": {"type": "DT_FLOAT"}}}, {"name": "StatefulPartitionedCall/EfficientNetV1B1/stack_3_block3_MB_pw_conv/Conv2D_bn_offset", "op": "Const", "attr": {"value": {"tensor": {"dtype": "DT_FLOAT", "tensorShape": {"dim": [{"size": "80"}]}}}, "dtype": {"type": "DT_FLOAT"}}}, {"name": "StatefulPartitionedCall/EfficientNetV1B1/stack_4_block0_sortcut_conv/Conv2D_weights", "op": "Const", "attr": {"value": {"tensor": {"dtype": "DT_FLOAT", "tensorShape": {"dim": [{"size": "1"}, {"size": "1"}, {"size": "80"}, {"size": "480"}]}}}, "dtype": {"type": "DT_FLOAT"}}}, {"name": "StatefulPartitionedCall/EfficientNetV1B1/stack_4_block0_sortcut_conv/Conv2D_bn_offset", "op": "Const", "attr": {"value": {"tensor": {"dtype": "DT_FLOAT", "tensorShape": {"dim": [{"size": "480"}]}}}, "dtype": {"type": "DT_FLOAT"}}}, {"name": "StatefulPartitionedCall/EfficientNetV1B1/stack_4_block0_MB_dw_/depthwise_weights", "op": "Const", "attr": {"value": {"tensor": {"dtype": "DT_FLOAT", "tensorShape": {"dim": [{"size": "5"}, {"size": "5"}, {"size": "480"}, {"size": "1"}]}}}, "dtype": {"type": "DT_FLOAT"}}}, {"name": "StatefulPartitionedCall/EfficientNetV1B1/stack_4_block0_MB_dw_/depthwise_bn_offset", "op": "Const", "attr": {"dtype": {"type": "DT_FLOAT"}, "value": {"tensor": {"dtype": "DT_FLOAT", "tensorShape": {"dim": [{"size": "480"}]}}}}}, {"name": "StatefulPartitionedCall/EfficientNetV1B1/stack_4_block0_MB_pw_conv/Conv2D_weights", "op": "Const", "attr": {"value": {"tensor": {"dtype": "DT_FLOAT", "tensorShape": {"dim": [{"size": "1"}, {"size": "1"}, {"size": "480"}, {"size": "112"}]}}}, "dtype": {"type": "DT_FLOAT"}}}, {"name": "StatefulPartitionedCall/EfficientNetV1B1/stack_4_block0_MB_pw_conv/Conv2D_bn_offset", "op": "Const", "attr": {"value": {"tensor": {"dtype": "DT_FLOAT", "tensorShape": {"dim": [{"size": "112"}]}}}, "dtype": {"type": "DT_FLOAT"}}}, {"name": "StatefulPartitionedCall/EfficientNetV1B1/stack_4_block1_sortcut_conv/Conv2D_weights", "op": "Const", "attr": {"value": {"tensor": {"dtype": "DT_FLOAT", "tensorShape": {"dim": [{"size": "1"}, {"size": "1"}, {"size": "112"}, {"size": "672"}]}}}, "dtype": {"type": "DT_FLOAT"}}}, {"name": "StatefulPartitionedCall/EfficientNetV1B1/stack_4_block1_sortcut_conv/Conv2D_bn_offset", "op": "Const", "attr": {"value": {"tensor": {"dtype": "DT_FLOAT", "tensorShape": {"dim": [{"size": "672"}]}}}, "dtype": {"type": "DT_FLOAT"}}}, {"name": "StatefulPartitionedCall/EfficientNetV1B1/stack_4_block1_MB_dw_/depthwise_weights", "op": "Const", "attr": {"value": {"tensor": {"dtype": "DT_FLOAT", "tensorShape": {"dim": [{"size": "5"}, {"size": "5"}, {"size": "672"}, {"size": "1"}]}}}, "dtype": {"type": "DT_FLOAT"}}}, {"name": "StatefulPartitionedCall/EfficientNetV1B1/stack_4_block1_MB_dw_/depthwise_bn_offset", "op": "Const", "attr": {"value": {"tensor": {"dtype": "DT_FLOAT", "tensorShape": {"dim": [{"size": "672"}]}}}, "dtype": {"type": "DT_FLOAT"}}}, {"name": "StatefulPartitionedCall/EfficientNetV1B1/stack_6_block0_MB_pw_conv/Conv2D_weights", "op": "Const", "attr": {"value": {"tensor": {"dtype": "DT_FLOAT", "tensorShape": {"dim": [{"size": "1"}, {"size": "1"}, {"size": "1152"}, {"size": "320"}]}}}, "dtype": {"type": "DT_FLOAT"}}}, {"name": "StatefulPartitionedCall/EfficientNetV1B1/stack_4_block1_MB_pw_conv/Conv2D_weights", "op": "Const", "attr": {"value": {"tensor": {"dtype": "DT_FLOAT", "tensorShape": {"dim": [{"size": "1"}, {"size": "1"}, {"size": "672"}, {"size": "112"}]}}}, "dtype": {"type": "DT_FLOAT"}}}, {"name": "StatefulPartitionedCall/EfficientNetV1B1/stack_6_block0_MB_pw_conv/Conv2D_bn_offset", "op": "Const", "attr": {"value": {"tensor": {"dtype": "DT_FLOAT", "tensorShape": {"dim": [{"size": "320"}]}}}, "dtype": {"type": "DT_FLOAT"}}}, {"name": "StatefulPartitionedCall/EfficientNetV1B1/stack_4_block1_MB_pw_conv/Conv2D_bn_offset", "op": "Const", "attr": {"value": {"tensor": {"dtype": "DT_FLOAT", "tensorShape": {"dim": [{"size": "112"}]}}}, "dtype": {"type": "DT_FLOAT"}}}, {"name": "StatefulPartitionedCall/EfficientNetV1B1/stack_4_block2_sortcut_conv/Conv2D_weights", "op": "Const", "attr": {"value": {"tensor": {"dtype": "DT_FLOAT", "tensorShape": {"dim": [{"size": "1"}, {"size": "1"}, {"size": "112"}, {"size": "672"}]}}}, "dtype": {"type": "DT_FLOAT"}}}, {"name": "StatefulPartitionedCall/EfficientNetV1B1/stack_4_block2_sortcut_conv/Conv2D_bn_offset", "op": "Const", "attr": {"dtype": {"type": "DT_FLOAT"}, "value": {"tensor": {"dtype": "DT_FLOAT", "tensorShape": {"dim": [{"size": "672"}]}}}}}, {"name": "StatefulPartitionedCall/EfficientNetV1B1/stack_4_block2_MB_dw_/depthwise_weights", "op": "Const", "attr": {"value": {"tensor": {"dtype": "DT_FLOAT", "tensorShape": {"dim": [{"size": "5"}, {"size": "5"}, {"size": "672"}, {"size": "1"}]}}}, "dtype": {"type": "DT_FLOAT"}}}, {"name": "StatefulPartitionedCall/EfficientNetV1B1/stack_4_block2_MB_dw_/depthwise_bn_offset", "op": "Const", "attr": {"value": {"tensor": {"dtype": "DT_FLOAT", "tensorShape": {"dim": [{"size": "672"}]}}}, "dtype": {"type": "DT_FLOAT"}}}, {"name": "StatefulPartitionedCall/EfficientNetV1B1/stack_6_block1_sortcut_conv/Conv2D_weights", "op": "Const", "attr": {"value": {"tensor": {"dtype": "DT_FLOAT", "tensorShape": {"dim": [{"size": "1"}, {"size": "1"}, {"size": "320"}, {"size": "1920"}]}}}, "dtype": {"type": "DT_FLOAT"}}}, {"name": "StatefulPartitionedCall/EfficientNetV1B1/stack_4_block2_MB_pw_conv/Conv2D_weights", "op": "Const", "attr": {"value": {"tensor": {"dtype": "DT_FLOAT", "tensorShape": {"dim": [{"size": "1"}, {"size": "1"}, {"size": "672"}, {"size": "112"}]}}}, "dtype": {"type": "DT_FLOAT"}}}, {"name": "StatefulPartitionedCall/EfficientNetV1B1/stack_6_block1_sortcut_conv/Conv2D_bn_offset", "op": "Const", "attr": {"value": {"tensor": {"dtype": "DT_FLOAT", "tensorShape": {"dim": [{"size": "1920"}]}}}, "dtype": {"type": "DT_FLOAT"}}}, {"name": "StatefulPartitionedCall/EfficientNetV1B1/stack_4_block2_MB_pw_conv/Conv2D_bn_offset", "op": "Const", "attr": {"value": {"tensor": {"dtype": "DT_FLOAT", "tensorShape": {"dim": [{"size": "112"}]}}}, "dtype": {"type": "DT_FLOAT"}}}, {"name": "StatefulPartitionedCall/EfficientNetV1B1/stack_4_block3_sortcut_conv/Conv2D_weights", "op": "Const", "attr": {"value": {"tensor": {"dtype": "DT_FLOAT", "tensorShape": {"dim": [{"size": "1"}, {"size": "1"}, {"size": "112"}, {"size": "672"}]}}}, "dtype": {"type": "DT_FLOAT"}}}, {"name": "StatefulPartitionedCall/EfficientNetV1B1/stack_4_block3_sortcut_conv/Conv2D_bn_offset", "op": "Const", "attr": {"value": {"tensor": {"dtype": "DT_FLOAT", "tensorShape": {"dim": [{"size": "672"}]}}}, "dtype": {"type": "DT_FLOAT"}}}, {"name": "StatefulPartitionedCall/EfficientNetV1B1/stack_4_block3_MB_dw_/depthwise_weights", "op": "Const", "attr": {"value": {"tensor": {"dtype": "DT_FLOAT", "tensorShape": {"dim": [{"size": "5"}, {"size": "5"}, {"size": "672"}, {"size": "1"}]}}}, "dtype": {"type": "DT_FLOAT"}}}, {"name": "StatefulPartitionedCall/EfficientNetV1B1/stack_4_block3_MB_dw_/depthwise_bn_offset", "op": "Const", "attr": {"dtype": {"type": "DT_FLOAT"}, "value": {"tensor": {"dtype": "DT_FLOAT", "tensorShape": {"dim": [{"size": "672"}]}}}}}, {"name": "StatefulPartitionedCall/EfficientNetV1B1/stack_4_block3_MB_pw_conv/Conv2D_weights", "op": "Const", "attr": {"value": {"tensor": {"dtype": "DT_FLOAT", "tensorShape": {"dim": [{"size": "1"}, {"size": "1"}, {"size": "672"}, {"size": "112"}]}}}, "dtype": {"type": "DT_FLOAT"}}}, {"name": "StatefulPartitionedCall/EfficientNetV1B1/stack_6_block1_MB_dw_/depthwise_weights", "op": "Const", "attr": {"value": {"tensor": {"dtype": "DT_FLOAT", "tensorShape": {"dim": [{"size": "3"}, {"size": "3"}, {"size": "1920"}, {"size": "1"}]}}}, "dtype": {"type": "DT_FLOAT"}}}, {"name": "StatefulPartitionedCall/EfficientNetV1B1/stack_4_block3_MB_pw_conv/Conv2D_bn_offset", "op": "Const", "attr": {"value": {"tensor": {"dtype": "DT_FLOAT", "tensorShape": {"dim": [{"size": "112"}]}}}, "dtype": {"type": "DT_FLOAT"}}}, {"name": "StatefulPartitionedCall/EfficientNetV1B1/stack_5_block0_sortcut_conv/Conv2D_weights", "op": "Const", "attr": {"value": {"tensor": {"dtype": "DT_FLOAT", "tensorShape": {"dim": [{"size": "1"}, {"size": "1"}, {"size": "112"}, {"size": "672"}]}}}, "dtype": {"type": "DT_FLOAT"}}}, {"name": "StatefulPartitionedCall/EfficientNetV1B1/stack_5_block0_sortcut_conv/Conv2D_bn_offset", "op": "Const", "attr": {"value": {"tensor": {"dtype": "DT_FLOAT", "tensorShape": {"dim": [{"size": "672"}]}}}, "dtype": {"type": "DT_FLOAT"}}}, {"name": "StatefulPartitionedCall/EfficientNetV1B1/stack_5_block0_MB_dw_/depthwise_weights", "op": "Const", "attr": {"value": {"tensor": {"dtype": "DT_FLOAT", "tensorShape": {"dim": [{"size": "5"}, {"size": "5"}, {"size": "672"}, {"size": "1"}]}}}, "dtype": {"type": "DT_FLOAT"}}}, {"name": "StatefulPartitionedCall/EfficientNetV1B1/stack_5_block0_MB_dw_/depthwise_bn_offset", "op": "Const", "attr": {"value": {"tensor": {"dtype": "DT_FLOAT", "tensorShape": {"dim": [{"size": "672"}]}}}, "dtype": {"type": "DT_FLOAT"}}}, {"name": "StatefulPartitionedCall/EfficientNetV1B1/stack_6_block1_MB_dw_/depthwise_bn_offset", "op": "Const", "attr": {"value": {"tensor": {"dtype": "DT_FLOAT", "tensorShape": {"dim": [{"size": "1920"}]}}}, "dtype": {"type": "DT_FLOAT"}}}, {"name": "StatefulPartitionedCall/EfficientNetV1B1/stack_5_block0_MB_pw_conv/Conv2D_weights", "op": "Const", "attr": {"value": {"tensor": {"dtype": "DT_FLOAT", "tensorShape": {"dim": [{"size": "1"}, {"size": "1"}, {"size": "672"}, {"size": "192"}]}}}, "dtype": {"type": "DT_FLOAT"}}}, {"name": "StatefulPartitionedCall/EfficientNetV1B1/stack_5_block0_MB_pw_conv/Conv2D_bn_offset", "op": "Const", "attr": {"dtype": {"type": "DT_FLOAT"}, "value": {"tensor": {"dtype": "DT_FLOAT", "tensorShape": {"dim": [{"size": "192"}]}}}}}, {"name": "StatefulPartitionedCall/EfficientNetV1B1/stack_5_block1_sortcut_conv/Conv2D_weights", "op": "Const", "attr": {"value": {"tensor": {"dtype": "DT_FLOAT", "tensorShape": {"dim": [{"size": "1"}, {"size": "1"}, {"size": "192"}, {"size": "1152"}]}}}, "dtype": {"type": "DT_FLOAT"}}}, {"name": "StatefulPartitionedCall/EfficientNetV1B1/stack_5_block1_sortcut_conv/Conv2D_bn_offset", "op": "Const", "attr": {"value": {"tensor": {"dtype": "DT_FLOAT", "tensorShape": {"dim": [{"size": "1152"}]}}}, "dtype": {"type": "DT_FLOAT"}}}, {"name": "StatefulPartitionedCall/EfficientNetV1B1/stack_5_block1_MB_dw_/depthwise_weights", "op": "Const", "attr": {"value": {"tensor": {"dtype": "DT_FLOAT", "tensorShape": {"dim": [{"size": "5"}, {"size": "5"}, {"size": "1152"}, {"size": "1"}]}}}, "dtype": {"type": "DT_FLOAT"}}}, {"name": "StatefulPartitionedCall/EfficientNetV1B1/stack_5_block1_MB_dw_/depthwise_bn_offset", "op": "Const", "attr": {"dtype": {"type": "DT_FLOAT"}, "value": {"tensor": {"dtype": "DT_FLOAT", "tensorShape": {"dim": [{"size": "1152"}]}}}}}, {"name": "StatefulPartitionedCall/EfficientNetV1B1/stack_5_block1_MB_pw_conv/Conv2D_weights", "op": "Const", "attr": {"value": {"tensor": {"dtype": "DT_FLOAT", "tensorShape": {"dim": [{"size": "1"}, {"size": "1"}, {"size": "1152"}, {"size": "192"}]}}}, "dtype": {"type": "DT_FLOAT"}}}, {"name": "StatefulPartitionedCall/EfficientNetV1B1/stack_5_block1_MB_pw_conv/Conv2D_bn_offset", "op": "Const", "attr": {"value": {"tensor": {"dtype": "DT_FLOAT", "tensorShape": {"dim": [{"size": "192"}]}}}, "dtype": {"type": "DT_FLOAT"}}}, {"name": "StatefulPartitionedCall/EfficientNetV1B1/stack_5_block2_sortcut_conv/Conv2D_weights", "op": "Const", "attr": {"dtype": {"type": "DT_FLOAT"}, "value": {"tensor": {"dtype": "DT_FLOAT", "tensorShape": {"dim": [{"size": "1"}, {"size": "1"}, {"size": "192"}, {"size": "1152"}]}}}}}, {"name": "StatefulPartitionedCall/EfficientNetV1B1/stack_5_block2_sortcut_conv/Conv2D_bn_offset", "op": "Const", "attr": {"dtype": {"type": "DT_FLOAT"}, "value": {"tensor": {"dtype": "DT_FLOAT", "tensorShape": {"dim": [{"size": "1152"}]}}}}}, {"name": "StatefulPartitionedCall/EfficientNetV1B1/stack_5_block2_MB_dw_/depthwise_weights", "op": "Const", "attr": {"dtype": {"type": "DT_FLOAT"}, "value": {"tensor": {"dtype": "DT_FLOAT", "tensorShape": {"dim": [{"size": "5"}, {"size": "5"}, {"size": "1152"}, {"size": "1"}]}}}}}, {"name": "StatefulPartitionedCall/EfficientNetV1B1/stack_5_block2_MB_dw_/depthwise_bn_offset", "op": "Const", "attr": {"value": {"tensor": {"dtype": "DT_FLOAT", "tensorShape": {"dim": [{"size": "1152"}]}}}, "dtype": {"type": "DT_FLOAT"}}}, {"name": "StatefulPartitionedCall/EfficientNetV1B1/stack_5_block2_MB_pw_conv/Conv2D_weights", "op": "Const", "attr": {"value": {"tensor": {"dtype": "DT_FLOAT", "tensorShape": {"dim": [{"size": "1"}, {"size": "1"}, {"size": "1152"}, {"size": "192"}]}}}, "dtype": {"type": "DT_FLOAT"}}}, {"name": "StatefulPartitionedCall/EfficientNetV1B1/stack_5_block2_MB_pw_conv/Conv2D_bn_offset", "op": "Const", "attr": {"value": {"tensor": {"dtype": "DT_FLOAT", "tensorShape": {"dim": [{"size": "192"}]}}}, "dtype": {"type": "DT_FLOAT"}}}, {"name": "StatefulPartitionedCall/EfficientNetV1B1/stack_5_block3_sortcut_conv/Conv2D_weights", "op": "Const", "attr": {"value": {"tensor": {"dtype": "DT_FLOAT", "tensorShape": {"dim": [{"size": "1"}, {"size": "1"}, {"size": "192"}, {"size": "1152"}]}}}, "dtype": {"type": "DT_FLOAT"}}}, {"name": "StatefulPartitionedCall/EfficientNetV1B1/stack_5_block3_sortcut_conv/Conv2D_bn_offset", "op": "Const", "attr": {"value": {"tensor": {"dtype": "DT_FLOAT", "tensorShape": {"dim": [{"size": "1152"}]}}}, "dtype": {"type": "DT_FLOAT"}}}, {"name": "StatefulPartitionedCall/EfficientNetV1B1/stack_5_block3_MB_dw_/depthwise_weights", "op": "Const", "attr": {"value": {"tensor": {"dtype": "DT_FLOAT", "tensorShape": {"dim": [{"size": "5"}, {"size": "5"}, {"size": "1152"}, {"size": "1"}]}}}, "dtype": {"type": "DT_FLOAT"}}}, {"name": "StatefulPartitionedCall/EfficientNetV1B1/stack_5_block3_MB_dw_/depthwise_bn_offset", "op": "Const", "attr": {"value": {"tensor": {"dtype": "DT_FLOAT", "tensorShape": {"dim": [{"size": "1152"}]}}}, "dtype": {"type": "DT_FLOAT"}}}, {"name": "StatefulPartitionedCall/EfficientNetV1B1/stack_6_block1_MB_pw_conv/Conv2D_weights", "op": "Const", "attr": {"value": {"tensor": {"dtype": "DT_FLOAT", "tensorShape": {"dim": [{"size": "1"}, {"size": "1"}, {"size": "1920"}, {"size": "320"}]}}}, "dtype": {"type": "DT_FLOAT"}}}, {"name": "StatefulPartitionedCall/EfficientNetV1B1/stem_bn/FusedBatchNormV3", "op": "_FusedConv2D", "input": ["input_3", "StatefulPartitionedCall/EfficientNetV1B1/stem_conv/Conv2D_weights", "StatefulPartitionedCall/EfficientNetV1B1/stem_conv/Conv2D_bn_offset"], "device": "/device:CPU:0", "attr": {"fused_ops": {"list": {"s": ["Qmlhc0FkZA=="]}}, "dilations": {"list": {"i": ["1", "1", "1", "1"]}}, "num_args": {"i": "1"}, "data_format": {"s": "TkhXQw=="}, "epsilon": {"f": 0.0}, "use_cudnn_on_gpu": {"b": true}, "padding": {"s": "U0FNRQ=="}, "explicit_paddings": {"list": {}}, "T": {"type": "DT_FLOAT"}, "strides": {"list": {"i": ["1", "2", "2", "1"]}}}}, {"name": "StatefulPartitionedCall/EfficientNetV1B1/stem_swish/Sigmoid", "op": "Sigmoid", "input": ["StatefulPartitionedCall/EfficientNetV1B1/stem_bn/FusedBatchNormV3"], "attr": {"T": {"type": "DT_FLOAT"}}}, {"name": "StatefulPartitionedCall/EfficientNetV1B1/stem_swish/mul", "op": "Mul", "input": ["StatefulPartitionedCall/EfficientNetV1B1/stem_bn/FusedBatchNormV3", "StatefulPartitionedCall/EfficientNetV1B1/stem_swish/Sigmoid"], "attr": {"T": {"type": "DT_FLOAT"}}}, {"name": "StatefulPartitionedCall/EfficientNetV1B1/stack_0_block0_MB_dw_/depthwise", "op": "FusedDepthwiseConv2dNative", "input": ["StatefulPartitionedCall/EfficientNetV1B1/stem_swish/mul", "StatefulPartitionedCall/EfficientNetV1B1/stack_0_block0_MB_dw_/depthwise_weights", "StatefulPartitionedCall/EfficientNetV1B1/stack_0_block0_MB_dw_/depthwise_bn_offset"], "attr": {"T": {"type": "DT_FLOAT"}, "padding": {"s": "U0FNRQ=="}, "explicit_paddings": {"list": {}}, "strides": {"list": {"i": ["1", "1", "1", "1"]}}, "fused_ops": {"list": {"s": ["Qmlhc0FkZA=="]}}, "num_args": {"i": "1"}, "dilations": {"list": {"i": ["1", "1", "1", "1"]}}, "data_format": {"s": "TkhXQw=="}}}, {"name": "StatefulPartitionedCall/EfficientNetV1B1/stack_0_block0_MB_dw_swish/Sigmoid", "op": "Sigmoid", "input": ["StatefulPartitionedCall/EfficientNetV1B1/stack_0_block0_MB_dw_/depthwise"], "attr": {"T": {"type": "DT_FLOAT"}}}, {"name": "StatefulPartitionedCall/EfficientNetV1B1/stack_0_block0_MB_dw_swish/mul", "op": "Mul", "input": ["StatefulPartitionedCall/EfficientNetV1B1/stack_0_block0_MB_dw_/depthwise", "StatefulPartitionedCall/EfficientNetV1B1/stack_0_block0_MB_dw_swish/Sigmoid"], "attr": {"T": {"type": "DT_FLOAT"}}}, {"name": "StatefulPartitionedCall/EfficientNetV1B1/tf.math.reduce_mean_49/Mean", "op": "Mean", "input": ["StatefulPartitionedCall/EfficientNetV1B1/stack_0_block0_MB_dw_swish/mul", "StatefulPartitionedCall/EfficientNetV1B1/tf.math.reduce_mean_49/Mean/reduction_indices"], "attr": {"keep_dims": {"b": true}, "T": {"type": "DT_FLOAT"}, "Tidx": {"type": "DT_INT32"}}}, {"name": "StatefulPartitionedCall/EfficientNetV1B1/stack_0_block0_se_1_conv/BiasAdd", "op": "_FusedConv2D", "input": ["StatefulPartitionedCall/EfficientNetV1B1/tf.math.reduce_mean_49/Mean", "StatefulPartitionedCall/EfficientNetV1B1/stack_0_block0_se_1_conv/Conv2D/ReadVariableOp", "StatefulPartitionedCall/EfficientNetV1B1/stack_0_block0_se_1_conv/BiasAdd/ReadVariableOp"], "device": "/device:CPU:0", "attr": {"epsilon": {"f": 0.0}, "fused_ops": {"list": {"s": ["Qmlhc0FkZA=="]}}, "use_cudnn_on_gpu": {"b": true}, "explicit_paddings": {"list": {}}, "strides": {"list": {"i": ["1", "1", "1", "1"]}}, "num_args": {"i": "1"}, "dilations": {"list": {"i": ["1", "1", "1", "1"]}}, "T": {"type": "DT_FLOAT"}, "data_format": {"s": "TkhXQw=="}, "padding": {"s": "VkFMSUQ="}}}, {"name": "StatefulPartitionedCall/EfficientNetV1B1/activation_98/Sigmoid", "op": "Sigmoid", "input": ["StatefulPartitionedCall/EfficientNetV1B1/stack_0_block0_se_1_conv/BiasAdd"], "attr": {"T": {"type": "DT_FLOAT"}}}, {"name": "StatefulPartitionedCall/EfficientNetV1B1/activation_98/mul", "op": "Mul", "input": ["StatefulPartitionedCall/EfficientNetV1B1/stack_0_block0_se_1_conv/BiasAdd", "StatefulPartitionedCall/EfficientNetV1B1/activation_98/Sigmoid"], "attr": {"T": {"type": "DT_FLOAT"}}}, {"name": "StatefulPartitionedCall/EfficientNetV1B1/stack_0_block0_se_2_conv/BiasAdd", "op": "_FusedConv2D", "input": ["StatefulPartitionedCall/EfficientNetV1B1/activation_98/mul", "StatefulPartitionedCall/EfficientNetV1B1/stack_0_block0_se_2_conv/Conv2D/ReadVariableOp", "StatefulPartitionedCall/EfficientNetV1B1/stack_0_block0_se_2_conv/BiasAdd/ReadVariableOp"], "device": "/device:CPU:0", "attr": {"strides": {"list": {"i": ["1", "1", "1", "1"]}}, "dilations": {"list": {"i": ["1", "1", "1", "1"]}}, "padding": {"s": "VkFMSUQ="}, "num_args": {"i": "1"}, "data_format": {"s": "TkhXQw=="}, "T": {"type": "DT_FLOAT"}, "epsilon": {"f": 0.0}, "use_cudnn_on_gpu": {"b": true}, "explicit_paddings": {"list": {}}, "fused_ops": {"list": {"s": ["Qmlhc0FkZA=="]}}}}, {"name": "StatefulPartitionedCall/EfficientNetV1B1/activation_99/Sigmoid", "op": "Sigmoid", "input": ["StatefulPartitionedCall/EfficientNetV1B1/stack_0_block0_se_2_conv/BiasAdd"], "attr": {"T": {"type": "DT_FLOAT"}}}, {"name": "StatefulPartitionedCall/EfficientNetV1B1/multiply_49/mul", "op": "Mul", "input": ["StatefulPartitionedCall/EfficientNetV1B1/stack_0_block0_MB_dw_swish/mul", "StatefulPartitionedCall/EfficientNetV1B1/activation_99/Sigmoid"], "attr": {"T": {"type": "DT_FLOAT"}}}, {"name": "StatefulPartitionedCall/EfficientNetV1B1/stack_0_block0_MB_pw_bn/FusedBatchNormV3", "op": "_FusedConv2D", "input": ["StatefulPartitionedCall/EfficientNetV1B1/multiply_49/mul", "StatefulPartitionedCall/EfficientNetV1B1/stack_0_block0_MB_pw_conv/Conv2D_weights", "StatefulPartitionedCall/EfficientNetV1B1/stack_0_block0_MB_pw_conv/Conv2D_bn_offset"], "device": "/device:CPU:0", "attr": {"explicit_paddings": {"list": {}}, "fused_ops": {"list": {"s": ["Qmlhc0FkZA=="]}}, "padding": {"s": "U0FNRQ=="}, "dilations": {"list": {"i": ["1", "1", "1", "1"]}}, "data_format": {"s": "TkhXQw=="}, "epsilon": {"f": 0.0}, "num_args": {"i": "1"}, "T": {"type": "DT_FLOAT"}, "strides": {"list": {"i": ["1", "1", "1", "1"]}}, "use_cudnn_on_gpu": {"b": true}}}, {"name": "StatefulPartitionedCall/EfficientNetV1B1/stack_0_block1_MB_dw_/depthwise", "op": "FusedDepthwiseConv2dNative", "input": ["StatefulPartitionedCall/EfficientNetV1B1/stack_0_block0_MB_pw_bn/FusedBatchNormV3", "StatefulPartitionedCall/EfficientNetV1B1/stack_0_block1_MB_dw_/depthwise_weights", "StatefulPartitionedCall/EfficientNetV1B1/stack_0_block1_MB_dw_/depthwise_bn_offset"], "attr": {"explicit_paddings": {"list": {}}, "fused_ops": {"list": {"s": ["Qmlhc0FkZA=="]}}, "padding": {"s": "U0FNRQ=="}, "dilations": {"list": {"i": ["1", "1", "1", "1"]}}, "data_format": {"s": "TkhXQw=="}, "T": {"type": "DT_FLOAT"}, "num_args": {"i": "1"}, "strides": {"list": {"i": ["1", "1", "1", "1"]}}}}, {"name": "StatefulPartitionedCall/EfficientNetV1B1/stack_0_block1_MB_dw_swish/Sigmoid", "op": "Sigmoid", "input": ["StatefulPartitionedCall/EfficientNetV1B1/stack_0_block1_MB_dw_/depthwise"], "attr": {"T": {"type": "DT_FLOAT"}}}, {"name": "StatefulPartitionedCall/EfficientNetV1B1/stack_0_block1_MB_dw_swish/mul", "op": "Mul", "input": ["StatefulPartitionedCall/EfficientNetV1B1/stack_0_block1_MB_dw_/depthwise", "StatefulPartitionedCall/EfficientNetV1B1/stack_0_block1_MB_dw_swish/Sigmoid"], "attr": {"T": {"type": "DT_FLOAT"}}}, {"name": "StatefulPartitionedCall/EfficientNetV1B1/tf.math.reduce_mean_50/Mean", "op": "Mean", "input": ["StatefulPartitionedCall/EfficientNetV1B1/stack_0_block1_MB_dw_swish/mul", "StatefulPartitionedCall/EfficientNetV1B1/tf.math.reduce_mean_50/Mean/reduction_indices"], "attr": {"T": {"type": "DT_FLOAT"}, "keep_dims": {"b": true}, "Tidx": {"type": "DT_INT32"}}}, {"name": "StatefulPartitionedCall/EfficientNetV1B1/stack_0_block1_se_1_conv/BiasAdd", "op": "_FusedConv2D", "input": ["StatefulPartitionedCall/EfficientNetV1B1/tf.math.reduce_mean_50/Mean", "StatefulPartitionedCall/EfficientNetV1B1/stack_0_block1_se_1_conv/Conv2D/ReadVariableOp", "StatefulPartitionedCall/EfficientNetV1B1/stack_0_block1_se_1_conv/BiasAdd/ReadVariableOp"], "device": "/device:CPU:0", "attr": {"epsilon": {"f": 0.0}, "num_args": {"i": "1"}, "T": {"type": "DT_FLOAT"}, "strides": {"list": {"i": ["1", "1", "1", "1"]}}, "use_cudnn_on_gpu": {"b": true}, "explicit_paddings": {"list": {}}, "fused_ops": {"list": {"s": ["Qmlhc0FkZA=="]}}, "dilations": {"list": {"i": ["1", "1", "1", "1"]}}, "padding": {"s": "VkFMSUQ="}, "data_format": {"s": "TkhXQw=="}}}, {"name": "StatefulPartitionedCall/EfficientNetV1B1/activation_100/Sigmoid", "op": "Sigmoid", "input": ["StatefulPartitionedCall/EfficientNetV1B1/stack_0_block1_se_1_conv/BiasAdd"], "attr": {"T": {"type": "DT_FLOAT"}}}, {"name": "StatefulPartitionedCall/EfficientNetV1B1/activation_100/mul", "op": "Mul", "input": ["StatefulPartitionedCall/EfficientNetV1B1/stack_0_block1_se_1_conv/BiasAdd", "StatefulPartitionedCall/EfficientNetV1B1/activation_100/Sigmoid"], "attr": {"T": {"type": "DT_FLOAT"}}}, {"name": "StatefulPartitionedCall/EfficientNetV1B1/stack_0_block1_se_2_conv/BiasAdd", "op": "_FusedConv2D", "input": ["StatefulPartitionedCall/EfficientNetV1B1/activation_100/mul", "StatefulPartitionedCall/EfficientNetV1B1/stack_0_block1_se_2_conv/Conv2D/ReadVariableOp", "StatefulPartitionedCall/EfficientNetV1B1/stack_0_block1_se_2_conv/BiasAdd/ReadVariableOp"], "device": "/device:CPU:0", "attr": {"use_cudnn_on_gpu": {"b": true}, "T": {"type": "DT_FLOAT"}, "padding": {"s": "VkFMSUQ="}, "explicit_paddings": {"list": {}}, "strides": {"list": {"i": ["1", "1", "1", "1"]}}, "fused_ops": {"list": {"s": ["Qmlhc0FkZA=="]}}, "num_args": {"i": "1"}, "dilations": {"list": {"i": ["1", "1", "1", "1"]}}, "data_format": {"s": "TkhXQw=="}, "epsilon": {"f": 0.0}}}, {"name": "StatefulPartitionedCall/EfficientNetV1B1/activation_101/Sigmoid", "op": "Sigmoid", "input": ["StatefulPartitionedCall/EfficientNetV1B1/stack_0_block1_se_2_conv/BiasAdd"], "attr": {"T": {"type": "DT_FLOAT"}}}, {"name": "StatefulPartitionedCall/EfficientNetV1B1/multiply_50/mul", "op": "Mul", "input": ["StatefulPartitionedCall/EfficientNetV1B1/stack_0_block1_MB_dw_swish/mul", "StatefulPartitionedCall/EfficientNetV1B1/activation_101/Sigmoid"], "attr": {"T": {"type": "DT_FLOAT"}}}, {"name": "StatefulPartitionedCall/EfficientNetV1B1/stack_0_block1_MB_pw_bn/FusedBatchNormV3", "op": "_FusedConv2D", "input": ["StatefulPartitionedCall/EfficientNetV1B1/multiply_50/mul", "StatefulPartitionedCall/EfficientNetV1B1/stack_0_block1_MB_pw_conv/Conv2D_weights", "StatefulPartitionedCall/EfficientNetV1B1/stack_0_block1_MB_pw_conv/Conv2D_bn_offset"], "device": "/device:CPU:0", "attr": {"epsilon": {"f": 0.0}, "fused_ops": {"list": {"s": ["Qmlhc0FkZA=="]}}, "use_cudnn_on_gpu": {"b": true}, "explicit_paddings": {"list": {}}, "strides": {"list": {"i": ["1", "1", "1", "1"]}}, "num_args": {"i": "1"}, "dilations": {"list": {"i": ["1", "1", "1", "1"]}}, "T": {"type": "DT_FLOAT"}, "data_format": {"s": "TkhXQw=="}, "padding": {"s": "U0FNRQ=="}}}, {"name": "StatefulPartitionedCall/EfficientNetV1B1/add_35/add", "op": "AddV2", "input": ["StatefulPartitionedCall/EfficientNetV1B1/stack_0_block0_MB_pw_bn/FusedBatchNormV3", "StatefulPartitionedCall/EfficientNetV1B1/stack_0_block1_MB_pw_bn/FusedBatchNormV3"], "attr": {"T": {"type": "DT_FLOAT"}}}, {"name": "StatefulPartitionedCall/EfficientNetV1B1/stack_1_block0_sortcut_bn/FusedBatchNormV3", "op": "_FusedConv2D", "input": ["StatefulPartitionedCall/EfficientNetV1B1/add_35/add", "StatefulPartitionedCall/EfficientNetV1B1/stack_1_block0_sortcut_conv/Conv2D_weights", "StatefulPartitionedCall/EfficientNetV1B1/stack_1_block0_sortcut_conv/Conv2D_bn_offset"], "device": "/device:CPU:0", "attr": {"epsilon": {"f": 0.0}, "num_args": {"i": "1"}, "T": {"type": "DT_FLOAT"}, "strides": {"list": {"i": ["1", "1", "1", "1"]}}, "use_cudnn_on_gpu": {"b": true}, "explicit_paddings": {"list": {}}, "fused_ops": {"list": {"s": ["Qmlhc0FkZA=="]}}, "dilations": {"list": {"i": ["1", "1", "1", "1"]}}, "padding": {"s": "U0FNRQ=="}, "data_format": {"s": "TkhXQw=="}}}, {"name": "StatefulPartitionedCall/EfficientNetV1B1/stack_1_block0_sortcut_swish/Sigmoid", "op": "Sigmoid", "input": ["StatefulPartitionedCall/EfficientNetV1B1/stack_1_block0_sortcut_bn/FusedBatchNormV3"], "attr": {"T": {"type": "DT_FLOAT"}}}, {"name": "StatefulPartitionedCall/EfficientNetV1B1/stack_1_block0_sortcut_swish/mul", "op": "Mul", "input": ["StatefulPartitionedCall/EfficientNetV1B1/stack_1_block0_sortcut_bn/FusedBatchNormV3", "StatefulPartitionedCall/EfficientNetV1B1/stack_1_block0_sortcut_swish/Sigmoid"], "attr": {"T": {"type": "DT_FLOAT"}}}, {"name": "StatefulPartitionedCall/EfficientNetV1B1/stack_1_block0_MB_dw_/depthwise", "op": "FusedDepthwiseConv2dNative", "input": ["StatefulPartitionedCall/EfficientNetV1B1/stack_1_block0_sortcut_swish/mul", "StatefulPartitionedCall/EfficientNetV1B1/stack_1_block0_MB_dw_/depthwise_weights", "StatefulPartitionedCall/EfficientNetV1B1/stack_1_block0_MB_dw_/depthwise_bn_offset"], "attr": {"strides": {"list": {"i": ["1", "2", "2", "1"]}}, "dilations": {"list": {"i": ["1", "1", "1", "1"]}}, "num_args": {"i": "1"}, "padding": {"s": "U0FNRQ=="}, "data_format": {"s": "TkhXQw=="}, "T": {"type": "DT_FLOAT"}, "explicit_paddings": {"list": {}}, "fused_ops": {"list": {"s": ["Qmlhc0FkZA=="]}}}}, {"name": "StatefulPartitionedCall/EfficientNetV1B1/stack_1_block0_MB_dw_swish/Sigmoid", "op": "Sigmoid", "input": ["StatefulPartitionedCall/EfficientNetV1B1/stack_1_block0_MB_dw_/depthwise"], "attr": {"T": {"type": "DT_FLOAT"}}}, {"name": "StatefulPartitionedCall/EfficientNetV1B1/stack_1_block0_MB_dw_swish/mul", "op": "Mul", "input": ["StatefulPartitionedCall/EfficientNetV1B1/stack_1_block0_MB_dw_/depthwise", "StatefulPartitionedCall/EfficientNetV1B1/stack_1_block0_MB_dw_swish/Sigmoid"], "attr": {"T": {"type": "DT_FLOAT"}}}, {"name": "StatefulPartitionedCall/EfficientNetV1B1/tf.math.reduce_mean_51/Mean", "op": "Mean", "input": ["StatefulPartitionedCall/EfficientNetV1B1/stack_1_block0_MB_dw_swish/mul", "StatefulPartitionedCall/EfficientNetV1B1/tf.math.reduce_mean_51/Mean/reduction_indices"], "attr": {"keep_dims": {"b": true}, "T": {"type": "DT_FLOAT"}, "Tidx": {"type": "DT_INT32"}}}, {"name": "StatefulPartitionedCall/EfficientNetV1B1/stack_1_block0_se_1_conv/BiasAdd", "op": "_FusedConv2D", "input": ["StatefulPartitionedCall/EfficientNetV1B1/tf.math.reduce_mean_51/Mean", "StatefulPartitionedCall/EfficientNetV1B1/stack_1_block0_se_1_conv/Conv2D/ReadVariableOp", "StatefulPartitionedCall/EfficientNetV1B1/stack_1_block0_se_1_conv/BiasAdd/ReadVariableOp"], "device": "/device:CPU:0", "attr": {"strides": {"list": {"i": ["1", "1", "1", "1"]}}, "dilations": {"list": {"i": ["1", "1", "1", "1"]}}, "padding": {"s": "VkFMSUQ="}, "num_args": {"i": "1"}, "data_format": {"s": "TkhXQw=="}, "T": {"type": "DT_FLOAT"}, "epsilon": {"f": 0.0}, "use_cudnn_on_gpu": {"b": true}, "explicit_paddings": {"list": {}}, "fused_ops": {"list": {"s": ["Qmlhc0FkZA=="]}}}}, {"name": "StatefulPartitionedCall/EfficientNetV1B1/activation_102/Sigmoid", "op": "Sigmoid", "input": ["StatefulPartitionedCall/EfficientNetV1B1/stack_1_block0_se_1_conv/BiasAdd"], "attr": {"T": {"type": "DT_FLOAT"}}}, {"name": "StatefulPartitionedCall/EfficientNetV1B1/activation_102/mul", "op": "Mul", "input": ["StatefulPartitionedCall/EfficientNetV1B1/stack_1_block0_se_1_conv/BiasAdd", "StatefulPartitionedCall/EfficientNetV1B1/activation_102/Sigmoid"], "attr": {"T": {"type": "DT_FLOAT"}}}, {"name": "StatefulPartitionedCall/EfficientNetV1B1/stack_1_block0_se_2_conv/BiasAdd", "op": "_FusedConv2D", "input": ["StatefulPartitionedCall/EfficientNetV1B1/activation_102/mul", "StatefulPartitionedCall/EfficientNetV1B1/stack_1_block0_se_2_conv/Conv2D/ReadVariableOp", "StatefulPartitionedCall/EfficientNetV1B1/stack_1_block0_se_2_conv/BiasAdd/ReadVariableOp"], "device": "/device:CPU:0", "attr": {"explicit_paddings": {"list": {}}, "fused_ops": {"list": {"s": ["Qmlhc0FkZA=="]}}, "padding": {"s": "VkFMSUQ="}, "dilations": {"list": {"i": ["1", "1", "1", "1"]}}, "data_format": {"s": "TkhXQw=="}, "epsilon": {"f": 0.0}, "num_args": {"i": "1"}, "T": {"type": "DT_FLOAT"}, "strides": {"list": {"i": ["1", "1", "1", "1"]}}, "use_cudnn_on_gpu": {"b": true}}}, {"name": "StatefulPartitionedCall/EfficientNetV1B1/activation_103/Sigmoid", "op": "Sigmoid", "input": ["StatefulPartitionedCall/EfficientNetV1B1/stack_1_block0_se_2_conv/BiasAdd"], "attr": {"T": {"type": "DT_FLOAT"}}}, {"name": "StatefulPartitionedCall/EfficientNetV1B1/multiply_51/mul", "op": "Mul", "input": ["StatefulPartitionedCall/EfficientNetV1B1/stack_1_block0_MB_dw_swish/mul", "StatefulPartitionedCall/EfficientNetV1B1/activation_103/Sigmoid"], "attr": {"T": {"type": "DT_FLOAT"}}}, {"name": "StatefulPartitionedCall/EfficientNetV1B1/stack_1_block0_MB_pw_bn/FusedBatchNormV3", "op": "_FusedConv2D", "input": ["StatefulPartitionedCall/EfficientNetV1B1/multiply_51/mul", "StatefulPartitionedCall/EfficientNetV1B1/stack_1_block0_MB_pw_conv/Conv2D_weights", "StatefulPartitionedCall/EfficientNetV1B1/stack_1_block0_MB_pw_conv/Conv2D_bn_offset"], "device": "/device:CPU:0", "attr": {"explicit_paddings": {"list": {}}, "fused_ops": {"list": {"s": ["Qmlhc0FkZA=="]}}, "padding": {"s": "U0FNRQ=="}, "dilations": {"list": {"i": ["1", "1", "1", "1"]}}, "data_format": {"s": "TkhXQw=="}, "epsilon": {"f": 0.0}, "num_args": {"i": "1"}, "T": {"type": "DT_FLOAT"}, "strides": {"list": {"i": ["1", "1", "1", "1"]}}, "use_cudnn_on_gpu": {"b": true}}}, {"name": "StatefulPartitionedCall/EfficientNetV1B1/stack_1_block1_sortcut_bn/FusedBatchNormV3", "op": "_FusedConv2D", "input": ["StatefulPartitionedCall/EfficientNetV1B1/stack_1_block0_MB_pw_bn/FusedBatchNormV3", "StatefulPartitionedCall/EfficientNetV1B1/stack_1_block1_sortcut_conv/Conv2D_weights", "StatefulPartitionedCall/EfficientNetV1B1/stack_1_block1_sortcut_conv/Conv2D_bn_offset"], "device": "/device:CPU:0", "attr": {"strides": {"list": {"i": ["1", "1", "1", "1"]}}, "dilations": {"list": {"i": ["1", "1", "1", "1"]}}, "padding": {"s": "U0FNRQ=="}, "num_args": {"i": "1"}, "data_format": {"s": "TkhXQw=="}, "T": {"type": "DT_FLOAT"}, "epsilon": {"f": 0.0}, "use_cudnn_on_gpu": {"b": true}, "explicit_paddings": {"list": {}}, "fused_ops": {"list": {"s": ["Qmlhc0FkZA=="]}}}}, {"name": "StatefulPartitionedCall/EfficientNetV1B1/stack_1_block1_sortcut_swish/Sigmoid", "op": "Sigmoid", "input": ["StatefulPartitionedCall/EfficientNetV1B1/stack_1_block1_sortcut_bn/FusedBatchNormV3"], "attr": {"T": {"type": "DT_FLOAT"}}}, {"name": "StatefulPartitionedCall/EfficientNetV1B1/stack_1_block1_sortcut_swish/mul", "op": "Mul", "input": ["StatefulPartitionedCall/EfficientNetV1B1/stack_1_block1_sortcut_bn/FusedBatchNormV3", "StatefulPartitionedCall/EfficientNetV1B1/stack_1_block1_sortcut_swish/Sigmoid"], "attr": {"T": {"type": "DT_FLOAT"}}}, {"name": "StatefulPartitionedCall/EfficientNetV1B1/stack_1_block1_MB_dw_/depthwise", "op": "FusedDepthwiseConv2dNative", "input": ["StatefulPartitionedCall/EfficientNetV1B1/stack_1_block1_sortcut_swish/mul", "StatefulPartitionedCall/EfficientNetV1B1/stack_1_block1_MB_dw_/depthwise_weights", "StatefulPartitionedCall/EfficientNetV1B1/stack_1_block1_MB_dw_/depthwise_bn_offset"], "attr": {"fused_ops": {"list": {"s": ["Qmlhc0FkZA=="]}}, "explicit_paddings": {"list": {}}, "strides": {"list": {"i": ["1", "1", "1", "1"]}}, "num_args": {"i": "1"}, "dilations": {"list": {"i": ["1", "1", "1", "1"]}}, "T": {"type": "DT_FLOAT"}, "data_format": {"s": "TkhXQw=="}, "padding": {"s": "U0FNRQ=="}}}, {"name": "StatefulPartitionedCall/EfficientNetV1B1/stack_1_block1_MB_dw_swish/Sigmoid", "op": "Sigmoid", "input": ["StatefulPartitionedCall/EfficientNetV1B1/stack_1_block1_MB_dw_/depthwise"], "attr": {"T": {"type": "DT_FLOAT"}}}, {"name": "StatefulPartitionedCall/EfficientNetV1B1/stack_1_block1_MB_dw_swish/mul", "op": "Mul", "input": ["StatefulPartitionedCall/EfficientNetV1B1/stack_1_block1_MB_dw_/depthwise", "StatefulPartitionedCall/EfficientNetV1B1/stack_1_block1_MB_dw_swish/Sigmoid"], "attr": {"T": {"type": "DT_FLOAT"}}}, {"name": "StatefulPartitionedCall/EfficientNetV1B1/tf.math.reduce_mean_52/Mean", "op": "Mean", "input": ["StatefulPartitionedCall/EfficientNetV1B1/stack_1_block1_MB_dw_swish/mul", "StatefulPartitionedCall/EfficientNetV1B1/tf.math.reduce_mean_52/Mean/reduction_indices"], "attr": {"keep_dims": {"b": true}, "T": {"type": "DT_FLOAT"}, "Tidx": {"type": "DT_INT32"}}}, {"name": "StatefulPartitionedCall/EfficientNetV1B1/stack_1_block1_se_1_conv/BiasAdd", "op": "_FusedConv2D", "input": ["StatefulPartitionedCall/EfficientNetV1B1/tf.math.reduce_mean_52/Mean", "StatefulPartitionedCall/EfficientNetV1B1/stack_1_block1_se_1_conv/Conv2D/ReadVariableOp", "StatefulPartitionedCall/EfficientNetV1B1/stack_1_block1_se_1_conv/BiasAdd/ReadVariableOp"], "device": "/device:CPU:0", "attr": {"epsilon": {"f": 0.0}, "fused_ops": {"list": {"s": ["Qmlhc0FkZA=="]}}, "use_cudnn_on_gpu": {"b": true}, "explicit_paddings": {"list": {}}, "strides": {"list": {"i": ["1", "1", "1", "1"]}}, "num_args": {"i": "1"}, "dilations": {"list": {"i": ["1", "1", "1", "1"]}}, "T": {"type": "DT_FLOAT"}, "data_format": {"s": "TkhXQw=="}, "padding": {"s": "VkFMSUQ="}}}, {"name": "StatefulPartitionedCall/EfficientNetV1B1/activation_104/Sigmoid", "op": "Sigmoid", "input": ["StatefulPartitionedCall/EfficientNetV1B1/stack_1_block1_se_1_conv/BiasAdd"], "attr": {"T": {"type": "DT_FLOAT"}}}, {"name": "StatefulPartitionedCall/EfficientNetV1B1/activation_104/mul", "op": "Mul", "input": ["StatefulPartitionedCall/EfficientNetV1B1/stack_1_block1_se_1_conv/BiasAdd", "StatefulPartitionedCall/EfficientNetV1B1/activation_104/Sigmoid"], "attr": {"T": {"type": "DT_FLOAT"}}}, {"name": "StatefulPartitionedCall/EfficientNetV1B1/stack_1_block1_se_2_conv/BiasAdd", "op": "_FusedConv2D", "input": ["StatefulPartitionedCall/EfficientNetV1B1/activation_104/mul", "StatefulPartitionedCall/EfficientNetV1B1/stack_1_block1_se_2_conv/Conv2D/ReadVariableOp", "StatefulPartitionedCall/EfficientNetV1B1/stack_1_block1_se_2_conv/BiasAdd/ReadVariableOp"], "device": "/device:CPU:0", "attr": {"epsilon": {"f": 0.0}, "num_args": {"i": "1"}, "T": {"type": "DT_FLOAT"}, "strides": {"list": {"i": ["1", "1", "1", "1"]}}, "use_cudnn_on_gpu": {"b": true}, "explicit_paddings": {"list": {}}, "fused_ops": {"list": {"s": ["Qmlhc0FkZA=="]}}, "dilations": {"list": {"i": ["1", "1", "1", "1"]}}, "padding": {"s": "VkFMSUQ="}, "data_format": {"s": "TkhXQw=="}}}, {"name": "StatefulPartitionedCall/EfficientNetV1B1/activation_105/Sigmoid", "op": "Sigmoid", "input": ["StatefulPartitionedCall/EfficientNetV1B1/stack_1_block1_se_2_conv/BiasAdd"], "attr": {"T": {"type": "DT_FLOAT"}}}, {"name": "StatefulPartitionedCall/EfficientNetV1B1/multiply_52/mul", "op": "Mul", "input": ["StatefulPartitionedCall/EfficientNetV1B1/stack_1_block1_MB_dw_swish/mul", "StatefulPartitionedCall/EfficientNetV1B1/activation_105/Sigmoid"], "attr": {"T": {"type": "DT_FLOAT"}}}, {"name": "StatefulPartitionedCall/EfficientNetV1B1/stack_1_block1_MB_pw_bn/FusedBatchNormV3", "op": "_FusedConv2D", "input": ["StatefulPartitionedCall/EfficientNetV1B1/multiply_52/mul", "StatefulPartitionedCall/EfficientNetV1B1/stack_1_block1_MB_pw_conv/Conv2D_weights", "StatefulPartitionedCall/EfficientNetV1B1/stack_1_block1_MB_pw_conv/Conv2D_bn_offset"], "device": "/device:CPU:0", "attr": {"strides": {"list": {"i": ["1", "1", "1", "1"]}}, "dilations": {"list": {"i": ["1", "1", "1", "1"]}}, "padding": {"s": "U0FNRQ=="}, "num_args": {"i": "1"}, "data_format": {"s": "TkhXQw=="}, "T": {"type": "DT_FLOAT"}, "epsilon": {"f": 0.0}, "use_cudnn_on_gpu": {"b": true}, "explicit_paddings": {"list": {}}, "fused_ops": {"list": {"s": ["Qmlhc0FkZA=="]}}}}, {"name": "StatefulPartitionedCall/EfficientNetV1B1/add_36/add", "op": "AddV2", "input": ["StatefulPartitionedCall/EfficientNetV1B1/stack_1_block0_MB_pw_bn/FusedBatchNormV3", "StatefulPartitionedCall/EfficientNetV1B1/stack_1_block1_MB_pw_bn/FusedBatchNormV3"], "attr": {"T": {"type": "DT_FLOAT"}}}, {"name": "StatefulPartitionedCall/EfficientNetV1B1/stack_1_block2_sortcut_bn/FusedBatchNormV3", "op": "_FusedConv2D", "input": ["StatefulPartitionedCall/EfficientNetV1B1/add_36/add", "StatefulPartitionedCall/EfficientNetV1B1/stack_1_block2_sortcut_conv/Conv2D_weights", "StatefulPartitionedCall/EfficientNetV1B1/stack_1_block2_sortcut_conv/Conv2D_bn_offset"], "device": "/device:CPU:0", "attr": {"epsilon": {"f": 0.0}, "num_args": {"i": "1"}, "T": {"type": "DT_FLOAT"}, "strides": {"list": {"i": ["1", "1", "1", "1"]}}, "use_cudnn_on_gpu": {"b": true}, "explicit_paddings": {"list": {}}, "fused_ops": {"list": {"s": ["Qmlhc0FkZA=="]}}, "dilations": {"list": {"i": ["1", "1", "1", "1"]}}, "padding": {"s": "U0FNRQ=="}, "data_format": {"s": "TkhXQw=="}}}, {"name": "StatefulPartitionedCall/EfficientNetV1B1/stack_1_block2_sortcut_swish/Sigmoid", "op": "Sigmoid", "input": ["StatefulPartitionedCall/EfficientNetV1B1/stack_1_block2_sortcut_bn/FusedBatchNormV3"], "attr": {"T": {"type": "DT_FLOAT"}}}, {"name": "StatefulPartitionedCall/EfficientNetV1B1/stack_1_block2_sortcut_swish/mul", "op": "Mul", "input": ["StatefulPartitionedCall/EfficientNetV1B1/stack_1_block2_sortcut_bn/FusedBatchNormV3", "StatefulPartitionedCall/EfficientNetV1B1/stack_1_block2_sortcut_swish/Sigmoid"], "attr": {"T": {"type": "DT_FLOAT"}}}, {"name": "StatefulPartitionedCall/EfficientNetV1B1/stack_1_block2_MB_dw_/depthwise", "op": "FusedDepthwiseConv2dNative", "input": ["StatefulPartitionedCall/EfficientNetV1B1/stack_1_block2_sortcut_swish/mul", "StatefulPartitionedCall/EfficientNetV1B1/stack_1_block2_MB_dw_/depthwise_weights", "StatefulPartitionedCall/EfficientNetV1B1/stack_1_block2_MB_dw_/depthwise_bn_offset"], "attr": {"explicit_paddings": {"list": {}}, "fused_ops": {"list": {"s": ["Qmlhc0FkZA=="]}}, "padding": {"s": "U0FNRQ=="}, "dilations": {"list": {"i": ["1", "1", "1", "1"]}}, "data_format": {"s": "TkhXQw=="}, "T": {"type": "DT_FLOAT"}, "num_args": {"i": "1"}, "strides": {"list": {"i": ["1", "1", "1", "1"]}}}}, {"name": "StatefulPartitionedCall/EfficientNetV1B1/stack_1_block2_MB_dw_swish/Sigmoid", "op": "Sigmoid", "input": ["StatefulPartitionedCall/EfficientNetV1B1/stack_1_block2_MB_dw_/depthwise"], "attr": {"T": {"type": "DT_FLOAT"}}}, {"name": "StatefulPartitionedCall/EfficientNetV1B1/stack_1_block2_MB_dw_swish/mul", "op": "Mul", "input": ["StatefulPartitionedCall/EfficientNetV1B1/stack_1_block2_MB_dw_/depthwise", "StatefulPartitionedCall/EfficientNetV1B1/stack_1_block2_MB_dw_swish/Sigmoid"], "attr": {"T": {"type": "DT_FLOAT"}}}, {"name": "StatefulPartitionedCall/EfficientNetV1B1/tf.math.reduce_mean_53/Mean", "op": "Mean", "input": ["StatefulPartitionedCall/EfficientNetV1B1/stack_1_block2_MB_dw_swish/mul", "StatefulPartitionedCall/EfficientNetV1B1/tf.math.reduce_mean_53/Mean/reduction_indices"], "attr": {"keep_dims": {"b": true}, "T": {"type": "DT_FLOAT"}, "Tidx": {"type": "DT_INT32"}}}, {"name": "StatefulPartitionedCall/EfficientNetV1B1/stack_1_block2_se_1_conv/BiasAdd", "op": "_FusedConv2D", "input": ["StatefulPartitionedCall/EfficientNetV1B1/tf.math.reduce_mean_53/Mean", "StatefulPartitionedCall/EfficientNetV1B1/stack_1_block2_se_1_conv/Conv2D/ReadVariableOp", "StatefulPartitionedCall/EfficientNetV1B1/stack_1_block2_se_1_conv/BiasAdd/ReadVariableOp"], "device": "/device:CPU:0", "attr": {"explicit_paddings": {"list": {}}, "fused_ops": {"list": {"s": ["Qmlhc0FkZA=="]}}, "padding": {"s": "VkFMSUQ="}, "dilations": {"list": {"i": ["1", "1", "1", "1"]}}, "data_format": {"s": "TkhXQw=="}, "epsilon": {"f": 0.0}, "num_args": {"i": "1"}, "T": {"type": "DT_FLOAT"}, "strides": {"list": {"i": ["1", "1", "1", "1"]}}, "use_cudnn_on_gpu": {"b": true}}}, {"name": "StatefulPartitionedCall/EfficientNetV1B1/activation_106/Sigmoid", "op": "Sigmoid", "input": ["StatefulPartitionedCall/EfficientNetV1B1/stack_1_block2_se_1_conv/BiasAdd"], "attr": {"T": {"type": "DT_FLOAT"}}}, {"name": "StatefulPartitionedCall/EfficientNetV1B1/activation_106/mul", "op": "Mul", "input": ["StatefulPartitionedCall/EfficientNetV1B1/stack_1_block2_se_1_conv/BiasAdd", "StatefulPartitionedCall/EfficientNetV1B1/activation_106/Sigmoid"], "attr": {"T": {"type": "DT_FLOAT"}}}, {"name": "StatefulPartitionedCall/EfficientNetV1B1/stack_1_block2_se_2_conv/BiasAdd", "op": "_FusedConv2D", "input": ["StatefulPartitionedCall/EfficientNetV1B1/activation_106/mul", "StatefulPartitionedCall/EfficientNetV1B1/stack_1_block2_se_2_conv/Conv2D/ReadVariableOp", "StatefulPartitionedCall/EfficientNetV1B1/stack_1_block2_se_2_conv/BiasAdd/ReadVariableOp"], "device": "/device:CPU:0", "attr": {"explicit_paddings": {"list": {}}, "fused_ops": {"list": {"s": ["Qmlhc0FkZA=="]}}, "padding": {"s": "VkFMSUQ="}, "dilations": {"list": {"i": ["1", "1", "1", "1"]}}, "data_format": {"s": "TkhXQw=="}, "epsilon": {"f": 0.0}, "num_args": {"i": "1"}, "T": {"type": "DT_FLOAT"}, "strides": {"list": {"i": ["1", "1", "1", "1"]}}, "use_cudnn_on_gpu": {"b": true}}}, {"name": "StatefulPartitionedCall/EfficientNetV1B1/activation_107/Sigmoid", "op": "Sigmoid", "input": ["StatefulPartitionedCall/EfficientNetV1B1/stack_1_block2_se_2_conv/BiasAdd"], "attr": {"T": {"type": "DT_FLOAT"}}}, {"name": "StatefulPartitionedCall/EfficientNetV1B1/multiply_53/mul", "op": "Mul", "input": ["StatefulPartitionedCall/EfficientNetV1B1/stack_1_block2_MB_dw_swish/mul", "StatefulPartitionedCall/EfficientNetV1B1/activation_107/Sigmoid"], "attr": {"T": {"type": "DT_FLOAT"}}}, {"name": "StatefulPartitionedCall/EfficientNetV1B1/stack_1_block2_MB_pw_bn/FusedBatchNormV3", "op": "_FusedConv2D", "input": ["StatefulPartitionedCall/EfficientNetV1B1/multiply_53/mul", "StatefulPartitionedCall/EfficientNetV1B1/stack_1_block2_MB_pw_conv/Conv2D_weights", "StatefulPartitionedCall/EfficientNetV1B1/stack_1_block2_MB_pw_conv/Conv2D_bn_offset"], "device": "/device:CPU:0", "attr": {"epsilon": {"f": 0.0}, "strides": {"list": {"i": ["1", "1", "1", "1"]}}, "use_cudnn_on_gpu": {"b": true}, "explicit_paddings": {"list": {}}, "fused_ops": {"list": {"s": ["Qmlhc0FkZA=="]}}, "num_args": {"i": "1"}, "T": {"type": "DT_FLOAT"}, "padding": {"s": "U0FNRQ=="}, "dilations": {"list": {"i": ["1", "1", "1", "1"]}}, "data_format": {"s": "TkhXQw=="}}}, {"name": "StatefulPartitionedCall/EfficientNetV1B1/add_37/add", "op": "AddV2", "input": ["StatefulPartitionedCall/EfficientNetV1B1/add_36/add", "StatefulPartitionedCall/EfficientNetV1B1/stack_1_block2_MB_pw_bn/FusedBatchNormV3"], "attr": {"T": {"type": "DT_FLOAT"}}}, {"name": "StatefulPartitionedCall/EfficientNetV1B1/stack_2_block0_sortcut_bn/FusedBatchNormV3", "op": "_FusedConv2D", "input": ["StatefulPartitionedCall/EfficientNetV1B1/add_37/add", "StatefulPartitionedCall/EfficientNetV1B1/stack_2_block0_sortcut_conv/Conv2D_weights", "StatefulPartitionedCall/EfficientNetV1B1/stack_2_block0_sortcut_conv/Conv2D_bn_offset"], "device": "/device:CPU:0", "attr": {"epsilon": {"f": 0.0}, "strides": {"list": {"i": ["1", "1", "1", "1"]}}, "use_cudnn_on_gpu": {"b": true}, "explicit_paddings": {"list": {}}, "fused_ops": {"list": {"s": ["Qmlhc0FkZA=="]}}, "num_args": {"i": "1"}, "T": {"type": "DT_FLOAT"}, "padding": {"s": "U0FNRQ=="}, "dilations": {"list": {"i": ["1", "1", "1", "1"]}}, "data_format": {"s": "TkhXQw=="}}}, {"name": "StatefulPartitionedCall/EfficientNetV1B1/stack_2_block0_sortcut_swish/Sigmoid", "op": "Sigmoid", "input": ["StatefulPartitionedCall/EfficientNetV1B1/stack_2_block0_sortcut_bn/FusedBatchNormV3"], "attr": {"T": {"type": "DT_FLOAT"}}}, {"name": "StatefulPartitionedCall/EfficientNetV1B1/stack_2_block0_sortcut_swish/mul", "op": "Mul", "input": ["StatefulPartitionedCall/EfficientNetV1B1/stack_2_block0_sortcut_bn/FusedBatchNormV3", "StatefulPartitionedCall/EfficientNetV1B1/stack_2_block0_sortcut_swish/Sigmoid"], "attr": {"T": {"type": "DT_FLOAT"}}}, {"name": "StatefulPartitionedCall/EfficientNetV1B1/stack_2_block0_MB_dw_/depthwise", "op": "FusedDepthwiseConv2dNative", "input": ["StatefulPartitionedCall/EfficientNetV1B1/stack_2_block0_sortcut_swish/mul", "StatefulPartitionedCall/EfficientNetV1B1/stack_2_block0_MB_dw_/depthwise_weights", "StatefulPartitionedCall/EfficientNetV1B1/stack_2_block0_MB_dw_/depthwise_bn_offset"], "attr": {"data_format": {"s": "TkhXQw=="}, "num_args": {"i": "1"}, "fused_ops": {"list": {"s": ["Qmlhc0FkZA=="]}}, "padding": {"s": "U0FNRQ=="}, "strides": {"list": {"i": ["1", "2", "2", "1"]}}, "explicit_paddings": {"list": {}}, "dilations": {"list": {"i": ["1", "1", "1", "1"]}}, "T": {"type": "DT_FLOAT"}}}, {"name": "StatefulPartitionedCall/EfficientNetV1B1/stack_2_block0_MB_dw_swish/Sigmoid", "op": "Sigmoid", "input": ["StatefulPartitionedCall/EfficientNetV1B1/stack_2_block0_MB_dw_/depthwise"], "attr": {"T": {"type": "DT_FLOAT"}}}, {"name": "StatefulPartitionedCall/EfficientNetV1B1/stack_2_block0_MB_dw_swish/mul", "op": "Mul", "input": ["StatefulPartitionedCall/EfficientNetV1B1/stack_2_block0_MB_dw_/depthwise", "StatefulPartitionedCall/EfficientNetV1B1/stack_2_block0_MB_dw_swish/Sigmoid"], "attr": {"T": {"type": "DT_FLOAT"}}}, {"name": "StatefulPartitionedCall/EfficientNetV1B1/tf.math.reduce_mean_54/Mean", "op": "Mean", "input": ["StatefulPartitionedCall/EfficientNetV1B1/stack_2_block0_MB_dw_swish/mul", "StatefulPartitionedCall/EfficientNetV1B1/tf.math.reduce_mean_54/Mean/reduction_indices"], "attr": {"keep_dims": {"b": true}, "T": {"type": "DT_FLOAT"}, "Tidx": {"type": "DT_INT32"}}}, {"name": "StatefulPartitionedCall/EfficientNetV1B1/stack_2_block0_se_1_conv/BiasAdd", "op": "_FusedConv2D", "input": ["StatefulPartitionedCall/EfficientNetV1B1/tf.math.reduce_mean_54/Mean", "StatefulPartitionedCall/EfficientNetV1B1/stack_2_block0_se_1_conv/Conv2D/ReadVariableOp", "StatefulPartitionedCall/EfficientNetV1B1/stack_2_block0_se_1_conv/BiasAdd/ReadVariableOp"], "device": "/device:CPU:0", "attr": {"epsilon": {"f": 0.0}, "strides": {"list": {"i": ["1", "1", "1", "1"]}}, "use_cudnn_on_gpu": {"b": true}, "explicit_paddings": {"list": {}}, "fused_ops": {"list": {"s": ["Qmlhc0FkZA=="]}}, "num_args": {"i": "1"}, "T": {"type": "DT_FLOAT"}, "padding": {"s": "VkFMSUQ="}, "dilations": {"list": {"i": ["1", "1", "1", "1"]}}, "data_format": {"s": "TkhXQw=="}}}, {"name": "StatefulPartitionedCall/EfficientNetV1B1/activation_108/Sigmoid", "op": "Sigmoid", "input": ["StatefulPartitionedCall/EfficientNetV1B1/stack_2_block0_se_1_conv/BiasAdd"], "attr": {"T": {"type": "DT_FLOAT"}}}, {"name": "StatefulPartitionedCall/EfficientNetV1B1/activation_108/mul", "op": "Mul", "input": ["StatefulPartitionedCall/EfficientNetV1B1/stack_2_block0_se_1_conv/BiasAdd", "StatefulPartitionedCall/EfficientNetV1B1/activation_108/Sigmoid"], "attr": {"T": {"type": "DT_FLOAT"}}}, {"name": "StatefulPartitionedCall/EfficientNetV1B1/stack_2_block0_se_2_conv/BiasAdd", "op": "_FusedConv2D", "input": ["StatefulPartitionedCall/EfficientNetV1B1/activation_108/mul", "StatefulPartitionedCall/EfficientNetV1B1/stack_2_block0_se_2_conv/Conv2D/ReadVariableOp", "StatefulPartitionedCall/EfficientNetV1B1/stack_2_block0_se_2_conv/BiasAdd/ReadVariableOp"], "device": "/device:CPU:0", "attr": {"epsilon": {"f": 0.0}, "strides": {"list": {"i": ["1", "1", "1", "1"]}}, "use_cudnn_on_gpu": {"b": true}, "explicit_paddings": {"list": {}}, "fused_ops": {"list": {"s": ["Qmlhc0FkZA=="]}}, "num_args": {"i": "1"}, "T": {"type": "DT_FLOAT"}, "padding": {"s": "VkFMSUQ="}, "dilations": {"list": {"i": ["1", "1", "1", "1"]}}, "data_format": {"s": "TkhXQw=="}}}, {"name": "StatefulPartitionedCall/EfficientNetV1B1/activation_109/Sigmoid", "op": "Sigmoid", "input": ["StatefulPartitionedCall/EfficientNetV1B1/stack_2_block0_se_2_conv/BiasAdd"], "attr": {"T": {"type": "DT_FLOAT"}}}, {"name": "StatefulPartitionedCall/EfficientNetV1B1/multiply_54/mul", "op": "Mul", "input": ["StatefulPartitionedCall/EfficientNetV1B1/stack_2_block0_MB_dw_swish/mul", "StatefulPartitionedCall/EfficientNetV1B1/activation_109/Sigmoid"], "attr": {"T": {"type": "DT_FLOAT"}}}, {"name": "StatefulPartitionedCall/EfficientNetV1B1/stack_2_block0_MB_pw_bn/FusedBatchNormV3", "op": "_FusedConv2D", "input": ["StatefulPartitionedCall/EfficientNetV1B1/multiply_54/mul", "StatefulPartitionedCall/EfficientNetV1B1/stack_2_block0_MB_pw_conv/Conv2D_weights", "StatefulPartitionedCall/EfficientNetV1B1/stack_2_block0_MB_pw_conv/Conv2D_bn_offset"], "device": "/device:CPU:0", "attr": {"fused_ops": {"list": {"s": ["Qmlhc0FkZA=="]}}, "dilations": {"list": {"i": ["1", "1", "1", "1"]}}, "padding": {"s": "U0FNRQ=="}, "num_args": {"i": "1"}, "T": {"type": "DT_FLOAT"}, "data_format": {"s": "TkhXQw=="}, "epsilon": {"f": 0.0}, "strides": {"list": {"i": ["1", "1", "1", "1"]}}, "use_cudnn_on_gpu": {"b": true}, "explicit_paddings": {"list": {}}}}, {"name": "StatefulPartitionedCall/EfficientNetV1B1/stack_2_block1_sortcut_bn/FusedBatchNormV3", "op": "_FusedConv2D", "input": ["StatefulPartitionedCall/EfficientNetV1B1/stack_2_block0_MB_pw_bn/FusedBatchNormV3", "StatefulPartitionedCall/EfficientNetV1B1/stack_2_block1_sortcut_conv/Conv2D_weights", "StatefulPartitionedCall/EfficientNetV1B1/stack_2_block1_sortcut_conv/Conv2D_bn_offset"], "device": "/device:CPU:0", "attr": {"padding": {"s": "U0FNRQ=="}, "use_cudnn_on_gpu": {"b": true}, "explicit_paddings": {"list": {}}, "T": {"type": "DT_FLOAT"}, "dilations": {"list": {"i": ["1", "1", "1", "1"]}}, "data_format": {"s": "TkhXQw=="}, "epsilon": {"f": 0.0}, "num_args": {"i": "1"}, "fused_ops": {"list": {"s": ["Qmlhc0FkZA=="]}}, "strides": {"list": {"i": ["1", "1", "1", "1"]}}}}, {"name": "StatefulPartitionedCall/EfficientNetV1B1/stack_2_block1_sortcut_swish/Sigmoid", "op": "Sigmoid", "input": ["StatefulPartitionedCall/EfficientNetV1B1/stack_2_block1_sortcut_bn/FusedBatchNormV3"], "attr": {"T": {"type": "DT_FLOAT"}}}, {"name": "StatefulPartitionedCall/EfficientNetV1B1/stack_2_block1_sortcut_swish/mul", "op": "Mul", "input": ["StatefulPartitionedCall/EfficientNetV1B1/stack_2_block1_sortcut_bn/FusedBatchNormV3", "StatefulPartitionedCall/EfficientNetV1B1/stack_2_block1_sortcut_swish/Sigmoid"], "attr": {"T": {"type": "DT_FLOAT"}}}, {"name": "StatefulPartitionedCall/EfficientNetV1B1/stack_2_block1_MB_dw_/depthwise", "op": "FusedDepthwiseConv2dNative", "input": ["StatefulPartitionedCall/EfficientNetV1B1/stack_2_block1_sortcut_swish/mul", "StatefulPartitionedCall/EfficientNetV1B1/stack_2_block1_MB_dw_/depthwise_weights", "StatefulPartitionedCall/EfficientNetV1B1/stack_2_block1_MB_dw_/depthwise_bn_offset"], "attr": {"padding": {"s": "U0FNRQ=="}, "explicit_paddings": {"list": {}}, "T": {"type": "DT_FLOAT"}, "dilations": {"list": {"i": ["1", "1", "1", "1"]}}, "data_format": {"s": "TkhXQw=="}, "num_args": {"i": "1"}, "fused_ops": {"list": {"s": ["Qmlhc0FkZA=="]}}, "strides": {"list": {"i": ["1", "1", "1", "1"]}}}}, {"name": "StatefulPartitionedCall/EfficientNetV1B1/stack_2_block1_MB_dw_swish/Sigmoid", "op": "Sigmoid", "input": ["StatefulPartitionedCall/EfficientNetV1B1/stack_2_block1_MB_dw_/depthwise"], "attr": {"T": {"type": "DT_FLOAT"}}}, {"name": "StatefulPartitionedCall/EfficientNetV1B1/stack_2_block1_MB_dw_swish/mul", "op": "Mul", "input": ["StatefulPartitionedCall/EfficientNetV1B1/stack_2_block1_MB_dw_/depthwise", "StatefulPartitionedCall/EfficientNetV1B1/stack_2_block1_MB_dw_swish/Sigmoid"], "attr": {"T": {"type": "DT_FLOAT"}}}, {"name": "StatefulPartitionedCall/EfficientNetV1B1/tf.math.reduce_mean_55/Mean", "op": "Mean", "input": ["StatefulPartitionedCall/EfficientNetV1B1/stack_2_block1_MB_dw_swish/mul", "StatefulPartitionedCall/EfficientNetV1B1/tf.math.reduce_mean_55/Mean/reduction_indices"], "attr": {"Tidx": {"type": "DT_INT32"}, "T": {"type": "DT_FLOAT"}, "keep_dims": {"b": true}}}, {"name": "StatefulPartitionedCall/EfficientNetV1B1/stack_2_block1_se_1_conv/BiasAdd", "op": "_FusedConv2D", "input": ["StatefulPartitionedCall/EfficientNetV1B1/tf.math.reduce_mean_55/Mean", "StatefulPartitionedCall/EfficientNetV1B1/stack_2_block1_se_1_conv/Conv2D/ReadVariableOp", "StatefulPartitionedCall/EfficientNetV1B1/stack_2_block1_se_1_conv/BiasAdd/ReadVariableOp"], "device": "/device:CPU:0", "attr": {"padding": {"s": "VkFMSUQ="}, "use_cudnn_on_gpu": {"b": true}, "explicit_paddings": {"list": {}}, "T": {"type": "DT_FLOAT"}, "dilations": {"list": {"i": ["1", "1", "1", "1"]}}, "data_format": {"s": "TkhXQw=="}, "epsilon": {"f": 0.0}, "num_args": {"i": "1"}, "fused_ops": {"list": {"s": ["Qmlhc0FkZA=="]}}, "strides": {"list": {"i": ["1", "1", "1", "1"]}}}}, {"name": "StatefulPartitionedCall/EfficientNetV1B1/activation_110/Sigmoid", "op": "Sigmoid", "input": ["StatefulPartitionedCall/EfficientNetV1B1/stack_2_block1_se_1_conv/BiasAdd"], "attr": {"T": {"type": "DT_FLOAT"}}}, {"name": "StatefulPartitionedCall/EfficientNetV1B1/activation_110/mul", "op": "Mul", "input": ["StatefulPartitionedCall/EfficientNetV1B1/stack_2_block1_se_1_conv/BiasAdd", "StatefulPartitionedCall/EfficientNetV1B1/activation_110/Sigmoid"], "attr": {"T": {"type": "DT_FLOAT"}}}, {"name": "StatefulPartitionedCall/EfficientNetV1B1/stack_2_block1_se_2_conv/BiasAdd", "op": "_FusedConv2D", "input": ["StatefulPartitionedCall/EfficientNetV1B1/activation_110/mul", "StatefulPartitionedCall/EfficientNetV1B1/stack_2_block1_se_2_conv/Conv2D/ReadVariableOp", "StatefulPartitionedCall/EfficientNetV1B1/stack_2_block1_se_2_conv/BiasAdd/ReadVariableOp"], "device": "/device:CPU:0", "attr": {"explicit_paddings": {"list": {}}, "fused_ops": {"list": {"s": ["Qmlhc0FkZA=="]}}, "padding": {"s": "VkFMSUQ="}, "T": {"type": "DT_FLOAT"}, "dilations": {"list": {"i": ["1", "1", "1", "1"]}}, "num_args": {"i": "1"}, "data_format": {"s": "TkhXQw=="}, "epsilon": {"f": 0.0}, "strides": {"list": {"i": ["1", "1", "1", "1"]}}, "use_cudnn_on_gpu": {"b": true}}}, {"name": "StatefulPartitionedCall/EfficientNetV1B1/activation_111/Sigmoid", "op": "Sigmoid", "input": ["StatefulPartitionedCall/EfficientNetV1B1/stack_2_block1_se_2_conv/BiasAdd"], "attr": {"T": {"type": "DT_FLOAT"}}}, {"name": "StatefulPartitionedCall/EfficientNetV1B1/multiply_55/mul", "op": "Mul", "input": ["StatefulPartitionedCall/EfficientNetV1B1/stack_2_block1_MB_dw_swish/mul", "StatefulPartitionedCall/EfficientNetV1B1/activation_111/Sigmoid"], "attr": {"T": {"type": "DT_FLOAT"}}}, {"name": "StatefulPartitionedCall/EfficientNetV1B1/stack_2_block1_MB_pw_bn/FusedBatchNormV3", "op": "_FusedConv2D", "input": ["StatefulPartitionedCall/EfficientNetV1B1/multiply_55/mul", "StatefulPartitionedCall/EfficientNetV1B1/stack_2_block1_MB_pw_conv/Conv2D_weights", "StatefulPartitionedCall/EfficientNetV1B1/stack_2_block1_MB_pw_conv/Conv2D_bn_offset"], "device": "/device:CPU:0", "attr": {"padding": {"s": "U0FNRQ=="}, "use_cudnn_on_gpu": {"b": true}, "explicit_paddings": {"list": {}}, "T": {"type": "DT_FLOAT"}, "dilations": {"list": {"i": ["1", "1", "1", "1"]}}, "data_format": {"s": "TkhXQw=="}, "epsilon": {"f": 0.0}, "num_args": {"i": "1"}, "fused_ops": {"list": {"s": ["Qmlhc0FkZA=="]}}, "strides": {"list": {"i": ["1", "1", "1", "1"]}}}}, {"name": "StatefulPartitionedCall/EfficientNetV1B1/add_38/add", "op": "AddV2", "input": ["StatefulPartitionedCall/EfficientNetV1B1/stack_2_block0_MB_pw_bn/FusedBatchNormV3", "StatefulPartitionedCall/EfficientNetV1B1/stack_2_block1_MB_pw_bn/FusedBatchNormV3"], "attr": {"T": {"type": "DT_FLOAT"}}}, {"name": "StatefulPartitionedCall/EfficientNetV1B1/stack_2_block2_sortcut_bn/FusedBatchNormV3", "op": "_FusedConv2D", "input": ["StatefulPartitionedCall/EfficientNetV1B1/add_38/add", "StatefulPartitionedCall/EfficientNetV1B1/stack_2_block2_sortcut_conv/Conv2D_weights", "StatefulPartitionedCall/EfficientNetV1B1/stack_2_block2_sortcut_conv/Conv2D_bn_offset"], "device": "/device:CPU:0", "attr": {"epsilon": {"f": 0.0}, "strides": {"list": {"i": ["1", "1", "1", "1"]}}, "use_cudnn_on_gpu": {"b": true}, "explicit_paddings": {"list": {}}, "fused_ops": {"list": {"s": ["Qmlhc0FkZA=="]}}, "num_args": {"i": "1"}, "T": {"type": "DT_FLOAT"}, "padding": {"s": "U0FNRQ=="}, "dilations": {"list": {"i": ["1", "1", "1", "1"]}}, "data_format": {"s": "TkhXQw=="}}}, {"name": "StatefulPartitionedCall/EfficientNetV1B1/stack_2_block2_sortcut_swish/Sigmoid", "op": "Sigmoid", "input": ["StatefulPartitionedCall/EfficientNetV1B1/stack_2_block2_sortcut_bn/FusedBatchNormV3"], "attr": {"T": {"type": "DT_FLOAT"}}}, {"name": "StatefulPartitionedCall/EfficientNetV1B1/stack_2_block2_sortcut_swish/mul", "op": "Mul", "input": ["StatefulPartitionedCall/EfficientNetV1B1/stack_2_block2_sortcut_bn/FusedBatchNormV3", "StatefulPartitionedCall/EfficientNetV1B1/stack_2_block2_sortcut_swish/Sigmoid"], "attr": {"T": {"type": "DT_FLOAT"}}}, {"name": "StatefulPartitionedCall/EfficientNetV1B1/stack_2_block2_MB_dw_/depthwise", "op": "FusedDepthwiseConv2dNative", "input": ["StatefulPartitionedCall/EfficientNetV1B1/stack_2_block2_sortcut_swish/mul", "StatefulPartitionedCall/EfficientNetV1B1/stack_2_block2_MB_dw_/depthwise_weights", "StatefulPartitionedCall/EfficientNetV1B1/stack_2_block2_MB_dw_/depthwise_bn_offset"], "attr": {"padding": {"s": "U0FNRQ=="}, "explicit_paddings": {"list": {}}, "T": {"type": "DT_FLOAT"}, "dilations": {"list": {"i": ["1", "1", "1", "1"]}}, "data_format": {"s": "TkhXQw=="}, "num_args": {"i": "1"}, "fused_ops": {"list": {"s": ["Qmlhc0FkZA=="]}}, "strides": {"list": {"i": ["1", "1", "1", "1"]}}}}, {"name": "StatefulPartitionedCall/EfficientNetV1B1/stack_2_block2_MB_dw_swish/Sigmoid", "op": "Sigmoid", "input": ["StatefulPartitionedCall/EfficientNetV1B1/stack_2_block2_MB_dw_/depthwise"], "attr": {"T": {"type": "DT_FLOAT"}}}, {"name": "StatefulPartitionedCall/EfficientNetV1B1/stack_2_block2_MB_dw_swish/mul", "op": "Mul", "input": ["StatefulPartitionedCall/EfficientNetV1B1/stack_2_block2_MB_dw_/depthwise", "StatefulPartitionedCall/EfficientNetV1B1/stack_2_block2_MB_dw_swish/Sigmoid"], "attr": {"T": {"type": "DT_FLOAT"}}}, {"name": "StatefulPartitionedCall/EfficientNetV1B1/tf.math.reduce_mean_56/Mean", "op": "Mean", "input": ["StatefulPartitionedCall/EfficientNetV1B1/stack_2_block2_MB_dw_swish/mul", "StatefulPartitionedCall/EfficientNetV1B1/tf.math.reduce_mean_56/Mean/reduction_indices"], "attr": {"keep_dims": {"b": true}, "T": {"type": "DT_FLOAT"}, "Tidx": {"type": "DT_INT32"}}}, {"name": "StatefulPartitionedCall/EfficientNetV1B1/stack_2_block2_se_1_conv/BiasAdd", "op": "_FusedConv2D", "input": ["StatefulPartitionedCall/EfficientNetV1B1/tf.math.reduce_mean_56/Mean", "StatefulPartitionedCall/EfficientNetV1B1/stack_2_block2_se_1_conv/Conv2D/ReadVariableOp", "StatefulPartitionedCall/EfficientNetV1B1/stack_2_block2_se_1_conv/BiasAdd/ReadVariableOp"], "device": "/device:CPU:0", "attr": {"data_format": {"s": "TkhXQw=="}, "epsilon": {"f": 0.0}, "num_args": {"i": "1"}, "fused_ops": {"list": {"s": ["Qmlhc0FkZA=="]}}, "padding": {"s": "VkFMSUQ="}, "strides": {"list": {"i": ["1", "1", "1", "1"]}}, "use_cudnn_on_gpu": {"b": true}, "explicit_paddings": {"list": {}}, "dilations": {"list": {"i": ["1", "1", "1", "1"]}}, "T": {"type": "DT_FLOAT"}}}, {"name": "StatefulPartitionedCall/EfficientNetV1B1/activation_112/Sigmoid", "op": "Sigmoid", "input": ["StatefulPartitionedCall/EfficientNetV1B1/stack_2_block2_se_1_conv/BiasAdd"], "attr": {"T": {"type": "DT_FLOAT"}}}, {"name": "StatefulPartitionedCall/EfficientNetV1B1/activation_112/mul", "op": "Mul", "input": ["StatefulPartitionedCall/EfficientNetV1B1/stack_2_block2_se_1_conv/BiasAdd", "StatefulPartitionedCall/EfficientNetV1B1/activation_112/Sigmoid"], "attr": {"T": {"type": "DT_FLOAT"}}}, {"name": "StatefulPartitionedCall/EfficientNetV1B1/stack_2_block2_se_2_conv/BiasAdd", "op": "_FusedConv2D", "input": ["StatefulPartitionedCall/EfficientNetV1B1/activation_112/mul", "StatefulPartitionedCall/EfficientNetV1B1/stack_2_block2_se_2_conv/Conv2D/ReadVariableOp", "StatefulPartitionedCall/EfficientNetV1B1/stack_2_block2_se_2_conv/BiasAdd/ReadVariableOp"], "device": "/device:CPU:0", "attr": {"data_format": {"s": "TkhXQw=="}, "epsilon": {"f": 0.0}, "num_args": {"i": "1"}, "fused_ops": {"list": {"s": ["Qmlhc0FkZA=="]}}, "padding": {"s": "VkFMSUQ="}, "strides": {"list": {"i": ["1", "1", "1", "1"]}}, "use_cudnn_on_gpu": {"b": true}, "explicit_paddings": {"list": {}}, "dilations": {"list": {"i": ["1", "1", "1", "1"]}}, "T": {"type": "DT_FLOAT"}}}, {"name": "StatefulPartitionedCall/EfficientNetV1B1/activation_113/Sigmoid", "op": "Sigmoid", "input": ["StatefulPartitionedCall/EfficientNetV1B1/stack_2_block2_se_2_conv/BiasAdd"], "attr": {"T": {"type": "DT_FLOAT"}}}, {"name": "StatefulPartitionedCall/EfficientNetV1B1/multiply_56/mul", "op": "Mul", "input": ["StatefulPartitionedCall/EfficientNetV1B1/stack_2_block2_MB_dw_swish/mul", "StatefulPartitionedCall/EfficientNetV1B1/activation_113/Sigmoid"], "attr": {"T": {"type": "DT_FLOAT"}}}, {"name": "StatefulPartitionedCall/EfficientNetV1B1/stack_2_block2_MB_pw_bn/FusedBatchNormV3", "op": "_FusedConv2D", "input": ["StatefulPartitionedCall/EfficientNetV1B1/multiply_56/mul", "StatefulPartitionedCall/EfficientNetV1B1/stack_2_block2_MB_pw_conv/Conv2D_weights", "StatefulPartitionedCall/EfficientNetV1B1/stack_2_block2_MB_pw_conv/Conv2D_bn_offset"], "device": "/device:CPU:0", "attr": {"fused_ops": {"list": {"s": ["Qmlhc0FkZA=="]}}, "dilations": {"list": {"i": ["1", "1", "1", "1"]}}, "padding": {"s": "U0FNRQ=="}, "num_args": {"i": "1"}, "T": {"type": "DT_FLOAT"}, "data_format": {"s": "TkhXQw=="}, "epsilon": {"f": 0.0}, "strides": {"list": {"i": ["1", "1", "1", "1"]}}, "use_cudnn_on_gpu": {"b": true}, "explicit_paddings": {"list": {}}}}, {"name": "StatefulPartitionedCall/EfficientNetV1B1/add_39/add", "op": "AddV2", "input": ["StatefulPartitionedCall/EfficientNetV1B1/add_38/add", "StatefulPartitionedCall/EfficientNetV1B1/stack_2_block2_MB_pw_bn/FusedBatchNormV3"], "attr": {"T": {"type": "DT_FLOAT"}}}, {"name": "StatefulPartitionedCall/EfficientNetV1B1/stack_3_block0_sortcut_bn/FusedBatchNormV3", "op": "_FusedConv2D", "input": ["StatefulPartitionedCall/EfficientNetV1B1/add_39/add", "StatefulPartitionedCall/EfficientNetV1B1/stack_3_block0_sortcut_conv/Conv2D_weights", "StatefulPartitionedCall/EfficientNetV1B1/stack_3_block0_sortcut_conv/Conv2D_bn_offset"], "device": "/device:CPU:0", "attr": {"fused_ops": {"list": {"s": ["Qmlhc0FkZA=="]}}, "dilations": {"list": {"i": ["1", "1", "1", "1"]}}, "padding": {"s": "U0FNRQ=="}, "num_args": {"i": "1"}, "T": {"type": "DT_FLOAT"}, "data_format": {"s": "TkhXQw=="}, "epsilon": {"f": 0.0}, "strides": {"list": {"i": ["1", "1", "1", "1"]}}, "use_cudnn_on_gpu": {"b": true}, "explicit_paddings": {"list": {}}}}, {"name": "StatefulPartitionedCall/EfficientNetV1B1/stack_3_block0_sortcut_swish/Sigmoid", "op": "Sigmoid", "input": ["StatefulPartitionedCall/EfficientNetV1B1/stack_3_block0_sortcut_bn/FusedBatchNormV3"], "attr": {"T": {"type": "DT_FLOAT"}}}, {"name": "StatefulPartitionedCall/EfficientNetV1B1/stack_3_block0_sortcut_swish/mul", "op": "Mul", "input": ["StatefulPartitionedCall/EfficientNetV1B1/stack_3_block0_sortcut_bn/FusedBatchNormV3", "StatefulPartitionedCall/EfficientNetV1B1/stack_3_block0_sortcut_swish/Sigmoid"], "attr": {"T": {"type": "DT_FLOAT"}}}, {"name": "StatefulPartitionedCall/EfficientNetV1B1/stack_3_block0_MB_dw_/depthwise", "op": "FusedDepthwiseConv2dNative", "input": ["StatefulPartitionedCall/EfficientNetV1B1/stack_3_block0_sortcut_swish/mul", "StatefulPartitionedCall/EfficientNetV1B1/stack_3_block0_MB_dw_/depthwise_weights", "StatefulPartitionedCall/EfficientNetV1B1/stack_3_block0_MB_dw_/depthwise_bn_offset"], "attr": {"fused_ops": {"list": {"s": ["Qmlhc0FkZA=="]}}, "dilations": {"list": {"i": ["1", "1", "1", "1"]}}, "padding": {"s": "U0FNRQ=="}, "num_args": {"i": "1"}, "T": {"type": "DT_FLOAT"}, "data_format": {"s": "TkhXQw=="}, "strides": {"list": {"i": ["1", "2", "2", "1"]}}, "explicit_paddings": {"list": {}}}}, {"name": "StatefulPartitionedCall/EfficientNetV1B1/stack_3_block0_MB_dw_swish/Sigmoid", "op": "Sigmoid", "input": ["StatefulPartitionedCall/EfficientNetV1B1/stack_3_block0_MB_dw_/depthwise"], "attr": {"T": {"type": "DT_FLOAT"}}}, {"name": "StatefulPartitionedCall/EfficientNetV1B1/stack_3_block0_MB_dw_swish/mul", "op": "Mul", "input": ["StatefulPartitionedCall/EfficientNetV1B1/stack_3_block0_MB_dw_/depthwise", "StatefulPartitionedCall/EfficientNetV1B1/stack_3_block0_MB_dw_swish/Sigmoid"], "attr": {"T": {"type": "DT_FLOAT"}}}, {"name": "StatefulPartitionedCall/EfficientNetV1B1/tf.math.reduce_mean_57/Mean", "op": "Mean", "input": ["StatefulPartitionedCall/EfficientNetV1B1/stack_3_block0_MB_dw_swish/mul", "StatefulPartitionedCall/EfficientNetV1B1/tf.math.reduce_mean_57/Mean/reduction_indices"], "attr": {"Tidx": {"type": "DT_INT32"}, "keep_dims": {"b": true}, "T": {"type": "DT_FLOAT"}}}, {"name": "StatefulPartitionedCall/EfficientNetV1B1/stack_3_block0_se_1_conv/BiasAdd", "op": "_FusedConv2D", "input": ["StatefulPartitionedCall/EfficientNetV1B1/tf.math.reduce_mean_57/Mean", "StatefulPartitionedCall/EfficientNetV1B1/stack_3_block0_se_1_conv/Conv2D/ReadVariableOp", "StatefulPartitionedCall/EfficientNetV1B1/stack_3_block0_se_1_conv/BiasAdd/ReadVariableOp"], "device": "/device:CPU:0", "attr": {"epsilon": {"f": 0.0}, "strides": {"list": {"i": ["1", "1", "1", "1"]}}, "use_cudnn_on_gpu": {"b": true}, "explicit_paddings": {"list": {}}, "fused_ops": {"list": {"s": ["Qmlhc0FkZA=="]}}, "num_args": {"i": "1"}, "T": {"type": "DT_FLOAT"}, "padding": {"s": "VkFMSUQ="}, "dilations": {"list": {"i": ["1", "1", "1", "1"]}}, "data_format": {"s": "TkhXQw=="}}}, {"name": "StatefulPartitionedCall/EfficientNetV1B1/activation_114/Sigmoid", "op": "Sigmoid", "input": ["StatefulPartitionedCall/EfficientNetV1B1/stack_3_block0_se_1_conv/BiasAdd"], "attr": {"T": {"type": "DT_FLOAT"}}}, {"name": "StatefulPartitionedCall/EfficientNetV1B1/activation_114/mul", "op": "Mul", "input": ["StatefulPartitionedCall/EfficientNetV1B1/stack_3_block0_se_1_conv/BiasAdd", "StatefulPartitionedCall/EfficientNetV1B1/activation_114/Sigmoid"], "attr": {"T": {"type": "DT_FLOAT"}}}, {"name": "StatefulPartitionedCall/EfficientNetV1B1/stack_3_block0_se_2_conv/BiasAdd", "op": "_FusedConv2D", "input": ["StatefulPartitionedCall/EfficientNetV1B1/activation_114/mul", "StatefulPartitionedCall/EfficientNetV1B1/stack_3_block0_se_2_conv/Conv2D/ReadVariableOp", "StatefulPartitionedCall/EfficientNetV1B1/stack_3_block0_se_2_conv/BiasAdd/ReadVariableOp"], "device": "/device:CPU:0", "attr": {"fused_ops": {"list": {"s": ["Qmlhc0FkZA=="]}}, "dilations": {"list": {"i": ["1", "1", "1", "1"]}}, "padding": {"s": "VkFMSUQ="}, "num_args": {"i": "1"}, "T": {"type": "DT_FLOAT"}, "data_format": {"s": "TkhXQw=="}, "epsilon": {"f": 0.0}, "strides": {"list": {"i": ["1", "1", "1", "1"]}}, "use_cudnn_on_gpu": {"b": true}, "explicit_paddings": {"list": {}}}}, {"name": "StatefulPartitionedCall/EfficientNetV1B1/activation_115/Sigmoid", "op": "Sigmoid", "input": ["StatefulPartitionedCall/EfficientNetV1B1/stack_3_block0_se_2_conv/BiasAdd"], "attr": {"T": {"type": "DT_FLOAT"}}}, {"name": "StatefulPartitionedCall/EfficientNetV1B1/multiply_57/mul", "op": "Mul", "input": ["StatefulPartitionedCall/EfficientNetV1B1/stack_3_block0_MB_dw_swish/mul", "StatefulPartitionedCall/EfficientNetV1B1/activation_115/Sigmoid"], "attr": {"T": {"type": "DT_FLOAT"}}}, {"name": "StatefulPartitionedCall/EfficientNetV1B1/stack_3_block0_MB_pw_bn/FusedBatchNormV3", "op": "_FusedConv2D", "input": ["StatefulPartitionedCall/EfficientNetV1B1/multiply_57/mul", "StatefulPartitionedCall/EfficientNetV1B1/stack_3_block0_MB_pw_conv/Conv2D_weights", "StatefulPartitionedCall/EfficientNetV1B1/stack_3_block0_MB_pw_conv/Conv2D_bn_offset"], "device": "/device:CPU:0", "attr": {"fused_ops": {"list": {"s": ["Qmlhc0FkZA=="]}}, "dilations": {"list": {"i": ["1", "1", "1", "1"]}}, "padding": {"s": "U0FNRQ=="}, "num_args": {"i": "1"}, "T": {"type": "DT_FLOAT"}, "data_format": {"s": "TkhXQw=="}, "epsilon": {"f": 0.0}, "strides": {"list": {"i": ["1", "1", "1", "1"]}}, "use_cudnn_on_gpu": {"b": true}, "explicit_paddings": {"list": {}}}}, {"name": "StatefulPartitionedCall/EfficientNetV1B1/stack_3_block1_sortcut_bn/FusedBatchNormV3", "op": "_FusedConv2D", "input": ["StatefulPartitionedCall/EfficientNetV1B1/stack_3_block0_MB_pw_bn/FusedBatchNormV3", "StatefulPartitionedCall/EfficientNetV1B1/stack_3_block1_sortcut_conv/Conv2D_weights", "StatefulPartitionedCall/EfficientNetV1B1/stack_3_block1_sortcut_conv/Conv2D_bn_offset"], "device": "/device:CPU:0", "attr": {"fused_ops": {"list": {"s": ["Qmlhc0FkZA=="]}}, "dilations": {"list": {"i": ["1", "1", "1", "1"]}}, "padding": {"s": "U0FNRQ=="}, "num_args": {"i": "1"}, "T": {"type": "DT_FLOAT"}, "data_format": {"s": "TkhXQw=="}, "epsilon": {"f": 0.0}, "strides": {"list": {"i": ["1", "1", "1", "1"]}}, "use_cudnn_on_gpu": {"b": true}, "explicit_paddings": {"list": {}}}}, {"name": "StatefulPartitionedCall/EfficientNetV1B1/stack_3_block1_sortcut_swish/Sigmoid", "op": "Sigmoid", "input": ["StatefulPartitionedCall/EfficientNetV1B1/stack_3_block1_sortcut_bn/FusedBatchNormV3"], "attr": {"T": {"type": "DT_FLOAT"}}}, {"name": "StatefulPartitionedCall/EfficientNetV1B1/stack_3_block1_sortcut_swish/mul", "op": "Mul", "input": ["StatefulPartitionedCall/EfficientNetV1B1/stack_3_block1_sortcut_bn/FusedBatchNormV3", "StatefulPartitionedCall/EfficientNetV1B1/stack_3_block1_sortcut_swish/Sigmoid"], "attr": {"T": {"type": "DT_FLOAT"}}}, {"name": "StatefulPartitionedCall/EfficientNetV1B1/stack_3_block1_MB_dw_/depthwise", "op": "FusedDepthwiseConv2dNative", "input": ["StatefulPartitionedCall/EfficientNetV1B1/stack_3_block1_sortcut_swish/mul", "StatefulPartitionedCall/EfficientNetV1B1/stack_3_block1_MB_dw_/depthwise_weights", "StatefulPartitionedCall/EfficientNetV1B1/stack_3_block1_MB_dw_/depthwise_bn_offset"], "attr": {"padding": {"s": "U0FNRQ=="}, "T": {"type": "DT_FLOAT"}, "explicit_paddings": {"list": {}}, "fused_ops": {"list": {"s": ["Qmlhc0FkZA=="]}}, "dilations": {"list": {"i": ["1", "1", "1", "1"]}}, "strides": {"list": {"i": ["1", "1", "1", "1"]}}, "data_format": {"s": "TkhXQw=="}, "num_args": {"i": "1"}}}, {"name": "StatefulPartitionedCall/EfficientNetV1B1/stack_3_block1_MB_dw_swish/Sigmoid", "op": "Sigmoid", "input": ["StatefulPartitionedCall/EfficientNetV1B1/stack_3_block1_MB_dw_/depthwise"], "attr": {"T": {"type": "DT_FLOAT"}}}, {"name": "StatefulPartitionedCall/EfficientNetV1B1/stack_3_block1_MB_dw_swish/mul", "op": "Mul", "input": ["StatefulPartitionedCall/EfficientNetV1B1/stack_3_block1_MB_dw_/depthwise", "StatefulPartitionedCall/EfficientNetV1B1/stack_3_block1_MB_dw_swish/Sigmoid"], "attr": {"T": {"type": "DT_FLOAT"}}}, {"name": "StatefulPartitionedCall/EfficientNetV1B1/tf.math.reduce_mean_58/Mean", "op": "Mean", "input": ["StatefulPartitionedCall/EfficientNetV1B1/stack_3_block1_MB_dw_swish/mul", "StatefulPartitionedCall/EfficientNetV1B1/tf.math.reduce_mean_58/Mean/reduction_indices"], "attr": {"Tidx": {"type": "DT_INT32"}, "keep_dims": {"b": true}, "T": {"type": "DT_FLOAT"}}}, {"name": "StatefulPartitionedCall/EfficientNetV1B1/stack_3_block1_se_1_conv/BiasAdd", "op": "_FusedConv2D", "input": ["StatefulPartitionedCall/EfficientNetV1B1/tf.math.reduce_mean_58/Mean", "StatefulPartitionedCall/EfficientNetV1B1/stack_3_block1_se_1_conv/Conv2D/ReadVariableOp", "StatefulPartitionedCall/EfficientNetV1B1/stack_3_block1_se_1_conv/BiasAdd/ReadVariableOp"], "device": "/device:CPU:0", "attr": {"padding": {"s": "VkFMSUQ="}, "use_cudnn_on_gpu": {"b": true}, "T": {"type": "DT_FLOAT"}, "explicit_paddings": {"list": {}}, "fused_ops": {"list": {"s": ["Qmlhc0FkZA=="]}}, "dilations": {"list": {"i": ["1", "1", "1", "1"]}}, "data_format": {"s": "TkhXQw=="}, "strides": {"list": {"i": ["1", "1", "1", "1"]}}, "epsilon": {"f": 0.0}, "num_args": {"i": "1"}}}, {"name": "StatefulPartitionedCall/EfficientNetV1B1/activation_116/Sigmoid", "op": "Sigmoid", "input": ["StatefulPartitionedCall/EfficientNetV1B1/stack_3_block1_se_1_conv/BiasAdd"], "attr": {"T": {"type": "DT_FLOAT"}}}, {"name": "StatefulPartitionedCall/EfficientNetV1B1/activation_116/mul", "op": "Mul", "input": ["StatefulPartitionedCall/EfficientNetV1B1/stack_3_block1_se_1_conv/BiasAdd", "StatefulPartitionedCall/EfficientNetV1B1/activation_116/Sigmoid"], "attr": {"T": {"type": "DT_FLOAT"}}}, {"name": "StatefulPartitionedCall/EfficientNetV1B1/stack_3_block1_se_2_conv/BiasAdd", "op": "_FusedConv2D", "input": ["StatefulPartitionedCall/EfficientNetV1B1/activation_116/mul", "StatefulPartitionedCall/EfficientNetV1B1/stack_3_block1_se_2_conv/Conv2D/ReadVariableOp", "StatefulPartitionedCall/EfficientNetV1B1/stack_3_block1_se_2_conv/BiasAdd/ReadVariableOp"], "device": "/device:CPU:0", "attr": {"strides": {"list": {"i": ["1", "1", "1", "1"]}}, "data_format": {"s": "TkhXQw=="}, "epsilon": {"f": 0.0}, "num_args": {"i": "1"}, "padding": {"s": "VkFMSUQ="}, "use_cudnn_on_gpu": {"b": true}, "explicit_paddings": {"list": {}}, "T": {"type": "DT_FLOAT"}, "fused_ops": {"list": {"s": ["Qmlhc0FkZA=="]}}, "dilations": {"list": {"i": ["1", "1", "1", "1"]}}}}, {"name": "StatefulPartitionedCall/EfficientNetV1B1/activation_117/Sigmoid", "op": "Sigmoid", "input": ["StatefulPartitionedCall/EfficientNetV1B1/stack_3_block1_se_2_conv/BiasAdd"], "attr": {"T": {"type": "DT_FLOAT"}}}, {"name": "StatefulPartitionedCall/EfficientNetV1B1/multiply_58/mul", "op": "Mul", "input": ["StatefulPartitionedCall/EfficientNetV1B1/stack_3_block1_MB_dw_swish/mul", "StatefulPartitionedCall/EfficientNetV1B1/activation_117/Sigmoid"], "attr": {"T": {"type": "DT_FLOAT"}}}, {"name": "StatefulPartitionedCall/EfficientNetV1B1/stack_3_block1_MB_pw_bn/FusedBatchNormV3", "op": "_FusedConv2D", "input": ["StatefulPartitionedCall/EfficientNetV1B1/multiply_58/mul", "StatefulPartitionedCall/EfficientNetV1B1/stack_3_block1_MB_pw_conv/Conv2D_weights", "StatefulPartitionedCall/EfficientNetV1B1/stack_3_block1_MB_pw_conv/Conv2D_bn_offset"], "device": "/device:CPU:0", "attr": {"strides": {"list": {"i": ["1", "1", "1", "1"]}}, "data_format": {"s": "TkhXQw=="}, "epsilon": {"f": 0.0}, "num_args": {"i": "1"}, "padding": {"s": "U0FNRQ=="}, "use_cudnn_on_gpu": {"b": true}, "explicit_paddings": {"list": {}}, "T": {"type": "DT_FLOAT"}, "fused_ops": {"list": {"s": ["Qmlhc0FkZA=="]}}, "dilations": {"list": {"i": ["1", "1", "1", "1"]}}}}, {"name": "StatefulPartitionedCall/EfficientNetV1B1/add_40/add", "op": "AddV2", "input": ["StatefulPartitionedCall/EfficientNetV1B1/stack_3_block0_MB_pw_bn/FusedBatchNormV3", "StatefulPartitionedCall/EfficientNetV1B1/stack_3_block1_MB_pw_bn/FusedBatchNormV3"], "attr": {"T": {"type": "DT_FLOAT"}}}, {"name": "StatefulPartitionedCall/EfficientNetV1B1/stack_3_block2_sortcut_bn/FusedBatchNormV3", "op": "_FusedConv2D", "input": ["StatefulPartitionedCall/EfficientNetV1B1/add_40/add", "StatefulPartitionedCall/EfficientNetV1B1/stack_3_block2_sortcut_conv/Conv2D_weights", "StatefulPartitionedCall/EfficientNetV1B1/stack_3_block2_sortcut_conv/Conv2D_bn_offset"], "device": "/device:CPU:0", "attr": {"num_args": {"i": "1"}, "dilations": {"list": {"i": ["1", "1", "1", "1"]}}, "data_format": {"s": "TkhXQw=="}, "epsilon": {"f": 0.0}, "strides": {"list": {"i": ["1", "1", "1", "1"]}}, "fused_ops": {"list": {"s": ["Qmlhc0FkZA=="]}}, "use_cudnn_on_gpu": {"b": true}, "explicit_paddings": {"list": {}}, "T": {"type": "DT_FLOAT"}, "padding": {"s": "U0FNRQ=="}}}, {"name": "StatefulPartitionedCall/EfficientNetV1B1/stack_3_block2_sortcut_swish/Sigmoid", "op": "Sigmoid", "input": ["StatefulPartitionedCall/EfficientNetV1B1/stack_3_block2_sortcut_bn/FusedBatchNormV3"], "attr": {"T": {"type": "DT_FLOAT"}}}, {"name": "StatefulPartitionedCall/EfficientNetV1B1/stack_3_block2_sortcut_swish/mul", "op": "Mul", "input": ["StatefulPartitionedCall/EfficientNetV1B1/stack_3_block2_sortcut_bn/FusedBatchNormV3", "StatefulPartitionedCall/EfficientNetV1B1/stack_3_block2_sortcut_swish/Sigmoid"], "attr": {"T": {"type": "DT_FLOAT"}}}, {"name": "StatefulPartitionedCall/EfficientNetV1B1/stack_3_block2_MB_dw_/depthwise", "op": "FusedDepthwiseConv2dNative", "input": ["StatefulPartitionedCall/EfficientNetV1B1/stack_3_block2_sortcut_swish/mul", "StatefulPartitionedCall/EfficientNetV1B1/stack_3_block2_MB_dw_/depthwise_weights", "StatefulPartitionedCall/EfficientNetV1B1/stack_3_block2_MB_dw_/depthwise_bn_offset"], "attr": {"strides": {"list": {"i": ["1", "1", "1", "1"]}}, "data_format": {"s": "TkhXQw=="}, "num_args": {"i": "1"}, "padding": {"s": "U0FNRQ=="}, "explicit_paddings": {"list": {}}, "T": {"type": "DT_FLOAT"}, "fused_ops": {"list": {"s": ["Qmlhc0FkZA=="]}}, "dilations": {"list": {"i": ["1", "1", "1", "1"]}}}}, {"name": "StatefulPartitionedCall/EfficientNetV1B1/stack_3_block2_MB_dw_swish/Sigmoid", "op": "Sigmoid", "input": ["StatefulPartitionedCall/EfficientNetV1B1/stack_3_block2_MB_dw_/depthwise"], "attr": {"T": {"type": "DT_FLOAT"}}}, {"name": "StatefulPartitionedCall/EfficientNetV1B1/stack_3_block2_MB_dw_swish/mul", "op": "Mul", "input": ["StatefulPartitionedCall/EfficientNetV1B1/stack_3_block2_MB_dw_/depthwise", "StatefulPartitionedCall/EfficientNetV1B1/stack_3_block2_MB_dw_swish/Sigmoid"], "attr": {"T": {"type": "DT_FLOAT"}}}, {"name": "StatefulPartitionedCall/EfficientNetV1B1/tf.math.reduce_mean_59/Mean", "op": "Mean", "input": ["StatefulPartitionedCall/EfficientNetV1B1/stack_3_block2_MB_dw_swish/mul", "StatefulPartitionedCall/EfficientNetV1B1/tf.math.reduce_mean_59/Mean/reduction_indices"], "attr": {"keep_dims": {"b": true}, "T": {"type": "DT_FLOAT"}, "Tidx": {"type": "DT_INT32"}}}, {"name": "StatefulPartitionedCall/EfficientNetV1B1/stack_3_block2_se_1_conv/BiasAdd", "op": "_FusedConv2D", "input": ["StatefulPartitionedCall/EfficientNetV1B1/tf.math.reduce_mean_59/Mean", "StatefulPartitionedCall/EfficientNetV1B1/stack_3_block2_se_1_conv/Conv2D/ReadVariableOp", "StatefulPartitionedCall/EfficientNetV1B1/stack_3_block2_se_1_conv/BiasAdd/ReadVariableOp"], "device": "/device:CPU:0", "attr": {"explicit_paddings": {"list": {}}, "fused_ops": {"list": {"s": ["Qmlhc0FkZA=="]}}, "padding": {"s": "VkFMSUQ="}, "T": {"type": "DT_FLOAT"}, "dilations": {"list": {"i": ["1", "1", "1", "1"]}}, "num_args": {"i": "1"}, "data_format": {"s": "TkhXQw=="}, "epsilon": {"f": 0.0}, "strides": {"list": {"i": ["1", "1", "1", "1"]}}, "use_cudnn_on_gpu": {"b": true}}}, {"name": "StatefulPartitionedCall/EfficientNetV1B1/activation_118/Sigmoid", "op": "Sigmoid", "input": ["StatefulPartitionedCall/EfficientNetV1B1/stack_3_block2_se_1_conv/BiasAdd"], "attr": {"T": {"type": "DT_FLOAT"}}}, {"name": "StatefulPartitionedCall/EfficientNetV1B1/activation_118/mul", "op": "Mul", "input": ["StatefulPartitionedCall/EfficientNetV1B1/stack_3_block2_se_1_conv/BiasAdd", "StatefulPartitionedCall/EfficientNetV1B1/activation_118/Sigmoid"], "attr": {"T": {"type": "DT_FLOAT"}}}, {"name": "StatefulPartitionedCall/EfficientNetV1B1/stack_3_block2_se_2_conv/BiasAdd", "op": "_FusedConv2D", "input": ["StatefulPartitionedCall/EfficientNetV1B1/activation_118/mul", "StatefulPartitionedCall/EfficientNetV1B1/stack_3_block2_se_2_conv/Conv2D/ReadVariableOp", "StatefulPartitionedCall/EfficientNetV1B1/stack_3_block2_se_2_conv/BiasAdd/ReadVariableOp"], "device": "/device:CPU:0", "attr": {"strides": {"list": {"i": ["1", "1", "1", "1"]}}, "data_format": {"s": "TkhXQw=="}, "epsilon": {"f": 0.0}, "num_args": {"i": "1"}, "padding": {"s": "VkFMSUQ="}, "use_cudnn_on_gpu": {"b": true}, "explicit_paddings": {"list": {}}, "T": {"type": "DT_FLOAT"}, "fused_ops": {"list": {"s": ["Qmlhc0FkZA=="]}}, "dilations": {"list": {"i": ["1", "1", "1", "1"]}}}}, {"name": "StatefulPartitionedCall/EfficientNetV1B1/activation_119/Sigmoid", "op": "Sigmoid", "input": ["StatefulPartitionedCall/EfficientNetV1B1/stack_3_block2_se_2_conv/BiasAdd"], "attr": {"T": {"type": "DT_FLOAT"}}}, {"name": "StatefulPartitionedCall/EfficientNetV1B1/multiply_59/mul", "op": "Mul", "input": ["StatefulPartitionedCall/EfficientNetV1B1/stack_3_block2_MB_dw_swish/mul", "StatefulPartitionedCall/EfficientNetV1B1/activation_119/Sigmoid"], "attr": {"T": {"type": "DT_FLOAT"}}}, {"name": "StatefulPartitionedCall/EfficientNetV1B1/stack_3_block2_MB_pw_bn/FusedBatchNormV3", "op": "_FusedConv2D", "input": ["StatefulPartitionedCall/EfficientNetV1B1/multiply_59/mul", "StatefulPartitionedCall/EfficientNetV1B1/stack_3_block2_MB_pw_conv/Conv2D_weights", "StatefulPartitionedCall/EfficientNetV1B1/stack_3_block2_MB_pw_conv/Conv2D_bn_offset"], "device": "/device:CPU:0", "attr": {"padding": {"s": "U0FNRQ=="}, "use_cudnn_on_gpu": {"b": true}, "T": {"type": "DT_FLOAT"}, "explicit_paddings": {"list": {}}, "fused_ops": {"list": {"s": ["Qmlhc0FkZA=="]}}, "dilations": {"list": {"i": ["1", "1", "1", "1"]}}, "data_format": {"s": "TkhXQw=="}, "strides": {"list": {"i": ["1", "1", "1", "1"]}}, "epsilon": {"f": 0.0}, "num_args": {"i": "1"}}}, {"name": "StatefulPartitionedCall/EfficientNetV1B1/add_41/add", "op": "AddV2", "input": ["StatefulPartitionedCall/EfficientNetV1B1/add_40/add", "StatefulPartitionedCall/EfficientNetV1B1/stack_3_block2_MB_pw_bn/FusedBatchNormV3"], "attr": {"T": {"type": "DT_FLOAT"}}}, {"name": "StatefulPartitionedCall/EfficientNetV1B1/stack_3_block3_sortcut_bn/FusedBatchNormV3", "op": "_FusedConv2D", "input": ["StatefulPartitionedCall/EfficientNetV1B1/add_41/add", "StatefulPartitionedCall/EfficientNetV1B1/stack_3_block3_sortcut_conv/Conv2D_weights", "StatefulPartitionedCall/EfficientNetV1B1/stack_3_block3_sortcut_conv/Conv2D_bn_offset"], "device": "/device:CPU:0", "attr": {"strides": {"list": {"i": ["1", "1", "1", "1"]}}, "data_format": {"s": "TkhXQw=="}, "epsilon": {"f": 0.0}, "num_args": {"i": "1"}, "padding": {"s": "U0FNRQ=="}, "use_cudnn_on_gpu": {"b": true}, "explicit_paddings": {"list": {}}, "T": {"type": "DT_FLOAT"}, "fused_ops": {"list": {"s": ["Qmlhc0FkZA=="]}}, "dilations": {"list": {"i": ["1", "1", "1", "1"]}}}}, {"name": "StatefulPartitionedCall/EfficientNetV1B1/stack_3_block3_sortcut_swish/Sigmoid", "op": "Sigmoid", "input": ["StatefulPartitionedCall/EfficientNetV1B1/stack_3_block3_sortcut_bn/FusedBatchNormV3"], "attr": {"T": {"type": "DT_FLOAT"}}}, {"name": "StatefulPartitionedCall/EfficientNetV1B1/stack_3_block3_sortcut_swish/mul", "op": "Mul", "input": ["StatefulPartitionedCall/EfficientNetV1B1/stack_3_block3_sortcut_bn/FusedBatchNormV3", "StatefulPartitionedCall/EfficientNetV1B1/stack_3_block3_sortcut_swish/Sigmoid"], "attr": {"T": {"type": "DT_FLOAT"}}}, {"name": "StatefulPartitionedCall/EfficientNetV1B1/stack_3_block3_MB_dw_/depthwise", "op": "FusedDepthwiseConv2dNative", "input": ["StatefulPartitionedCall/EfficientNetV1B1/stack_3_block3_sortcut_swish/mul", "StatefulPartitionedCall/EfficientNetV1B1/stack_3_block3_MB_dw_/depthwise_weights", "StatefulPartitionedCall/EfficientNetV1B1/stack_3_block3_MB_dw_/depthwise_bn_offset"], "attr": {"padding": {"s": "U0FNRQ=="}, "T": {"type": "DT_FLOAT"}, "explicit_paddings": {"list": {}}, "fused_ops": {"list": {"s": ["Qmlhc0FkZA=="]}}, "dilations": {"list": {"i": ["1", "1", "1", "1"]}}, "strides": {"list": {"i": ["1", "1", "1", "1"]}}, "data_format": {"s": "TkhXQw=="}, "num_args": {"i": "1"}}}, {"name": "StatefulPartitionedCall/EfficientNetV1B1/stack_3_block3_MB_dw_swish/Sigmoid", "op": "Sigmoid", "input": ["StatefulPartitionedCall/EfficientNetV1B1/stack_3_block3_MB_dw_/depthwise"], "attr": {"T": {"type": "DT_FLOAT"}}}, {"name": "StatefulPartitionedCall/EfficientNetV1B1/stack_3_block3_MB_dw_swish/mul", "op": "Mul", "input": ["StatefulPartitionedCall/EfficientNetV1B1/stack_3_block3_MB_dw_/depthwise", "StatefulPartitionedCall/EfficientNetV1B1/stack_3_block3_MB_dw_swish/Sigmoid"], "attr": {"T": {"type": "DT_FLOAT"}}}, {"name": "StatefulPartitionedCall/EfficientNetV1B1/tf.math.reduce_mean_60/Mean", "op": "Mean", "input": ["StatefulPartitionedCall/EfficientNetV1B1/stack_3_block3_MB_dw_swish/mul", "StatefulPartitionedCall/EfficientNetV1B1/tf.math.reduce_mean_60/Mean/reduction_indices"], "attr": {"keep_dims": {"b": true}, "T": {"type": "DT_FLOAT"}, "Tidx": {"type": "DT_INT32"}}}, {"name": "StatefulPartitionedCall/EfficientNetV1B1/stack_3_block3_se_1_conv/BiasAdd", "op": "_FusedConv2D", "input": ["StatefulPartitionedCall/EfficientNetV1B1/tf.math.reduce_mean_60/Mean", "StatefulPartitionedCall/EfficientNetV1B1/stack_3_block3_se_1_conv/Conv2D/ReadVariableOp", "StatefulPartitionedCall/EfficientNetV1B1/stack_3_block3_se_1_conv/BiasAdd/ReadVariableOp"], "device": "/device:CPU:0", "attr": {"strides": {"list": {"i": ["1", "1", "1", "1"]}}, "data_format": {"s": "TkhXQw=="}, "epsilon": {"f": 0.0}, "num_args": {"i": "1"}, "padding": {"s": "VkFMSUQ="}, "use_cudnn_on_gpu": {"b": true}, "explicit_paddings": {"list": {}}, "T": {"type": "DT_FLOAT"}, "fused_ops": {"list": {"s": ["Qmlhc0FkZA=="]}}, "dilations": {"list": {"i": ["1", "1", "1", "1"]}}}}, {"name": "StatefulPartitionedCall/EfficientNetV1B1/activation_120/Sigmoid", "op": "Sigmoid", "input": ["StatefulPartitionedCall/EfficientNetV1B1/stack_3_block3_se_1_conv/BiasAdd"], "attr": {"T": {"type": "DT_FLOAT"}}}, {"name": "StatefulPartitionedCall/EfficientNetV1B1/activation_120/mul", "op": "Mul", "input": ["StatefulPartitionedCall/EfficientNetV1B1/stack_3_block3_se_1_conv/BiasAdd", "StatefulPartitionedCall/EfficientNetV1B1/activation_120/Sigmoid"], "attr": {"T": {"type": "DT_FLOAT"}}}, {"name": "StatefulPartitionedCall/EfficientNetV1B1/stack_3_block3_se_2_conv/BiasAdd", "op": "_FusedConv2D", "input": ["StatefulPartitionedCall/EfficientNetV1B1/activation_120/mul", "StatefulPartitionedCall/EfficientNetV1B1/stack_3_block3_se_2_conv/Conv2D/ReadVariableOp", "StatefulPartitionedCall/EfficientNetV1B1/stack_3_block3_se_2_conv/BiasAdd/ReadVariableOp"], "device": "/device:CPU:0", "attr": {"explicit_paddings": {"list": {}}, "fused_ops": {"list": {"s": ["Qmlhc0FkZA=="]}}, "padding": {"s": "VkFMSUQ="}, "T": {"type": "DT_FLOAT"}, "dilations": {"list": {"i": ["1", "1", "1", "1"]}}, "num_args": {"i": "1"}, "data_format": {"s": "TkhXQw=="}, "epsilon": {"f": 0.0}, "strides": {"list": {"i": ["1", "1", "1", "1"]}}, "use_cudnn_on_gpu": {"b": true}}}, {"name": "StatefulPartitionedCall/EfficientNetV1B1/activation_121/Sigmoid", "op": "Sigmoid", "input": ["StatefulPartitionedCall/EfficientNetV1B1/stack_3_block3_se_2_conv/BiasAdd"], "attr": {"T": {"type": "DT_FLOAT"}}}, {"name": "StatefulPartitionedCall/EfficientNetV1B1/multiply_60/mul", "op": "Mul", "input": ["StatefulPartitionedCall/EfficientNetV1B1/stack_3_block3_MB_dw_swish/mul", "StatefulPartitionedCall/EfficientNetV1B1/activation_121/Sigmoid"], "attr": {"T": {"type": "DT_FLOAT"}}}, {"name": "StatefulPartitionedCall/EfficientNetV1B1/stack_3_block3_MB_pw_bn/FusedBatchNormV3", "op": "_FusedConv2D", "input": ["StatefulPartitionedCall/EfficientNetV1B1/multiply_60/mul", "StatefulPartitionedCall/EfficientNetV1B1/stack_3_block3_MB_pw_conv/Conv2D_weights", "StatefulPartitionedCall/EfficientNetV1B1/stack_3_block3_MB_pw_conv/Conv2D_bn_offset"], "device": "/device:CPU:0", "attr": {"padding": {"s": "U0FNRQ=="}, "use_cudnn_on_gpu": {"b": true}, "T": {"type": "DT_FLOAT"}, "explicit_paddings": {"list": {}}, "fused_ops": {"list": {"s": ["Qmlhc0FkZA=="]}}, "dilations": {"list": {"i": ["1", "1", "1", "1"]}}, "data_format": {"s": "TkhXQw=="}, "strides": {"list": {"i": ["1", "1", "1", "1"]}}, "epsilon": {"f": 0.0}, "num_args": {"i": "1"}}}, {"name": "StatefulPartitionedCall/EfficientNetV1B1/add_42/add", "op": "AddV2", "input": ["StatefulPartitionedCall/EfficientNetV1B1/add_41/add", "StatefulPartitionedCall/EfficientNetV1B1/stack_3_block3_MB_pw_bn/FusedBatchNormV3"], "attr": {"T": {"type": "DT_FLOAT"}}}, {"name": "StatefulPartitionedCall/EfficientNetV1B1/stack_4_block0_sortcut_bn/FusedBatchNormV3", "op": "_FusedConv2D", "input": ["StatefulPartitionedCall/EfficientNetV1B1/add_42/add", "StatefulPartitionedCall/EfficientNetV1B1/stack_4_block0_sortcut_conv/Conv2D_weights", "StatefulPartitionedCall/EfficientNetV1B1/stack_4_block0_sortcut_conv/Conv2D_bn_offset"], "device": "/device:CPU:0", "attr": {"dilations": {"list": {"i": ["1", "1", "1", "1"]}}, "padding": {"s": "U0FNRQ=="}, "strides": {"list": {"i": ["1", "1", "1", "1"]}}, "data_format": {"s": "TkhXQw=="}, "epsilon": {"f": 0.0}, "num_args": {"i": "1"}, "T": {"type": "DT_FLOAT"}, "fused_ops": {"list": {"s": ["Qmlhc0FkZA=="]}}, "use_cudnn_on_gpu": {"b": true}, "explicit_paddings": {"list": {}}}}, {"name": "StatefulPartitionedCall/EfficientNetV1B1/stack_4_block0_sortcut_swish/Sigmoid", "op": "Sigmoid", "input": ["StatefulPartitionedCall/EfficientNetV1B1/stack_4_block0_sortcut_bn/FusedBatchNormV3"], "attr": {"T": {"type": "DT_FLOAT"}}}, {"name": "StatefulPartitionedCall/EfficientNetV1B1/stack_4_block0_sortcut_swish/mul", "op": "Mul", "input": ["StatefulPartitionedCall/EfficientNetV1B1/stack_4_block0_sortcut_bn/FusedBatchNormV3", "StatefulPartitionedCall/EfficientNetV1B1/stack_4_block0_sortcut_swish/Sigmoid"], "attr": {"T": {"type": "DT_FLOAT"}}}, {"name": "StatefulPartitionedCall/EfficientNetV1B1/stack_4_block0_MB_dw_/depthwise", "op": "FusedDepthwiseConv2dNative", "input": ["StatefulPartitionedCall/EfficientNetV1B1/stack_4_block0_sortcut_swish/mul", "StatefulPartitionedCall/EfficientNetV1B1/stack_4_block0_MB_dw_/depthwise_weights", "StatefulPartitionedCall/EfficientNetV1B1/stack_4_block0_MB_dw_/depthwise_bn_offset"], "attr": {"padding": {"s": "U0FNRQ=="}, "T": {"type": "DT_FLOAT"}, "explicit_paddings": {"list": {}}, "fused_ops": {"list": {"s": ["Qmlhc0FkZA=="]}}, "dilations": {"list": {"i": ["1", "1", "1", "1"]}}, "strides": {"list": {"i": ["1", "1", "1", "1"]}}, "data_format": {"s": "TkhXQw=="}, "num_args": {"i": "1"}}}, {"name": "StatefulPartitionedCall/EfficientNetV1B1/stack_4_block0_MB_dw_swish/Sigmoid", "op": "Sigmoid", "input": ["StatefulPartitionedCall/EfficientNetV1B1/stack_4_block0_MB_dw_/depthwise"], "attr": {"T": {"type": "DT_FLOAT"}}}, {"name": "StatefulPartitionedCall/EfficientNetV1B1/stack_4_block0_MB_dw_swish/mul", "op": "Mul", "input": ["StatefulPartitionedCall/EfficientNetV1B1/stack_4_block0_MB_dw_/depthwise", "StatefulPartitionedCall/EfficientNetV1B1/stack_4_block0_MB_dw_swish/Sigmoid"], "attr": {"T": {"type": "DT_FLOAT"}}}, {"name": "StatefulPartitionedCall/EfficientNetV1B1/tf.math.reduce_mean_61/Mean", "op": "Mean", "input": ["StatefulPartitionedCall/EfficientNetV1B1/stack_4_block0_MB_dw_swish/mul", "StatefulPartitionedCall/EfficientNetV1B1/tf.math.reduce_mean_61/Mean/reduction_indices"], "attr": {"Tidx": {"type": "DT_INT32"}, "T": {"type": "DT_FLOAT"}, "keep_dims": {"b": true}}}, {"name": "StatefulPartitionedCall/EfficientNetV1B1/stack_4_block0_se_1_conv/BiasAdd", "op": "_FusedConv2D", "input": ["StatefulPartitionedCall/EfficientNetV1B1/tf.math.reduce_mean_61/Mean", "StatefulPartitionedCall/EfficientNetV1B1/stack_4_block0_se_1_conv/Conv2D/ReadVariableOp", "StatefulPartitionedCall/EfficientNetV1B1/stack_4_block0_se_1_conv/BiasAdd/ReadVariableOp"], "device": "/device:CPU:0", "attr": {"num_args": {"i": "1"}, "dilations": {"list": {"i": ["1", "1", "1", "1"]}}, "data_format": {"s": "TkhXQw=="}, "epsilon": {"f": 0.0}, "strides": {"list": {"i": ["1", "1", "1", "1"]}}, "fused_ops": {"list": {"s": ["Qmlhc0FkZA=="]}}, "use_cudnn_on_gpu": {"b": true}, "explicit_paddings": {"list": {}}, "T": {"type": "DT_FLOAT"}, "padding": {"s": "VkFMSUQ="}}}, {"name": "StatefulPartitionedCall/EfficientNetV1B1/activation_122/Sigmoid", "op": "Sigmoid", "input": ["StatefulPartitionedCall/EfficientNetV1B1/stack_4_block0_se_1_conv/BiasAdd"], "attr": {"T": {"type": "DT_FLOAT"}}}, {"name": "StatefulPartitionedCall/EfficientNetV1B1/activation_122/mul", "op": "Mul", "input": ["StatefulPartitionedCall/EfficientNetV1B1/stack_4_block0_se_1_conv/BiasAdd", "StatefulPartitionedCall/EfficientNetV1B1/activation_122/Sigmoid"], "attr": {"T": {"type": "DT_FLOAT"}}}, {"name": "StatefulPartitionedCall/EfficientNetV1B1/stack_4_block0_se_2_conv/BiasAdd", "op": "_FusedConv2D", "input": ["StatefulPartitionedCall/EfficientNetV1B1/activation_122/mul", "StatefulPartitionedCall/EfficientNetV1B1/stack_4_block0_se_2_conv/Conv2D/ReadVariableOp", "StatefulPartitionedCall/EfficientNetV1B1/stack_4_block0_se_2_conv/BiasAdd/ReadVariableOp"], "device": "/device:CPU:0", "attr": {"explicit_paddings": {"list": {}}, "fused_ops": {"list": {"s": ["Qmlhc0FkZA=="]}}, "padding": {"s": "VkFMSUQ="}, "T": {"type": "DT_FLOAT"}, "dilations": {"list": {"i": ["1", "1", "1", "1"]}}, "num_args": {"i": "1"}, "data_format": {"s": "TkhXQw=="}, "epsilon": {"f": 0.0}, "strides": {"list": {"i": ["1", "1", "1", "1"]}}, "use_cudnn_on_gpu": {"b": true}}}, {"name": "StatefulPartitionedCall/EfficientNetV1B1/activation_123/Sigmoid", "op": "Sigmoid", "input": ["StatefulPartitionedCall/EfficientNetV1B1/stack_4_block0_se_2_conv/BiasAdd"], "attr": {"T": {"type": "DT_FLOAT"}}}, {"name": "StatefulPartitionedCall/EfficientNetV1B1/multiply_61/mul", "op": "Mul", "input": ["StatefulPartitionedCall/EfficientNetV1B1/stack_4_block0_MB_dw_swish/mul", "StatefulPartitionedCall/EfficientNetV1B1/activation_123/Sigmoid"], "attr": {"T": {"type": "DT_FLOAT"}}}, {"name": "StatefulPartitionedCall/EfficientNetV1B1/stack_4_block0_MB_pw_bn/FusedBatchNormV3", "op": "_FusedConv2D", "input": ["StatefulPartitionedCall/EfficientNetV1B1/multiply_61/mul", "StatefulPartitionedCall/EfficientNetV1B1/stack_4_block0_MB_pw_conv/Conv2D_weights", "StatefulPartitionedCall/EfficientNetV1B1/stack_4_block0_MB_pw_conv/Conv2D_bn_offset"], "device": "/device:CPU:0", "attr": {"explicit_paddings": {"list": {}}, "fused_ops": {"list": {"s": ["Qmlhc0FkZA=="]}}, "padding": {"s": "U0FNRQ=="}, "T": {"type": "DT_FLOAT"}, "dilations": {"list": {"i": ["1", "1", "1", "1"]}}, "num_args": {"i": "1"}, "data_format": {"s": "TkhXQw=="}, "epsilon": {"f": 0.0}, "strides": {"list": {"i": ["1", "1", "1", "1"]}}, "use_cudnn_on_gpu": {"b": true}}}, {"name": "StatefulPartitionedCall/EfficientNetV1B1/stack_4_block1_sortcut_bn/FusedBatchNormV3", "op": "_FusedConv2D", "input": ["StatefulPartitionedCall/EfficientNetV1B1/stack_4_block0_MB_pw_bn/FusedBatchNormV3", "StatefulPartitionedCall/EfficientNetV1B1/stack_4_block1_sortcut_conv/Conv2D_weights", "StatefulPartitionedCall/EfficientNetV1B1/stack_4_block1_sortcut_conv/Conv2D_bn_offset"], "device": "/device:CPU:0", "attr": {"num_args": {"i": "1"}, "dilations": {"list": {"i": ["1", "1", "1", "1"]}}, "data_format": {"s": "TkhXQw=="}, "epsilon": {"f": 0.0}, "strides": {"list": {"i": ["1", "1", "1", "1"]}}, "fused_ops": {"list": {"s": ["Qmlhc0FkZA=="]}}, "use_cudnn_on_gpu": {"b": true}, "explicit_paddings": {"list": {}}, "T": {"type": "DT_FLOAT"}, "padding": {"s": "U0FNRQ=="}}}, {"name": "StatefulPartitionedCall/EfficientNetV1B1/stack_4_block1_sortcut_swish/Sigmoid", "op": "Sigmoid", "input": ["StatefulPartitionedCall/EfficientNetV1B1/stack_4_block1_sortcut_bn/FusedBatchNormV3"], "attr": {"T": {"type": "DT_FLOAT"}}}, {"name": "StatefulPartitionedCall/EfficientNetV1B1/stack_4_block1_sortcut_swish/mul", "op": "Mul", "input": ["StatefulPartitionedCall/EfficientNetV1B1/stack_4_block1_sortcut_bn/FusedBatchNormV3", "StatefulPartitionedCall/EfficientNetV1B1/stack_4_block1_sortcut_swish/Sigmoid"], "attr": {"T": {"type": "DT_FLOAT"}}}, {"name": "StatefulPartitionedCall/EfficientNetV1B1/stack_4_block1…
: {"s": "TkhXQw=="}, "epsilon": {"f": 0.0}, "T": {"type": "DT_FLOAT"}}}, {"name": "StatefulPartitionedCall/EfficientNetV1B1/stack_6_block0_sortcut_swish/Sigmoid", "op": "Sigmoid", "input": ["StatefulPartitionedCall/EfficientNetV1B1/stack_6_block0_sortcut_bn/FusedBatchNormV3"], "attr": {"T": {"type": "DT_FLOAT"}}}, {"name": "StatefulPartitionedCall/EfficientNetV1B1/stack_6_block0_sortcut_swish/mul", "op": "Mul", "input": ["StatefulPartitionedCall/EfficientNetV1B1/stack_6_block0_sortcut_bn/FusedBatchNormV3", "StatefulPartitionedCall/EfficientNetV1B1/stack_6_block0_sortcut_swish/Sigmoid"], "attr": {"T": {"type": "DT_FLOAT"}}}, {"name": "StatefulPartitionedCall/EfficientNetV1B1/stack_6_block0_MB_dw_/depthwise", "op": "FusedDepthwiseConv2dNative", "input": ["StatefulPartitionedCall/EfficientNetV1B1/stack_6_block0_sortcut_swish/mul", "StatefulPartitionedCall/EfficientNetV1B1/stack_6_block0_MB_dw_/depthwise_weights", "StatefulPartitionedCall/EfficientNetV1B1/stack_6_block0_MB_dw_/depthwise_bn_offset"], "attr": {"data_format": {"s": "TkhXQw=="}, "strides": {"list": {"i": ["1", "1", "1", "1"]}}, "padding": {"s": "U0FNRQ=="}, "fused_ops": {"list": {"s": ["Qmlhc0FkZA=="]}}, "T": {"type": "DT_FLOAT"}, "num_args": {"i": "1"}, "explicit_paddings": {"list": {}}, "dilations": {"list": {"i": ["1", "1", "1", "1"]}}}}, {"name": "StatefulPartitionedCall/EfficientNetV1B1/stack_6_block0_MB_dw_swish/Sigmoid", "op": "Sigmoid", "input": ["StatefulPartitionedCall/EfficientNetV1B1/stack_6_block0_MB_dw_/depthwise"], "attr": {"T": {"type": "DT_FLOAT"}}}, {"name": "StatefulPartitionedCall/EfficientNetV1B1/stack_6_block0_MB_dw_swish/mul", "op": "Mul", "input": ["StatefulPartitionedCall/EfficientNetV1B1/stack_6_block0_MB_dw_/depthwise", "StatefulPartitionedCall/EfficientNetV1B1/stack_6_block0_MB_dw_swish/Sigmoid"], "attr": {"T": {"type": "DT_FLOAT"}}}, {"name": "StatefulPartitionedCall/EfficientNetV1B1/tf.math.reduce_mean_70/Mean", "op": "Mean", "input": ["StatefulPartitionedCall/EfficientNetV1B1/stack_6_block0_MB_dw_swish/mul", "StatefulPartitionedCall/EfficientNetV1B1/tf.math.reduce_mean_70/Mean/reduction_indices"], "attr": {"Tidx": {"type": "DT_INT32"}, "T": {"type": "DT_FLOAT"}, "keep_dims": {"b": true}}}, {"name": "StatefulPartitionedCall/EfficientNetV1B1/stack_6_block0_se_1_conv/BiasAdd", "op": "_FusedConv2D", "input": ["StatefulPartitionedCall/EfficientNetV1B1/tf.math.reduce_mean_70/Mean", "StatefulPartitionedCall/EfficientNetV1B1/stack_6_block0_se_1_conv/Conv2D/ReadVariableOp", "StatefulPartitionedCall/EfficientNetV1B1/stack_6_block0_se_1_conv/BiasAdd/ReadVariableOp"], "device": "/device:CPU:0", "attr": {"strides": {"list": {"i": ["1", "1", "1", "1"]}}, "T": {"type": "DT_FLOAT"}, "data_format": {"s": "TkhXQw=="}, "fused_ops": {"list": {"s": ["Qmlhc0FkZA=="]}}, "epsilon": {"f": 0.0}, "dilations": {"list": {"i": ["1", "1", "1", "1"]}}, "use_cudnn_on_gpu": {"b": true}, "padding": {"s": "VkFMSUQ="}, "explicit_paddings": {"list": {}}, "num_args": {"i": "1"}}}, {"name": "StatefulPartitionedCall/EfficientNetV1B1/activation_140/Sigmoid", "op": "Sigmoid", "input": ["StatefulPartitionedCall/EfficientNetV1B1/stack_6_block0_se_1_conv/BiasAdd"], "attr": {"T": {"type": "DT_FLOAT"}}}, {"name": "StatefulPartitionedCall/EfficientNetV1B1/activation_140/mul", "op": "Mul", "input": ["StatefulPartitionedCall/EfficientNetV1B1/stack_6_block0_se_1_conv/BiasAdd", "StatefulPartitionedCall/EfficientNetV1B1/activation_140/Sigmoid"], "attr": {"T": {"type": "DT_FLOAT"}}}, {"name": "StatefulPartitionedCall/EfficientNetV1B1/stack_6_block0_se_2_conv/BiasAdd", "op": "_FusedConv2D", "input": ["StatefulPartitionedCall/EfficientNetV1B1/activation_140/mul", "StatefulPartitionedCall/EfficientNetV1B1/stack_6_block0_se_2_conv/Conv2D/ReadVariableOp", "StatefulPartitionedCall/EfficientNetV1B1/stack_6_block0_se_2_conv/BiasAdd/ReadVariableOp"], "device": "/device:CPU:0", "attr": {"data_format": {"s": "TkhXQw=="}, "padding": {"s": "VkFMSUQ="}, "strides": {"list": {"i": ["1", "1", "1", "1"]}}, "fused_ops": {"list": {"s": ["Qmlhc0FkZA=="]}}, "T": {"type": "DT_FLOAT"}, "epsilon": {"f": 0.0}, "num_args": {"i": "1"}, "use_cudnn_on_gpu": {"b": true}, "explicit_paddings": {"list": {}}, "dilations": {"list": {"i": ["1", "1", "1", "1"]}}}}, {"name": "StatefulPartitionedCall/EfficientNetV1B1/activation_141/Sigmoid", "op": "Sigmoid", "input": ["StatefulPartitionedCall/EfficientNetV1B1/stack_6_block0_se_2_conv/BiasAdd"], "attr": {"T": {"type": "DT_FLOAT"}}}, {"name": "StatefulPartitionedCall/EfficientNetV1B1/multiply_70/mul", "op": "Mul", "input": ["StatefulPartitionedCall/EfficientNetV1B1/stack_6_block0_MB_dw_swish/mul", "StatefulPartitionedCall/EfficientNetV1B1/activation_141/Sigmoid"], "attr": {"T": {"type": "DT_FLOAT"}}}, {"name": "StatefulPartitionedCall/EfficientNetV1B1/stack_6_block0_MB_pw_bn/FusedBatchNormV3", "op": "_FusedConv2D", "input": ["StatefulPartitionedCall/EfficientNetV1B1/multiply_70/mul", "StatefulPartitionedCall/EfficientNetV1B1/stack_6_block0_MB_pw_conv/Conv2D_weights", "StatefulPartitionedCall/EfficientNetV1B1/stack_6_block0_MB_pw_conv/Conv2D_bn_offset"], "device": "/device:CPU:0", "attr": {"strides": {"list": {"i": ["1", "1", "1", "1"]}}, "data_format": {"s": "TkhXQw=="}, "epsilon": {"f": 0.0}, "dilations": {"list": {"i": ["1", "1", "1", "1"]}}, "T": {"type": "DT_FLOAT"}, "use_cudnn_on_gpu": {"b": true}, "explicit_paddings": {"list": {}}, "fused_ops": {"list": {"s": ["Qmlhc0FkZA=="]}}, "num_args": {"i": "1"}, "padding": {"s": "U0FNRQ=="}}}, {"name": "StatefulPartitionedCall/EfficientNetV1B1/stack_6_block1_sortcut_bn/FusedBatchNormV3", "op": "_FusedConv2D", "input": ["StatefulPartitionedCall/EfficientNetV1B1/stack_6_block0_MB_pw_bn/FusedBatchNormV3", "StatefulPartitionedCall/EfficientNetV1B1/stack_6_block1_sortcut_conv/Conv2D_weights", "StatefulPartitionedCall/EfficientNetV1B1/stack_6_block1_sortcut_conv/Conv2D_bn_offset"], "device": "/device:CPU:0", "attr": {"dilations": {"list": {"i": ["1", "1", "1", "1"]}}, "fused_ops": {"list": {"s": ["Qmlhc0FkZA=="]}}, "num_args": {"i": "1"}, "use_cudnn_on_gpu": {"b": true}, "explicit_paddings": {"list": {}}, "strides": {"list": {"i": ["1", "1", "1", "1"]}}, "padding": {"s": "U0FNRQ=="}, "data_format": {"s": "TkhXQw=="}, "epsilon": {"f": 0.0}, "T": {"type": "DT_FLOAT"}}}, {"name": "StatefulPartitionedCall/EfficientNetV1B1/stack_6_block1_sortcut_swish/Sigmoid", "op": "Sigmoid", "input": ["StatefulPartitionedCall/EfficientNetV1B1/stack_6_block1_sortcut_bn/FusedBatchNormV3"], "attr": {"T": {"type": "DT_FLOAT"}}}, {"name": "StatefulPartitionedCall/EfficientNetV1B1/stack_6_block1_sortcut_swish/mul", "op": "Mul", "input": ["StatefulPartitionedCall/EfficientNetV1B1/stack_6_block1_sortcut_bn/FusedBatchNormV3", "StatefulPartitionedCall/EfficientNetV1B1/stack_6_block1_sortcut_swish/Sigmoid"], "attr": {"T": {"type": "DT_FLOAT"}}}, {"name": "StatefulPartitionedCall/EfficientNetV1B1/stack_6_block1_MB_dw_/depthwise", "op": "FusedDepthwiseConv2dNative", "input": ["StatefulPartitionedCall/EfficientNetV1B1/stack_6_block1_sortcut_swish/mul", "StatefulPartitionedCall/EfficientNetV1B1/stack_6_block1_MB_dw_/depthwise_weights", "StatefulPartitionedCall/EfficientNetV1B1/stack_6_block1_MB_dw_/depthwise_bn_offset"], "attr": {"dilations": {"list": {"i": ["1", "1", "1", "1"]}}, "fused_ops": {"list": {"s": ["Qmlhc0FkZA=="]}}, "num_args": {"i": "1"}, "explicit_paddings": {"list": {}}, "strides": {"list": {"i": ["1", "1", "1", "1"]}}, "padding": {"s": "U0FNRQ=="}, "data_format": {"s": "TkhXQw=="}, "T": {"type": "DT_FLOAT"}}}, {"name": "StatefulPartitionedCall/EfficientNetV1B1/stack_6_block1_MB_dw_swish/Sigmoid", "op": "Sigmoid", "input": ["StatefulPartitionedCall/EfficientNetV1B1/stack_6_block1_MB_dw_/depthwise"], "attr": {"T": {"type": "DT_FLOAT"}}}, {"name": "StatefulPartitionedCall/EfficientNetV1B1/stack_6_block1_MB_dw_swish/mul", "op": "Mul", "input": ["StatefulPartitionedCall/EfficientNetV1B1/stack_6_block1_MB_dw_/depthwise", "StatefulPartitionedCall/EfficientNetV1B1/stack_6_block1_MB_dw_swish/Sigmoid"], "attr": {"T": {"type": "DT_FLOAT"}}}, {"name": "StatefulPartitionedCall/EfficientNetV1B1/tf.math.reduce_mean_71/Mean", "op": "Mean", "input": ["StatefulPartitionedCall/EfficientNetV1B1/stack_6_block1_MB_dw_swish/mul", "StatefulPartitionedCall/EfficientNetV1B1/tf.math.reduce_mean_71/Mean/reduction_indices"], "attr": {"Tidx": {"type": "DT_INT32"}, "T": {"type": "DT_FLOAT"}, "keep_dims": {"b": true}}}, {"name": "StatefulPartitionedCall/EfficientNetV1B1/stack_6_block1_se_1_conv/BiasAdd", "op": "_FusedConv2D", "input": ["StatefulPartitionedCall/EfficientNetV1B1/tf.math.reduce_mean_71/Mean", "StatefulPartitionedCall/EfficientNetV1B1/stack_6_block1_se_1_conv/Conv2D/ReadVariableOp", "StatefulPartitionedCall/EfficientNetV1B1/stack_6_block1_se_1_conv/BiasAdd/ReadVariableOp"], "device": "/device:CPU:0", "attr": {"data_format": {"s": "TkhXQw=="}, "padding": {"s": "VkFMSUQ="}, "strides": {"list": {"i": ["1", "1", "1", "1"]}}, "fused_ops": {"list": {"s": ["Qmlhc0FkZA=="]}}, "T": {"type": "DT_FLOAT"}, "epsilon": {"f": 0.0}, "num_args": {"i": "1"}, "use_cudnn_on_gpu": {"b": true}, "explicit_paddings": {"list": {}}, "dilations": {"list": {"i": ["1", "1", "1", "1"]}}}}, {"name": "StatefulPartitionedCall/EfficientNetV1B1/activation_142/Sigmoid", "op": "Sigmoid", "input": ["StatefulPartitionedCall/EfficientNetV1B1/stack_6_block1_se_1_conv/BiasAdd"], "attr": {"T": {"type": "DT_FLOAT"}}}, {"name": "StatefulPartitionedCall/EfficientNetV1B1/activation_142/mul", "op": "Mul", "input": ["StatefulPartitionedCall/EfficientNetV1B1/stack_6_block1_se_1_conv/BiasAdd", "StatefulPartitionedCall/EfficientNetV1B1/activation_142/Sigmoid"], "attr": {"T": {"type": "DT_FLOAT"}}}, {"name": "StatefulPartitionedCall/EfficientNetV1B1/stack_6_block1_se_2_conv/BiasAdd", "op": "_FusedConv2D", "input": ["StatefulPartitionedCall/EfficientNetV1B1/activation_142/mul", "StatefulPartitionedCall/EfficientNetV1B1/stack_6_block1_se_2_conv/Conv2D/ReadVariableOp", "StatefulPartitionedCall/EfficientNetV1B1/stack_6_block1_se_2_conv/BiasAdd/ReadVariableOp"], "device": "/device:CPU:0", "attr": {"epsilon": {"f": 0.0}, "dilations": {"list": {"i": ["1", "1", "1", "1"]}}, "padding": {"s": "VkFMSUQ="}, "num_args": {"i": "1"}, "use_cudnn_on_gpu": {"b": true}, "explicit_paddings": {"list": {}}, "strides": {"list": {"i": ["1", "1", "1", "1"]}}, "T": {"type": "DT_FLOAT"}, "data_format": {"s": "TkhXQw=="}, "fused_ops": {"list": {"s": ["Qmlhc0FkZA=="]}}}}, {"name": "StatefulPartitionedCall/EfficientNetV1B1/activation_143/Sigmoid", "op": "Sigmoid", "input": ["StatefulPartitionedCall/EfficientNetV1B1/stack_6_block1_se_2_conv/BiasAdd"], "attr": {"T": {"type": "DT_FLOAT"}}}, {"name": "StatefulPartitionedCall/EfficientNetV1B1/multiply_71/mul", "op": "Mul", "input": ["StatefulPartitionedCall/EfficientNetV1B1/stack_6_block1_MB_dw_swish/mul", "StatefulPartitionedCall/EfficientNetV1B1/activation_143/Sigmoid"], "attr": {"T": {"type": "DT_FLOAT"}}}, {"name": "StatefulPartitionedCall/EfficientNetV1B1/stack_6_block1_MB_pw_bn/FusedBatchNormV3", "op": "_FusedConv2D", "input": ["StatefulPartitionedCall/EfficientNetV1B1/multiply_71/mul", "StatefulPartitionedCall/EfficientNetV1B1/stack_6_block1_MB_pw_conv/Conv2D_weights", "StatefulPartitionedCall/EfficientNetV1B1/stack_6_block1_MB_pw_conv/Conv2D_bn_offset"], "device": "/device:CPU:0", "attr": {"epsilon": {"f": 0.0}, "dilations": {"list": {"i": ["1", "1", "1", "1"]}}, "padding": {"s": "U0FNRQ=="}, "num_args": {"i": "1"}, "use_cudnn_on_gpu": {"b": true}, "explicit_paddings": {"list": {}}, "strides": {"list": {"i": ["1", "1", "1", "1"]}}, "T": {"type": "DT_FLOAT"}, "data_format": {"s": "TkhXQw=="}, "fused_ops": {"list": {"s": ["Qmlhc0FkZA=="]}}}}, {"name": "StatefulPartitionedCall/EfficientNetV1B1/add_50/add", "op": "AddV2", "input": ["StatefulPartitionedCall/EfficientNetV1B1/stack_6_block0_MB_pw_bn/FusedBatchNormV3", "StatefulPartitionedCall/EfficientNetV1B1/stack_6_block1_MB_pw_bn/FusedBatchNormV3"], "attr": {"T": {"type": "DT_FLOAT"}}}, {"name": "StatefulPartitionedCall/EfficientNetV1B1/post_bn/FusedBatchNormV3", "op": "_FusedConv2D", "input": ["StatefulPartitionedCall/EfficientNetV1B1/add_50/add", "StatefulPartitionedCall/EfficientNetV1B1/post_conv/Conv2D_weights", "StatefulPartitionedCall/EfficientNetV1B1/post_conv/Conv2D_bn_offset"], "device": "/device:CPU:0", "attr": {"epsilon": {"f": 0.0}, "dilations": {"list": {"i": ["1", "1", "1", "1"]}}, "padding": {"s": "VkFMSUQ="}, "num_args": {"i": "1"}, "use_cudnn_on_gpu": {"b": true}, "explicit_paddings": {"list": {}}, "strides": {"list": {"i": ["1", "1", "1", "1"]}}, "T": {"type": "DT_FLOAT"}, "data_format": {"s": "TkhXQw=="}, "fused_ops": {"list": {"s": ["Qmlhc0FkZA=="]}}}}, {"name": "StatefulPartitionedCall/EfficientNetV1B1/post_swish/Sigmoid", "op": "Sigmoid", "input": ["StatefulPartitionedCall/EfficientNetV1B1/post_bn/FusedBatchNormV3"], "attr": {"T": {"type": "DT_FLOAT"}}}, {"name": "StatefulPartitionedCall/EfficientNetV1B1/post_swish/mul", "op": "Mul", "input": ["StatefulPartitionedCall/EfficientNetV1B1/post_bn/FusedBatchNormV3", "StatefulPartitionedCall/EfficientNetV1B1/post_swish/Sigmoid"], "attr": {"T": {"type": "DT_FLOAT"}}}, {"name": "StatefulPartitionedCall/EfficientNetV1B1/avg_pool/Mean", "op": "Mean", "input": ["StatefulPartitionedCall/EfficientNetV1B1/post_swish/mul", "StatefulPartitionedCall/EfficientNetV1B1/avg_pool/Mean/reduction_indices"], "attr": {"Tidx": {"type": "DT_INT32"}, "keep_dims": {"b": false}, "T": {"type": "DT_FLOAT"}}}, {"name": "StatefulPartitionedCall/EfficientNetV1B1/predictions/BiasAdd", "op": "_FusedMatMul", "input": ["StatefulPartitionedCall/EfficientNetV1B1/avg_pool/Mean", "StatefulPartitionedCall/EfficientNetV1B1/predictions/MatMul/ReadVariableOp", "StatefulPartitionedCall/EfficientNetV1B1/predictions/BiasAdd/ReadVariableOp"], "device": "/device:CPU:0", "attr": {"epsilon": {"f": 0.0}, "num_args": {"i": "1"}, "T": {"type": "DT_FLOAT"}, "transpose_b": {"b": false}, "transpose_a": {"b": false}, "fused_ops": {"list": {"s": ["Qmlhc0FkZA=="]}}}}, {"name": "StatefulPartitionedCall/EfficientNetV1B1/predictions/Softmax", "op": "Softmax", "input": ["StatefulPartitionedCall/EfficientNetV1B1/predictions/BiasAdd"], "attr": {"T": {"type": "DT_FLOAT"}}}, {"name": "Identity", "op": "Identity", "input": ["StatefulPartitionedCall/EfficientNetV1B1/predictions/Softmax"], "attr": {"T": {"type": "DT_FLOAT"}}}], "library": {}, "versions": {"producer": 808}}, "weightsManifest": [{"paths": ["group1-shard1of7.bin", "group1-shard2of7.bin", "group1-shard3of7.bin", "group1-shard4of7.bin", "group1-shard5of7.bin", "group1-shard6of7.bin", "group1-shard7of7.bin"], "weights": [{"name": "StatefulPartitionedCall/EfficientNetV1B1/tf.math.reduce_mean_49/Mean/reduction_indices", "shape": [2], "dtype": "int32"}, {"name": "StatefulPartitionedCall/EfficientNetV1B1/stack_0_block0_se_1_conv/Conv2D/ReadVariableOp", "shape": [1, 1, 32, 8], "dtype": "float32"}, {"name": "StatefulPartitionedCall/EfficientNetV1B1/stack_0_block0_se_1_conv/BiasAdd/ReadVariableOp", "shape": [8], "dtype": "float32"}, {"name": "StatefulPartitionedCall/EfficientNetV1B1/stack_0_block0_se_2_conv/Conv2D/ReadVariableOp", "shape": [1, 1, 8, 32], "dtype": "float32"}, {"name": "StatefulPartitionedCall/EfficientNetV1B1/stack_0_block0_se_2_conv/BiasAdd/ReadVariableOp", "shape": [32], "dtype": "float32"}, {"name": "StatefulPartitionedCall/EfficientNetV1B1/tf.math.reduce_mean_50/Mean/reduction_indices", "shape": [2], "dtype": "int32"}, {"name": "StatefulPartitionedCall/EfficientNetV1B1/stack_0_block1_se_1_conv/Conv2D/ReadVariableOp", "shape": [1, 1, 16, 4], "dtype": "float32"}, {"name": "StatefulPartitionedCall/EfficientNetV1B1/stack_0_block1_se_1_conv/BiasAdd/ReadVariableOp", "shape": [4], "dtype": "float32"}, {"name": "StatefulPartitionedCall/EfficientNetV1B1/stack_0_block1_se_2_conv/Conv2D/ReadVariableOp", "shape": [1, 1, 4, 16], "dtype": "float32"}, {"name": "StatefulPartitionedCall/EfficientNetV1B1/stack_0_block1_se_2_conv/BiasAdd/ReadVariableOp", "shape": [16], "dtype": "float32"}, {"name": "StatefulPartitionedCall/EfficientNetV1B1/tf.math.reduce_mean_51/Mean/reduction_indices", "shape": [2], "dtype": "int32"}, {"name": "StatefulPartitionedCall/EfficientNetV1B1/stack_1_block0_se_1_conv/Conv2D/ReadVariableOp", "shape": [1, 1, 96, 4], "dtype": "float32"}, {"name": "StatefulPartitionedCall/EfficientNetV1B1/stack_1_block0_se_1_conv/BiasAdd/ReadVariableOp", "shape": [4], "dtype": "float32"}, {"name": "StatefulPartitionedCall/EfficientNetV1B1/stack_1_block0_se_2_conv/Conv2D/ReadVariableOp", "shape": [1, 1, 4, 96], "dtype": "float32"}, {"name": "StatefulPartitionedCall/EfficientNetV1B1/stack_1_block0_se_2_conv/BiasAdd/ReadVariableOp", "shape": [96], "dtype": "float32"}, {"name": "StatefulPartitionedCall/EfficientNetV1B1/tf.math.reduce_mean_52/Mean/reduction_indices", "shape": [2], "dtype": "int32"}, {"name": "StatefulPartitionedCall/EfficientNetV1B1/stack_1_block1_se_1_conv/Conv2D/ReadVariableOp", "shape": [1, 1, 144, 6], "dtype": "float32"}, {"name": "StatefulPartitionedCall/EfficientNetV1B1/stack_1_block1_se_1_conv/BiasAdd/ReadVariableOp", "shape": [6], "dtype": "float32"}, {"name": "StatefulPartitionedCall/EfficientNetV1B1/stack_1_block1_se_2_conv/Conv2D/ReadVariableOp", "shape": [1, 1, 6, 144], "dtype": "float32"}, {"name": "StatefulPartitionedCall/EfficientNetV1B1/stack_1_block1_se_2_conv/BiasAdd/ReadVariableOp", "shape": [144], "dtype": "float32"}, {"name": "StatefulPartitionedCall/EfficientNetV1B1/tf.math.reduce_mean_53/Mean/reduction_indices", "shape": [2], "dtype": "int32"}, {"name": "StatefulPartitionedCall/EfficientNetV1B1/stack_1_block2_se_1_conv/Conv2D/ReadVariableOp", "shape": [1, 1, 144, 6], "dtype": "float32"}, {"name": "StatefulPartitionedCall/EfficientNetV1B1/stack_1_block2_se_1_conv/BiasAdd/ReadVariableOp", "shape": [6], "dtype": "float32"}, {"name": "StatefulPartitionedCall/EfficientNetV1B1/stack_1_block2_se_2_conv/Conv2D/ReadVariableOp", "shape": [1, 1, 6, 144], "dtype": "float32"}, {"name": "StatefulPartitionedCall/EfficientNetV1B1/stack_1_block2_se_2_conv/BiasAdd/ReadVariableOp", "shape": [144], "dtype": "float32"}, {"name": "StatefulPartitionedCall/EfficientNetV1B1/tf.math.reduce_mean_54/Mean/reduction_indices", "shape": [2], "dtype": "int32"}, {"name": "StatefulPartitionedCall/EfficientNetV1B1/stack_2_block0_se_1_conv/Conv2D/ReadVariableOp", "shape": [1, 1, 144, 6], "dtype": "float32"}, {"name": "StatefulPartitionedCall/EfficientNetV1B1/stack_2_block0_se_1_conv/BiasAdd/ReadVariableOp", "shape": [6], "dtype": "float32"}, {"name": "StatefulPartitionedCall/EfficientNetV1B1/stack_2_block0_se_2_conv/Conv2D/ReadVariableOp", "shape": [1, 1, 6, 144], "dtype": "float32"}, {"name": "StatefulPartitionedCall/EfficientNetV1B1/stack_2_block0_se_2_conv/BiasAdd/ReadVariableOp", "shape": [144], "dtype": "float32"}, {"name": "StatefulPartitionedCall/EfficientNetV1B1/tf.math.reduce_mean_55/Mean/reduction_indices", "shape": [2], "dtype": "int32"}, {"name": "StatefulPartitionedCall/EfficientNetV1B1/stack_2_block1_se_1_conv/Conv2D/ReadVariableOp", "shape": [1, 1, 240, 10], "dtype": "float32"}, {"name": "StatefulPartitionedCall/EfficientNetV1B1/stack_2_block1_se_1_conv/BiasAdd/ReadVariableOp", "shape": [10], "dtype": "float32"}, {"name": "StatefulPartitionedCall/EfficientNetV1B1/stack_2_block1_se_2_conv/Conv2D/ReadVariableOp", "shape": [1, 1, 10, 240], "dtype": "float32"}, {"name": "StatefulPartitionedCall/EfficientNetV1B1/stack_2_block1_se_2_conv/BiasAdd/ReadVariableOp", "shape": [240], "dtype": "float32"}, {"name": "StatefulPartitionedCall/EfficientNetV1B1/tf.math.reduce_mean_56/Mean/reduction_indices", "shape": [2], "dtype": "int32"}, {"name": "StatefulPartitionedCall/EfficientNetV1B1/stack_2_block2_se_1_conv/Conv2D/ReadVariableOp", "shape": [1, 1, 240, 10], "dtype": "float32"}, {"name": "StatefulPartitionedCall/EfficientNetV1B1/stack_2_block2_se_1_conv/BiasAdd/ReadVariableOp", "shape": [10], "dtype": "float32"}, {"name": "StatefulPartitionedCall/EfficientNetV1B1/stack_2_block2_se_2_conv/Conv2D/ReadVariableOp", "shape": [1, 1, 10, 240], "dtype": "float32"}, {"name": "StatefulPartitionedCall/EfficientNetV1B1/stack_2_block2_se_2_conv/BiasAdd/ReadVariableOp", "shape": [240], "dtype": "float32"}, {"name": "StatefulPartitionedCall/EfficientNetV1B1/tf.math.reduce_mean_57/Mean/reduction_indices", "shape": [2], "dtype": "int32"}, {"name": "StatefulPartitionedCall/EfficientNetV1B1/stack_3_block0_se_1_conv/Conv2D/ReadVariableOp", "shape": [1, 1, 240, 10], "dtype": "float32"}, {"name": "StatefulPartitionedCall/EfficientNetV1B1/stack_3_block0_se_1_conv/BiasAdd/ReadVariableOp", "shape": [10], "dtype": "float32"}, {"name": "StatefulPartitionedCall/EfficientNetV1B1/stack_3_block0_se_2_conv/Conv2D/ReadVariableOp", "shape": [1, 1, 10, 240], "dtype": "float32"}, {"name": "StatefulPartitionedCall/EfficientNetV1B1/stack_3_block0_se_2_conv/BiasAdd/ReadVariableOp", "shape": [240], "dtype": "float32"}, {"name": "StatefulPartitionedCall/EfficientNetV1B1/tf.math.reduce_mean_58/Mean/reduction_indices", "shape": [2], "dtype": "int32"}, {"name": "StatefulPartitionedCall/EfficientNetV1B1/stack_3_block1_se_1_conv/Conv2D/ReadVariableOp", "shape": [1, 1, 480, 20], "dtype": "float32"}, {"name": "StatefulPartitionedCall/EfficientNetV1B1/stack_3_block1_se_1_conv/BiasAdd/ReadVariableOp", "shape": [20], "dtype": "float32"}, {"name": "StatefulPartitionedCall/EfficientNetV1B1/stack_3_block1_se_2_conv/Conv2D/ReadVariableOp", "shape": [1, 1, 20, 480], "dtype": "float32"}, {"name": "StatefulPartitionedCall/EfficientNetV1B1/stack_3_block1_se_2_conv/BiasAdd/ReadVariableOp", "shape": [480], "dtype": "float32"}, {"name": "StatefulPartitionedCall/EfficientNetV1B1/tf.math.reduce_mean_59/Mean/reduction_indices", "shape": [2], "dtype": "int32"}, {"name": "StatefulPartitionedCall/EfficientNetV1B1/stack_3_block2_se_1_conv/Conv2D/ReadVariableOp", "shape": [1, 1, 480, 20], "dtype": "float32"}, {"name": "StatefulPartitionedCall/EfficientNetV1B1/stack_3_block2_se_1_conv/BiasAdd/ReadVariableOp", "shape": [20], "dtype": "float32"}, {"name": "StatefulPartitionedCall/EfficientNetV1B1/stack_3_block2_se_2_conv/Conv2D/ReadVariableOp", "shape": [1, 1, 20, 480], "dtype": "float32"}, {"name": "StatefulPartitionedCall/EfficientNetV1B1/stack_3_block2_se_2_conv/BiasAdd/ReadVariableOp", "shape": [480], "dtype": "float32"}, {"name": "StatefulPartitionedCall/EfficientNetV1B1/tf.math.reduce_mean_60/Mean/reduction_indices", "shape": [2], "dtype": "int32"}, {"name": "StatefulPartitionedCall/EfficientNetV1B1/stack_3_block3_se_1_conv/Conv2D/ReadVariableOp", "shape": [1, 1, 480, 20], "dtype": "float32"}, {"name": "StatefulPartitionedCall/EfficientNetV1B1/stack_3_block3_se_1_conv/BiasAdd/ReadVariableOp", "shape": [20], "dtype": "float32"}, {"name": "StatefulPartitionedCall/EfficientNetV1B1/stack_3_block3_se_2_conv/Conv2D/ReadVariableOp", "shape": [1, 1, 20, 480], "dtype": "float32"}, {"name": "StatefulPartitionedCall/EfficientNetV1B1/stack_3_block3_se_2_conv/BiasAdd/ReadVariableOp", "shape": [480], "dtype": "float32"}, {"name": "StatefulPartitionedCall/EfficientNetV1B1/tf.math.reduce_mean_61/Mean/reduction_indices", "shape": [2], "dtype": "int32"}, {"name": "StatefulPartitionedCall/EfficientNetV1B1/stack_4_block0_se_1_conv/Conv2D/ReadVariableOp", "shape": [1, 1, 480, 20], "dtype": "float32"}, {"name": "StatefulPartitionedCall/EfficientNetV1B1/stack_4_block0_se_1_conv/BiasAdd/ReadVariableOp", "shape": [20], "dtype": "float32"}, {"name": "StatefulPartitionedCall/EfficientNetV1B1/stack_4_block0_se_2_conv/Conv2D/ReadVariableOp", "shape": [1, 1, 20, 480], "dtype": "float32"}, {"name": "StatefulPartitionedCall/EfficientNetV1B1/stack_4_block0_se_2_conv/BiasAdd/ReadVariableOp", "shape": [480], "dtype": "float32"}, {"name": "StatefulPartitionedCall/EfficientNetV1B1/tf.math.reduce_mean_62/Mean/reduction_indices", "shape": [2], "dtype": "int32"}, {"name": "StatefulPartitionedCall/EfficientNetV1B1/stack_4_block1_se_1_conv/Conv2D/ReadVariableOp", "shape": [1, 1, 672, 28], "dtype": "float32"}, {"name": "StatefulPartitionedCall/EfficientNetV1B1/stack_4_block1_se_1_conv/BiasAdd/ReadVariableOp", "shape": [28], "dtype": "float32"}, {"name": "StatefulPartitionedCall/EfficientNetV1B1/stack_4_block1_se_2_conv/Conv2D/ReadVariableOp", "shape": [1, 1, 28, 672], "dtype": "float32"}, {"name": "StatefulPartitionedCall/EfficientNetV1B1/stack_4_block1_se_2_conv/BiasAdd/ReadVariableOp", "shape": [672], "dtype": "float32"}, {"name": "StatefulPartitionedCall/EfficientNetV1B1/tf.math.reduce_mean_63/Mean/reduction_indices", "shape": [2], "dtype": "int32"}, {"name": "StatefulPartitionedCall/EfficientNetV1B1/stack_4_block2_se_1_conv/Conv2D/ReadVariableOp", "shape": [1, 1, 672, 28], "dtype": "float32"}, {"name": "StatefulPartitionedCall/EfficientNetV1B1/stack_4_block2_se_1_conv/BiasAdd/ReadVariableOp", "shape": [28], "dtype": "float32"}, {"name": "StatefulPartitionedCall/EfficientNetV1B1/stack_4_block2_se_2_conv/Conv2D/ReadVariableOp", "shape": [1, 1, 28, 672], "dtype": "float32"}, {"name": "StatefulPartitionedCall/EfficientNetV1B1/stack_4_block2_se_2_conv/BiasAdd/ReadVariableOp", "shape": [672], "dtype": "float32"}, {"name": "StatefulPartitionedCall/EfficientNetV1B1/tf.math.reduce_mean_64/Mean/reduction_indices", "shape": [2], "dtype": "int32"}, {"name": "StatefulPartitionedCall/EfficientNetV1B1/stack_4_block3_se_1_conv/Conv2D/ReadVariableOp", "shape": [1, 1, 672, 28], "dtype": "float32"}, {"name": "StatefulPartitionedCall/EfficientNetV1B1/stack_4_block3_se_1_conv/BiasAdd/ReadVariableOp", "shape": [28], "dtype": "float32"}, {"name": "StatefulPartitionedCall/EfficientNetV1B1/stack_4_block3_se_2_conv/Conv2D/ReadVariableOp", "shape": [1, 1, 28, 672], "dtype": "float32"}, {"name": "StatefulPartitionedCall/EfficientNetV1B1/stack_4_block3_se_2_conv/BiasAdd/ReadVariableOp", "shape": [672], "dtype": "float32"}, {"name": "StatefulPartitionedCall/EfficientNetV1B1/tf.math.reduce_mean_65/Mean/reduction_indices", "shape": [2], "dtype": "int32"}, {"name": "StatefulPartitionedCall/EfficientNetV1B1/stack_5_block0_se_1_conv/Conv2D/ReadVariableOp", "shape": [1, 1, 672, 28], "dtype": "float32"}, {"name": "StatefulPartitionedCall/EfficientNetV1B1/stack_5_block0_se_1_conv/BiasAdd/ReadVariableOp", "shape": [28], "dtype": "float32"}, {"name": "StatefulPartitionedCall/EfficientNetV1B1/stack_5_block0_se_2_conv/Conv2D/ReadVariableOp", "shape": [1, 1, 28, 672], "dtype": "float32"}, {"name": "StatefulPartitionedCall/EfficientNetV1B1/stack_5_block0_se_2_conv/BiasAdd/ReadVariableOp", "shape": [672], "dtype": "float32"}, {"name": "StatefulPartitionedCall/EfficientNetV1B1/tf.math.reduce_mean_66/Mean/reduction_indices", "shape": [2], "dtype": "int32"}, {"name": "StatefulPartitionedCall/EfficientNetV1B1/stack_5_block1_se_1_conv/Conv2D/ReadVariableOp", "shape": [1, 1, 1152, 48], "dtype": "float32"}, {"name": "StatefulPartitionedCall/EfficientNetV1B1/stack_5_block1_se_1_conv/BiasAdd/ReadVariableOp", "shape": [48], "dtype": "float32"}, {"name": "StatefulPartitionedCall/EfficientNetV1B1/stack_5_block1_se_2_conv/Conv2D/ReadVariableOp", "shape": [1, 1, 48, 1152], "dtype": "float32"}, {"name": "StatefulPartitionedCall/EfficientNetV1B1/stack_5_block1_se_2_conv/BiasAdd/ReadVariableOp", "shape": [1152], "dtype": "float32"}, {"name": "StatefulPartitionedCall/EfficientNetV1B1/tf.math.reduce_mean_67/Mean/reduction_indices", "shape": [2], "dtype": "int32"}, {"name": "StatefulPartitionedCall/EfficientNetV1B1/stack_5_block2_se_1_conv/Conv2D/ReadVariableOp", "shape": [1, 1, 1152, 48], "dtype": "float32"}, {"name": "StatefulPartitionedCall/EfficientNetV1B1/stack_5_block2_se_1_conv/BiasAdd/ReadVariableOp", "shape": [48], "dtype": "float32"}, {"name": "StatefulPartitionedCall/EfficientNetV1B1/stack_5_block2_se_2_conv/Conv2D/ReadVariableOp", "shape": [1, 1, 48, 1152], "dtype": "float32"}, {"name": "StatefulPartitionedCall/EfficientNetV1B1/stack_5_block2_se_2_conv/BiasAdd/ReadVariableOp", "shape": [1152], "dtype": "float32"}, {"name": "StatefulPartitionedCall/EfficientNetV1B1/tf.math.reduce_mean_68/Mean/reduction_indices", "shape": [2], "dtype": "int32"}, {"name": "StatefulPartitionedCall/EfficientNetV1B1/stack_5_block3_se_1_conv/Conv2D/ReadVariableOp", "shape": [1, 1, 1152, 48], "dtype": "float32"}, {"name": "StatefulPartitionedCall/EfficientNetV1B1/stack_5_block3_se_1_conv/BiasAdd/ReadVariableOp", "shape": [48], "dtype": "float32"}, {"name": "StatefulPartitionedCall/EfficientNetV1B1/stack_5_block3_se_2_conv/Conv2D/ReadVariableOp", "shape": [1, 1, 48, 1152], "dtype": "float32"}, {"name": "StatefulPartitionedCall/EfficientNetV1B1/stack_5_block3_se_2_conv/BiasAdd/ReadVariableOp", "shape": [1152], "dtype": "float32"}, {"name": "StatefulPartitionedCall/EfficientNetV1B1/tf.math.reduce_mean_69/Mean/reduction_indices", "shape": [2], "dtype": "int32"}, {"name": "StatefulPartitionedCall/EfficientNetV1B1/stack_5_block4_se_1_conv/Conv2D/ReadVariableOp", "shape": [1, 1, 1152, 48], "dtype": "float32"}, {"name": "StatefulPartitionedCall/EfficientNetV1B1/stack_5_block4_se_1_conv/BiasAdd/ReadVariableOp", "shape": [48], "dtype": "float32"}, {"name": "StatefulPartitionedCall/EfficientNetV1B1/stack_5_block4_se_2_conv/Conv2D/ReadVariableOp", "shape": [1, 1, 48, 1152], "dtype": "float32"}, {"name": "StatefulPartitionedCall/EfficientNetV1B1/stack_5_block4_se_2_conv/BiasAdd/ReadVariableOp", "shape": [1152], "dtype": "float32"}, {"name": "StatefulPartitionedCall/EfficientNetV1B1/tf.math.reduce_mean_70/Mean/reduction_indices", "shape": [2], "dtype": "int32"}, {"name": "StatefulPartitionedCall/EfficientNetV1B1/stack_6_block0_se_1_conv/Conv2D/ReadVariableOp", "shape": [1, 1, 1152, 48], "dtype": "float32"}, {"name": "StatefulPartitionedCall/EfficientNetV1B1/stack_6_block0_se_1_conv/BiasAdd/ReadVariableOp", "shape": [48], "dtype": "float32"}, {"name": "StatefulPartitionedCall/EfficientNetV1B1/stack_6_block0_se_2_conv/Conv2D/ReadVariableOp", "shape": [1, 1, 48, 1152], "dtype": "float32"}, {"name": "StatefulPartitionedCall/EfficientNetV1B1/stack_6_block0_se_2_conv/BiasAdd/ReadVariableOp", "shape": [1152], "dtype": "float32"}, {"name": "StatefulPartitionedCall/EfficientNetV1B1/tf.math.reduce_mean_71/Mean/reduction_indices", "shape": [2], "dtype": "int32"}, {"name": "StatefulPartitionedCall/EfficientNetV1B1/stack_6_block1_se_1_conv/Conv2D/ReadVariableOp", "shape": [1, 1, 1920, 80], "dtype": "float32"}, {"name": "StatefulPartitionedCall/EfficientNetV1B1/stack_6_block1_se_1_conv/BiasAdd/ReadVariableOp", "shape": [80], "dtype": "float32"}, {"name": "StatefulPartitionedCall/EfficientNetV1B1/stack_6_block1_se_2_conv/Conv2D/ReadVariableOp", "shape": [1, 1, 80, 1920], "dtype": "float32"}, {"name": "StatefulPartitionedCall/EfficientNetV1B1/stack_6_block1_se_2_conv/BiasAdd/ReadVariableOp", "shape": [1920], "dtype": "float32"}, {"name": "StatefulPartitionedCall/EfficientNetV1B1/avg_pool/Mean/reduction_indices", "shape": [2], "dtype": "int32"}, {"name": "StatefulPartitionedCall/EfficientNetV1B1/predictions/MatMul/ReadVariableOp", "shape": [1280, 76], "dtype": "float32"}, {"name": "StatefulPartitionedCall/EfficientNetV1B1/predictions/BiasAdd/ReadVariableOp", "shape": [76], "dtype": "float32"}, {"name": "StatefulPartitionedCall/EfficientNetV1B1/stem_conv/Conv2D_weights", "shape": [3, 3, 3, 32], "dtype": "float32"}, {"name": "StatefulPartitionedCall/EfficientNetV1B1/stack_5_block3_MB_pw_conv/Conv2D_weights", "shape": [1, 1, 1152, 192], "dtype": "float32"}, {"name": "StatefulPartitionedCall/EfficientNetV1B1/stem_conv/Conv2D_bn_offset", "shape": [32], "dtype": "float32"}, {"name": "StatefulPartitionedCall/EfficientNetV1B1/stack_0_block0_MB_dw_/depthwise_weights", "shape": [3, 3, 32, 1], "dtype": "float32"}, {"name": "StatefulPartitionedCall/EfficientNetV1B1/stack_0_block0_MB_dw_/depthwise_bn_offset", "shape": [32], "dtype": "float32"}, {"name": "StatefulPartitionedCall/EfficientNetV1B1/stack_5_block3_MB_pw_conv/Conv2D_bn_offset", "shape": [192], "dtype": "float32"}, {"name": "StatefulPartitionedCall/EfficientNetV1B1/stack_0_block0_MB_pw_conv/Conv2D_weights", "shape": [1, 1, 32, 16], "dtype": "float32"}, {"name": "StatefulPartitionedCall/EfficientNetV1B1/stack_0_block0_MB_pw_conv/Conv2D_bn_offset", "shape": [16], "dtype": "float32"}, {"name": "StatefulPartitionedCall/EfficientNetV1B1/stack_0_block1_MB_dw_/depthwise_weights", "shape": [3, 3, 16, 1], "dtype": "float32"}, {"name": "StatefulPartitionedCall/EfficientNetV1B1/stack_0_block1_MB_dw_/depthwise_bn_offset", "shape": [16], "dtype": "float32"}, {"name": "StatefulPartitionedCall/EfficientNetV1B1/stack_5_block4_sortcut_conv/Conv2D_weights", "shape": [1, 1, 192, 1152], "dtype": "float32"}, {"name": "StatefulPartitionedCall/EfficientNetV1B1/stack_0_block1_MB_pw_conv/Conv2D_weights", "shape": [1, 1, 16, 16], "dtype": "float32"}, {"name": "StatefulPartitionedCall/EfficientNetV1B1/stack_6_block1_MB_pw_conv/Conv2D_bn_offset", "shape": [320], "dtype": "float32"}, {"name": "StatefulPartitionedCall/EfficientNetV1B1/stack_0_block1_MB_pw_conv/Conv2D_bn_offset", "shape": [16], "dtype": "float32"}, {"name": "StatefulPartitionedCall/EfficientNetV1B1/stack_1_block0_sortcut_conv/Conv2D_weights", "shape": [1, 1, 16, 96], "dtype": "float32"}, {"name": "StatefulPartitionedCall/EfficientNetV1B1/stack_5_block4_sortcut_conv/Conv2D_bn_offset", "shape": [1152], "dtype": "float32"}, {"name": "StatefulPartitionedCall/EfficientNetV1B1/stack_1_block0_sortcut_conv/Conv2D_bn_offset", "shape": [96], "dtype": "float32"}, {"name": "StatefulPartitionedCall/EfficientNetV1B1/stack_1_block0_MB_dw_/depthwise_weights", "shape": [3, 3, 96, 1], "dtype": "float32"}, {"name": "StatefulPartitionedCall/EfficientNetV1B1/stack_1_block0_MB_dw_/depthwise_bn_offset", "shape": [96], "dtype": "float32"}, {"name": "StatefulPartitionedCall/EfficientNetV1B1/stack_1_block0_MB_pw_conv/Conv2D_weights", "shape": [1, 1, 96, 24], "dtype": "float32"}, {"name": "StatefulPartitionedCall/EfficientNetV1B1/stack_1_block0_MB_pw_conv/Conv2D_bn_offset", "shape": [24], "dtype": "float32"}, {"name": "StatefulPartitionedCall/EfficientNetV1B1/stack_1_block1_sortcut_conv/Conv2D_weights", "shape": [1, 1, 24, 144], "dtype": "float32"}, {"name": "StatefulPartitionedCall/EfficientNetV1B1/stack_5_block4_MB_dw_/depthwise_weights", "shape": [5, 5, 1152, 1], "dtype": "float32"}, {"name": "StatefulPartitionedCall/EfficientNetV1B1/stack_1_block1_sortcut_conv/Conv2D_bn_offset", "shape": [144], "dtype": "float32"}, {"name": "StatefulPartitionedCall/EfficientNetV1B1/stack_1_block1_MB_dw_/depthwise_weights", "shape": [3, 3, 144, 1], "dtype": "float32"}, {"name": "StatefulPartitionedCall/EfficientNetV1B1/stack_1_block1_MB_dw_/depthwise_bn_offset", "shape": [144], "dtype": "float32"}, {"name": "StatefulPartitionedCall/EfficientNetV1B1/stack_5_block4_MB_dw_/depthwise_bn_offset", "shape": [1152], "dtype": "float32"}, {"name": "StatefulPartitionedCall/EfficientNetV1B1/stack_1_block1_MB_pw_conv/Conv2D_weights", "shape": [1, 1, 144, 24], "dtype": "float32"}, {"name": "StatefulPartitionedCall/EfficientNetV1B1/stack_1_block1_MB_pw_conv/Conv2D_bn_offset", "shape": [24], "dtype": "float32"}, {"name": "StatefulPartitionedCall/EfficientNetV1B1/stack_1_block2_sortcut_conv/Conv2D_weights", "shape": [1, 1, 24, 144], "dtype": "float32"}, {"name": "StatefulPartitionedCall/EfficientNetV1B1/stack_1_block2_sortcut_conv/Conv2D_bn_offset", "shape": [144], "dtype": "float32"}, {"name": "StatefulPartitionedCall/EfficientNetV1B1/stack_1_block2_MB_dw_/depthwise_weights", "shape": [3, 3, 144, 1], "dtype": "float32"}, {"name": "StatefulPartitionedCall/EfficientNetV1B1/stack_1_block2_MB_dw_/depthwise_bn_offset", "shape": [144], "dtype": "float32"}, {"name": "StatefulPartitionedCall/EfficientNetV1B1/stack_1_block2_MB_pw_conv/Conv2D_weights", "shape": [1, 1, 144, 24], "dtype": "float32"}, {"name": "StatefulPartitionedCall/EfficientNetV1B1/stack_1_block2_MB_pw_conv/Conv2D_bn_offset", "shape": [24], "dtype": "float32"}, {"name": "StatefulPartitionedCall/EfficientNetV1B1/stack_2_block0_sortcut_conv/Conv2D_weights", "shape": [1, 1, 24, 144], "dtype": "float32"}, {"name": "StatefulPartitionedCall/EfficientNetV1B1/stack_2_block0_sortcut_conv/Conv2D_bn_offset", "shape": [144], "dtype": "float32"}, {"name": "StatefulPartitionedCall/EfficientNetV1B1/stack_2_block0_MB_dw_/depthwise_weights", "shape": [5, 5, 144, 1], "dtype": "float32"}, {"name": "StatefulPartitionedCall/EfficientNetV1B1/stack_2_block0_MB_dw_/depthwise_bn_offset", "shape": [144], "dtype": "float32"}, {"name": "StatefulPartitionedCall/EfficientNetV1B1/stack_2_block0_MB_pw_conv/Conv2D_weights", "shape": [1, 1, 144, 40], "dtype": "float32"}, {"name": "StatefulPartitionedCall/EfficientNetV1B1/stack_2_block0_MB_pw_conv/Conv2D_bn_offset", "shape": [40], "dtype": "float32"}, {"name": "StatefulPartitionedCall/EfficientNetV1B1/stack_2_block1_sortcut_conv/Conv2D_weights", "shape": [1, 1, 40, 240], "dtype": "float32"}, {"name": "StatefulPartitionedCall/EfficientNetV1B1/stack_2_block1_sortcut_conv/Conv2D_bn_offset", "shape": [240], "dtype": "float32"}, {"name": "StatefulPartitionedCall/EfficientNetV1B1/stack_2_block1_MB_dw_/depthwise_weights", "shape": [5, 5, 240, 1], "dtype": "float32"}, {"name": "StatefulPartitionedCall/EfficientNetV1B1/stack_2_block1_MB_dw_/depthwise_bn_offset", "shape": [240], "dtype": "float32"}, {"name": "StatefulPartitionedCall/EfficientNetV1B1/stack_2_block1_MB_pw_conv/Conv2D_weights", "shape": [1, 1, 240, 40], "dtype": "float32"}, {"name": "StatefulPartitionedCall/EfficientNetV1B1/stack_5_block4_MB_pw_conv/Conv2D_weights", "shape": [1, 1, 1152, 192], "dtype": "float32"}, {"name": "StatefulPartitionedCall/EfficientNetV1B1/stack_2_block1_MB_pw_conv/Conv2D_bn_offset", "shape": [40], "dtype": "float32"}, {"name": "StatefulPartitionedCall/EfficientNetV1B1/stack_2_block2_sortcut_conv/Conv2D_weights", "shape": [1, 1, 40, 240], "dtype": "float32"}, {"name": "StatefulPartitionedCall/EfficientNetV1B1/post_conv/Conv2D_weights", "shape": [1, 1, 320, 1280], "dtype": "float32"}, {"name": "StatefulPartitionedCall/EfficientNetV1B1/stack_2_block2_sortcut_conv/Conv2D_bn_offset", "shape": [240], "dtype": "float32"}, {"name": "StatefulPartitionedCall/EfficientNetV1B1/stack_2_block2_MB_dw_/depthwise_weights", "shape": [5, 5, 240, 1], "dtype": "float32"}, {"name": "StatefulPartitionedCall/EfficientNetV1B1/stack_2_block2_MB_dw_/depthwise_bn_offset", "shape": [240], "dtype": "float32"}, {"name": "StatefulPartitionedCall/EfficientNetV1B1/stack_5_block4_MB_pw_conv/Conv2D_bn_offset", "shape": [192], "dtype": "float32"}, {"name": "StatefulPartitionedCall/EfficientNetV1B1/stack_2_block2_MB_pw_conv/Conv2D_weights", "shape": [1, 1, 240, 40], "dtype": "float32"}, {"name": "StatefulPartitionedCall/EfficientNetV1B1/stack_2_block2_MB_pw_conv/Conv2D_bn_offset", "shape": [40], "dtype": "float32"}, {"name": "StatefulPartitionedCall/EfficientNetV1B1/stack_3_block0_sortcut_conv/Conv2D_weights", "shape": [1, 1, 40, 240], "dtype": "float32"}, {"name": "StatefulPartitionedCall/EfficientNetV1B1/stack_6_block0_sortcut_conv/Conv2D_weights", "shape": [1, 1, 192, 1152], "dtype": "float32"}, {"name": "StatefulPartitionedCall/EfficientNetV1B1/stack_3_block0_sortcut_conv/Conv2D_bn_offset", "shape": [240], "dtype": "float32"}, {"name": "StatefulPartitionedCall/EfficientNetV1B1/stack_3_block0_MB_dw_/depthwise_weights", "shape": [3, 3, 240, 1], "dtype": "float32"}, {"name": "StatefulPartitionedCall/EfficientNetV1B1/stack_3_block0_MB_dw_/depthwise_bn_offset", "shape": [240], "dtype": "float32"}, {"name": "StatefulPartitionedCall/EfficientNetV1B1/stack_6_block0_sortcut_conv/Conv2D_bn_offset", "shape": [1152], "dtype": "float32"}, {"name": "StatefulPartitionedCall/EfficientNetV1B1/stack_3_block0_MB_pw_conv/Conv2D_weights", "shape": [1, 1, 240, 80], "dtype": "float32"}, {"name": "StatefulPartitionedCall/EfficientNetV1B1/stack_3_block0_MB_pw_conv/Conv2D_bn_offset", "shape": [80], "dtype": "float32"}, {"name": "StatefulPartitionedCall/EfficientNetV1B1/stack_3_block1_sortcut_conv/Conv2D_weights", "shape": [1, 1, 80, 480], "dtype": "float32"}, {"name": "StatefulPartitionedCall/EfficientNetV1B1/stack_3_block1_sortcut_conv/Conv2D_bn_offset", "shape": [480], "dtype": "float32"}, {"name": "StatefulPartitionedCall/EfficientNetV1B1/stack_3_block1_MB_dw_/depthwise_weights", "shape": [3, 3, 480, 1], "dtype": "float32"}, {"name": "StatefulPartitionedCall/EfficientNetV1B1/stack_3_block1_MB_dw_/depthwise_bn_offset", "shape": [480], "dtype": "float32"}, {"name": "StatefulPartitionedCall/EfficientNetV1B1/stack_6_block0_MB_dw_/depthwise_weights", "shape": [3, 3, 1152, 1], "dtype": "float32"}, {"name": "StatefulPartitionedCall/EfficientNetV1B1/stack_3_block1_MB_pw_conv/Conv2D_weights", "shape": [1, 1, 480, 80], "dtype": "float32"}, {"name": "StatefulPartitionedCall/EfficientNetV1B1/stack_3_block1_MB_pw_conv/Conv2D_bn_offset", "shape": [80], "dtype": "float32"}, {"name": "StatefulPartitionedCall/EfficientNetV1B1/stack_3_block2_sortcut_conv/Conv2D_weights", "shape": [1, 1, 80, 480], "dtype": "float32"}, {"name": "StatefulPartitionedCall/EfficientNetV1B1/stack_6_block0_MB_dw_/depthwise_bn_offset", "shape": [1152], "dtype": "float32"}, {"name": "StatefulPartitionedCall/EfficientNetV1B1/stack_3_block2_sortcut_conv/Conv2D_bn_offset", "shape": [480], "dtype": "float32"}, {"name": "StatefulPartitionedCall/EfficientNetV1B1/stack_3_block2_MB_dw_/depthwise_weights", "shape": [3, 3, 480, 1], "dtype": "float32"}, {"name": "StatefulPartitionedCall/EfficientNetV1B1/stack_3_block2_MB_dw_/depthwise_bn_offset", "shape": [480], "dtype": "float32"}, {"name": "StatefulPartitionedCall/EfficientNetV1B1/stack_3_block2_MB_pw_conv/Conv2D_weights", "shape": [1, 1, 480, 80], "dtype": "float32"}, {"name": "StatefulPartitionedCall/EfficientNetV1B1/stack_3_block2_MB_pw_conv/Conv2D_bn_offset", "shape": [80], "dtype": "float32"}, {"name": "StatefulPartitionedCall/EfficientNetV1B1/stack_3_block3_sortcut_conv/Conv2D_weights", "shape": [1, 1, 80, 480], "dtype": "float32"}, {"name": "StatefulPartitionedCall/EfficientNetV1B1/stack_3_block3_sortcut_conv/Conv2D_bn_offset", "shape": [480], "dtype": "float32"}, {"name": "StatefulPartitionedCall/EfficientNetV1B1/stack_3_block3_MB_dw_/depthwise_weights", "shape": [3, 3, 480, 1], "dtype": "float32"}, {"name": "StatefulPartitionedCall/EfficientNetV1B1/stack_3_block3_MB_dw_/depthwise_bn_offset", "shape": [480], "dtype": "float32"}, {"name": "StatefulPartitionedCall/EfficientNetV1B1/post_conv/Conv2D_bn_offset", "shape": [1280], "dtype": "float32"}, {"name": "StatefulPartitionedCall/EfficientNetV1B1/stack_3_block3_MB_pw_conv/Conv2D_weights", "shape": [1, 1, 480, 80], "dtype": "float32"}, {"name": "StatefulPartitionedCall/EfficientNetV1B1/stack_3_block3_MB_pw_conv/Conv2D_bn_offset", "shape": [80], "dtype": "float32"}, {"name": "StatefulPartitionedCall/EfficientNetV1B1/stack_4_block0_sortcut_conv/Conv2D_weights", "shape": [1, 1, 80, 480], "dtype": "float32"}, {"name": "StatefulPartitionedCall/EfficientNetV1B1/stack_4_block0_sortcut_conv/Conv2D_bn_offset", "shape": [480], "dtype": "float32"}, {"name": "StatefulPartitionedCall/EfficientNetV1B1/stack_4_block0_MB_dw_/depthwise_weights", "shape": [5, 5, 480, 1], "dtype": "float32"}, {"name": "StatefulPartitionedCall/EfficientNetV1B1/stack_4_block0_MB_dw_/depthwise_bn_offset", "shape": [480], "dtype": "float32"}, {"name": "StatefulPartitionedCall/EfficientNetV1B1/stack_4_block0_MB_pw_conv/Conv2D_weights", "shape": [1, 1, 480, 112], "dtype": "float32"}, {"name": "StatefulPartitionedCall/EfficientNetV1B1/stack_4_block0_MB_pw_conv/Conv2D_bn_offset", "shape": [112], "dtype": "float32"}, {"name": "StatefulPartitionedCall/EfficientNetV1B1/stack_4_block1_sortcut_conv/Conv2D_weights", "shape": [1, 1, 112, 672], "dtype": "float32"}, {"name": "StatefulPartitionedCall/EfficientNetV1B1/stack_4_block1_sortcut_conv/Conv2D_bn_offset", "shape": [672], "dtype": "float32"}, {"name": "StatefulPartitionedCall/EfficientNetV1B1/stack_4_block1_MB_dw_/depthwise_weights", "shape": [5, 5, 672, 1], "dtype": "float32"}, {"name": "StatefulPartitionedCall/EfficientNetV1B1/stack_4_block1_MB_dw_/depthwise_bn_offset", "shape": [672], "dtype": "float32"}, {"name": "StatefulPartitionedCall/EfficientNetV1B1/stack_6_block0_MB_pw_conv/Conv2D_weights", "shape": [1, 1, 1152, 320], "dtype": "float32"}, {"name": "StatefulPartitionedCall/EfficientNetV1B1/stack_4_block1_MB_pw_conv/Conv2D_weights", "shape": [1, 1, 672, 112], "dtype": "float32"}, {"name": "StatefulPartitionedCall/EfficientNetV1B1/stack_6_block0_MB_pw_conv/Conv2D_bn_offset", "shape": [320], "dtype": "float32"}, {"name": "StatefulPartitionedCall/EfficientNetV1B1/stack_4_block1_MB_pw_conv/Conv2D_bn_offset", "shape": [112], "dtype": "float32"}, {"name": "StatefulPartitionedCall/EfficientNetV1B1/stack_4_block2_sortcut_conv/Conv2D_weights", "shape": [1, 1, 112, 672], "dtype": "float32"}, {"name": "StatefulPartitionedCall/EfficientNetV1B1/stack_4_block2_sortcut_conv/Conv2D_bn_offset", "shape": [672], "dtype": "float32"}, {"name": "StatefulPartitionedCall/EfficientNetV1B1/stack_4_block2_MB_dw_/depthwise_weights", "shape": [5, 5, 672, 1], "dtype": "float32"}, {"name": "StatefulPartitionedCall/EfficientNetV1B1/stack_4_block2_MB_dw_/depthwise_bn_offset", "shape": [672], "dtype": "float32"}, {"name": "StatefulPartitionedCall/EfficientNetV1B1/stack_6_block1_sortcut_conv/Conv2D_weights", "shape": [1, 1, 320, 1920], "dtype": "float32"}, {"name": "StatefulPartitionedCall/EfficientNetV1B1/stack_4_block2_MB_pw_conv/Conv2D_weights", "shape": [1, 1, 672, 112], "dtype": "float32"}, {"name": "StatefulPartitionedCall/EfficientNetV1B1/stack_6_block1_sortcut_conv/Conv2D_bn_offset", "shape": [1920], "dtype": "float32"}, {"name": "StatefulPartitionedCall/EfficientNetV1B1/stack_4_block2_MB_pw_conv/Conv2D_bn_offset", "shape": [112], "dtype": "float32"}, {"name": "StatefulPartitionedCall/EfficientNetV1B1/stack_4_block3_sortcut_conv/Conv2D_weights", "shape": [1, 1, 112, 672], "dtype": "float32"}, {"name": "StatefulPartitionedCall/EfficientNetV1B1/stack_4_block3_sortcut_conv/Conv2D_bn_offset", "shape": [672], "dtype": "float32"}, {"name": "StatefulPartitionedCall/EfficientNetV1B1/stack_4_block3_MB_dw_/depthwise_weights", "shape": [5, 5, 672, 1], "dtype": "float32"}, {"name": "StatefulPartitionedCall/EfficientNetV1B1/stack_4_block3_MB_dw_/depthwise_bn_offset", "shape": [672], "dtype": "float32"}, {"name": "StatefulPartitionedCall/EfficientNetV1B1/stack_4_block3_MB_pw_conv/Conv2D_weights", "shape": [1, 1, 672, 112], "dtype": "float32"}, {"name": "StatefulPartitionedCall/EfficientNetV1B1/stack_6_block1_MB_dw_/depthwise_weights", "shape": [3, 3, 1920, 1], "dtype": "float32"}, {"name": "StatefulPartitionedCall/EfficientNetV1B1/stack_4_block3_MB_pw_conv/Conv2D_bn_offset", "shape": [112], "dtype": "float32"}, {"name": "StatefulPartitionedCall/EfficientNetV1B1/stack_5_block0_sortcut_conv/Conv2D_weights", "shape": [1, 1, 112, 672], "dtype": "float32"}, {"name": "StatefulPartitionedCall/EfficientNetV1B1/stack_5_block0_sortcut_conv/Conv2D_bn_offset", "shape": [672], "dtype": "float32"}, {"name": "StatefulPartitionedCall/EfficientNetV1B1/stack_5_block0_MB_dw_/depthwise_weights", "shape": [5, 5, 672, 1], "dtype": "float32"}, {"name": "StatefulPartitionedCall/EfficientNetV1B1/stack_5_block0_MB_dw_/depthwise_bn_offset", "shape": [672], "dtype": "float32"}, {"name": "StatefulPartitionedCall/EfficientNetV1B1/stack_6_block1_MB_dw_/depthwise_bn_offset", "shape": [1920], "dtype": "float32"}, {"name": "StatefulPartitionedCall/EfficientNetV1B1/stack_5_block0_MB_pw_conv/Conv2D_weights", "shape": [1, 1, 672, 192], "dtype": "float32"}, {"name": "StatefulPartitionedCall/EfficientNetV1B1/stack_5_block0_MB_pw_conv/Conv2D_bn_offset", "shape": [192], "dtype": "float32"}, {"name": "StatefulPartitionedCall/EfficientNetV1B1/stack_5_block1_sortcut_conv/Conv2D_weights", "shape": [1, 1, 192, 1152], "dtype": "float32"}, {"name": "StatefulPartitionedCall/EfficientNetV1B1/stack_5_block1_sortcut_conv/Conv2D_bn_offset", "shape": [1152], "dtype": "float32"}, {"name": "StatefulPartitionedCall/EfficientNetV1B1/stack_5_block1_MB_dw_/depthwise_weights", "shape": [5, 5, 1152, 1], "dtype": "float32"}, {"name": "StatefulPartitionedCall/EfficientNetV1B1/stack_5_block1_MB_dw_/depthwise_bn_offset", "shape": [1152], "dtype": "float32"}, {"name": "StatefulPartitionedCall/EfficientNetV1B1/stack_5_block1_MB_pw_conv/Conv2D_weights", "shape": [1, 1, 1152, 192], "dtype": "float32"}, {"name": "StatefulPartitionedCall/EfficientNetV1B1/stack_5_block1_MB_pw_conv/Conv2D_bn_offset", "shape": [192], "dtype": "float32"}, {"name": "StatefulPartitionedCall/EfficientNetV1B1/stack_5_block2_sortcut_conv/Conv2D_weights", "shape": [1, 1, 192, 1152], "dtype": "float32"}, {"name": "StatefulPartitionedCall/EfficientNetV1B1/stack_5_block2_sortcut_conv/Conv2D_bn_offset", "shape": [1152], "dtype": "float32"}, {"name": "StatefulPartitionedCall/EfficientNetV1B1/stack_5_block2_MB_dw_/depthwise_weights", "shape": [5, 5, 1152, 1], "dtype": "float32"}, {"name": "StatefulPartitionedCall/EfficientNetV1B1/stack_5_block2_MB_dw_/depthwise_bn_offset", "shape": [1152], "dtype": "float32"}, {"name": "StatefulPartitionedCall/EfficientNetV1B1/stack_5_block2_MB_pw_conv/Conv2D_weights", "shape": [1, 1, 1152, 192], "dtype": "float32"}, {"name": "StatefulPartitionedCall/EfficientNetV1B1/stack_5_block2_MB_pw_conv/Conv2D_bn_offset", "shape": [192], "dtype": "float32"}, {"name": "StatefulPartitionedCall/EfficientNetV1B1/stack_5_block3_sortcut_conv/Conv2D_weights", "shape": [1, 1, 192, 1152], "dtype": "float32"}, {"name": "StatefulPartitionedCall/EfficientNetV1B1/stack_5_block3_sortcut_conv/Conv2D_bn_offset", "shape": [1152], "dtype": "float32"}, {"name": "StatefulPartitionedCall/EfficientNetV1B1/stack_5_block3_MB_dw_/depthwise_weights", "shape": [5, 5, 1152, 1], "dtype": "float32"}, {"name": "StatefulPartitionedCall/EfficientNetV1B1/stack_5_block3_MB_dw_/depthwise_bn_offset", "shape": [1152], "dtype": "float32"}, {"name": "StatefulPartitionedCall/EfficientNetV1B1/stack_6_block1_MB_pw_conv/Conv2D_weights", "shape": [1, 1, 1920, 320], "dtype": "float32"}]}]}