{"format": "graph-model", "generatedBy": "2.6.0", "convertedBy": "TensorFlow.js Converter v3.9.0", "signature": {"inputs": {"input_1": {"name": "input_1:0", "dtype": "DT_FLOAT", "tensorShape": {"dim": [{"size": "-1"}, {"size": "300"}, {"size": "300"}, {"size": "3"}]}}}, "outputs": {"predictions": {"name": "Identity:0", "dtype": "DT_FLOAT", "tensorShape": {"dim": [{"size": "-1"}, {"size": "76"}]}}}}, "modelTopology": {"node": [{"name": "StatefulPartitionedCall/EfficientNetV1B3/tf.math.reduce_mean/Mean/reduction_indices", "op": "Const", "attr": {"dtype": {"type": "DT_INT32"}, "value": {"tensor": {"dtype": "DT_INT32", "tensorShape": {"dim": [{"size": "2"}]}}}}}, {"name": "StatefulPartitionedCall/EfficientNetV1B3/stack_0_block0_se_1_conv/Conv2D/ReadVariableOp", "op": "Const", "attr": {"dtype": {"type": "DT_FLOAT"}, "value": {"tensor": {"dtype": "DT_FLOAT", "tensorShape": {"dim": [{"size": "1"}, {"size": "1"}, {"size": "40"}, {"size": "10"}]}}}}}, {"name": "StatefulPartitionedCall/EfficientNetV1B3/stack_0_block0_se_1_conv/BiasAdd/ReadVariableOp", "op": "Const", "attr": {"dtype": {"type": "DT_FLOAT"}, "value": {"tensor": {"dtype": "DT_FLOAT", "tensorShape": {"dim": [{"size": "10"}]}}}}}, {"name": "StatefulPartitionedCall/EfficientNetV1B3/stack_0_block0_se_2_conv/Conv2D/ReadVariableOp", "op": "Const", "attr": {"dtype": {"type": "DT_FLOAT"}, "value": {"tensor": {"dtype": "DT_FLOAT", "tensorShape": {"dim": [{"size": "1"}, {"size": "1"}, {"size": "10"}, {"size": "40"}]}}}}}, {"name": "StatefulPartitionedCall/EfficientNetV1B3/stack_0_block0_se_2_conv/BiasAdd/ReadVariableOp", "op": "Const", "attr": {"dtype": {"type": "DT_FLOAT"}, "value": {"tensor": {"dtype": "DT_FLOAT", "tensorShape": {"dim": [{"size": "40"}]}}}}}, {"name": "StatefulPartitionedCall/EfficientNetV1B3/tf.math.reduce_mean_1/Mean/reduction_indices", "op": "Const", "attr": {"dtype": {"type": "DT_INT32"}, "value": {"tensor": {"dtype": "DT_INT32", "tensorShape": {"dim": [{"size": "2"}]}}}}}, {"name": "StatefulPartitionedCall/EfficientNetV1B3/stack_0_block1_se_1_conv/Conv2D/ReadVariableOp", "op": "Const", "attr": {"value": {"tensor": {"dtype": "DT_FLOAT", "tensorShape": {"dim": [{"size": "1"}, {"size": "1"}, {"size": "24"}, {"size": "6"}]}}}, "dtype": {"type": "DT_FLOAT"}}}, {"name": "StatefulPartitionedCall/EfficientNetV1B3/stack_0_block1_se_1_conv/BiasAdd/ReadVariableOp", "op": "Const", "attr": {"dtype": {"type": "DT_FLOAT"}, "value": {"tensor": {"dtype": "DT_FLOAT", "tensorShape": {"dim": [{"size": "6"}]}}}}}, {"name": "StatefulPartitionedCall/EfficientNetV1B3/stack_0_block1_se_2_conv/Conv2D/ReadVariableOp", "op": "Const", "attr": {"value": {"tensor": {"dtype": "DT_FLOAT", "tensorShape": {"dim": [{"size": "1"}, {"size": "1"}, {"size": "6"}, {"size": "24"}]}}}, "dtype": {"type": "DT_FLOAT"}}}, {"name": "StatefulPartitionedCall/EfficientNetV1B3/stack_0_block1_se_2_conv/BiasAdd/ReadVariableOp", "op": "Const", "attr": {"dtype": {"type": "DT_FLOAT"}, "value": {"tensor": {"dtype": "DT_FLOAT", "tensorShape": {"dim": [{"size": "24"}]}}}}}, {"name": "StatefulPartitionedCall/EfficientNetV1B3/tf.math.reduce_mean_2/Mean/reduction_indices", "op": "Const", "attr": {"value": {"tensor": {"dtype": "DT_INT32", "tensorShape": {"dim": [{"size": "2"}]}}}, "dtype": {"type": "DT_INT32"}}}, {"name": "StatefulPartitionedCall/EfficientNetV1B3/stack_1_block0_se_1_conv/Conv2D/ReadVariableOp", "op": "Const", "attr": {"dtype": {"type": "DT_FLOAT"}, "value": {"tensor": {"dtype": "DT_FLOAT", "tensorShape": {"dim": [{"size": "1"}, {"size": "1"}, {"size": "144"}, {"size": "6"}]}}}}}, {"name": "StatefulPartitionedCall/EfficientNetV1B3/stack_1_block0_se_1_conv/BiasAdd/ReadVariableOp", "op": "Const", "attr": {"dtype": {"type": "DT_FLOAT"}, "value": {"tensor": {"dtype": "DT_FLOAT", "tensorShape": {"dim": [{"size": "6"}]}}}}}, {"name": "StatefulPartitionedCall/EfficientNetV1B3/stack_1_block0_se_2_conv/Conv2D/ReadVariableOp", "op": "Const", "attr": {"dtype": {"type": "DT_FLOAT"}, "value": {"tensor": {"dtype": "DT_FLOAT", "tensorShape": {"dim": [{"size": "1"}, {"size": "1"}, {"size": "6"}, {"size": "144"}]}}}}}, {"name": "StatefulPartitionedCall/EfficientNetV1B3/stack_1_block0_se_2_conv/BiasAdd/ReadVariableOp", "op": "Const", "attr": {"value": {"tensor": {"dtype": "DT_FLOAT", "tensorShape": {"dim": [{"size": "144"}]}}}, "dtype": {"type": "DT_FLOAT"}}}, {"name": "StatefulPartitionedCall/EfficientNetV1B3/tf.math.reduce_mean_3/Mean/reduction_indices", "op": "Const", "attr": {"value": {"tensor": {"dtype": "DT_INT32", "tensorShape": {"dim": [{"size": "2"}]}}}, "dtype": {"type": "DT_INT32"}}}, {"name": "StatefulPartitionedCall/EfficientNetV1B3/stack_1_block1_se_1_conv/Conv2D/ReadVariableOp", "op": "Const", "attr": {"dtype": {"type": "DT_FLOAT"}, "value": {"tensor": {"dtype": "DT_FLOAT", "tensorShape": {"dim": [{"size": "1"}, {"size": "1"}, {"size": "192"}, {"size": "8"}]}}}}}, {"name": "StatefulPartitionedCall/EfficientNetV1B3/stack_1_block1_se_1_conv/BiasAdd/ReadVariableOp", "op": "Const", "attr": {"dtype": {"type": "DT_FLOAT"}, "value": {"tensor": {"dtype": "DT_FLOAT", "tensorShape": {"dim": [{"size": "8"}]}}}}}, {"name": "StatefulPartitionedCall/EfficientNetV1B3/stack_1_block1_se_2_conv/Conv2D/ReadVariableOp", "op": "Const", "attr": {"value": {"tensor": {"dtype": "DT_FLOAT", "tensorShape": {"dim": [{"size": "1"}, {"size": "1"}, {"size": "8"}, {"size": "192"}]}}}, "dtype": {"type": "DT_FLOAT"}}}, {"name": "StatefulPartitionedCall/EfficientNetV1B3/stack_1_block1_se_2_conv/BiasAdd/ReadVariableOp", "op": "Const", "attr": {"dtype": {"type": "DT_FLOAT"}, "value": {"tensor": {"dtype": "DT_FLOAT", "tensorShape": {"dim": [{"size": "192"}]}}}}}, {"name": "StatefulPartitionedCall/EfficientNetV1B3/tf.math.reduce_mean_4/Mean/reduction_indices", "op": "Const", "attr": {"dtype": {"type": "DT_INT32"}, "value": {"tensor": {"dtype": "DT_INT32", "tensorShape": {"dim": [{"size": "2"}]}}}}}, {"name": "StatefulPartitionedCall/EfficientNetV1B3/stack_1_block2_se_1_conv/Conv2D/ReadVariableOp", "op": "Const", "attr": {"value": {"tensor": {"dtype": "DT_FLOAT", "tensorShape": {"dim": [{"size": "1"}, {"size": "1"}, {"size": "192"}, {"size": "8"}]}}}, "dtype": {"type": "DT_FLOAT"}}}, {"name": "StatefulPartitionedCall/EfficientNetV1B3/stack_1_block2_se_1_conv/BiasAdd/ReadVariableOp", "op": "Const", "attr": {"dtype": {"type": "DT_FLOAT"}, "value": {"tensor": {"dtype": "DT_FLOAT", "tensorShape": {"dim": [{"size": "8"}]}}}}}, {"name": "StatefulPartitionedCall/EfficientNetV1B3/stack_1_block2_se_2_conv/Conv2D/ReadVariableOp", "op": "Const", "attr": {"dtype": {"type": "DT_FLOAT"}, "value": {"tensor": {"dtype": "DT_FLOAT", "tensorShape": {"dim": [{"size": "1"}, {"size": "1"}, {"size": "8"}, {"size": "192"}]}}}}}, {"name": "StatefulPartitionedCall/EfficientNetV1B3/stack_1_block2_se_2_conv/BiasAdd/ReadVariableOp", "op": "Const", "attr": {"dtype": {"type": "DT_FLOAT"}, "value": {"tensor": {"dtype": "DT_FLOAT", "tensorShape": {"dim": [{"size": "192"}]}}}}}, {"name": "StatefulPartitionedCall/EfficientNetV1B3/tf.math.reduce_mean_5/Mean/reduction_indices", "op": "Const", "attr": {"dtype": {"type": "DT_INT32"}, "value": {"tensor": {"dtype": "DT_INT32", "tensorShape": {"dim": [{"size": "2"}]}}}}}, {"name": "StatefulPartitionedCall/EfficientNetV1B3/stack_2_block0_se_1_conv/Conv2D/ReadVariableOp", "op": "Const", "attr": {"value": {"tensor": {"dtype": "DT_FLOAT", "tensorShape": {"dim": [{"size": "1"}, {"size": "1"}, {"size": "192"}, {"size": "8"}]}}}, "dtype": {"type": "DT_FLOAT"}}}, {"name": "StatefulPartitionedCall/EfficientNetV1B3/stack_2_block0_se_1_conv/BiasAdd/ReadVariableOp", "op": "Const", "attr": {"value": {"tensor": {"dtype": "DT_FLOAT", "tensorShape": {"dim": [{"size": "8"}]}}}, "dtype": {"type": "DT_FLOAT"}}}, {"name": "StatefulPartitionedCall/EfficientNetV1B3/stack_2_block0_se_2_conv/Conv2D/ReadVariableOp", "op": "Const", "attr": {"value": {"tensor": {"dtype": "DT_FLOAT", "tensorShape": {"dim": [{"size": "1"}, {"size": "1"}, {"size": "8"}, {"size": "192"}]}}}, "dtype": {"type": "DT_FLOAT"}}}, {"name": "StatefulPartitionedCall/EfficientNetV1B3/stack_2_block0_se_2_conv/BiasAdd/ReadVariableOp", "op": "Const", "attr": {"dtype": {"type": "DT_FLOAT"}, "value": {"tensor": {"dtype": "DT_FLOAT", "tensorShape": {"dim": [{"size": "192"}]}}}}}, {"name": "StatefulPartitionedCall/EfficientNetV1B3/tf.math.reduce_mean_6/Mean/reduction_indices", "op": "Const", "attr": {"dtype": {"type": "DT_INT32"}, "value": {"tensor": {"dtype": "DT_INT32", "tensorShape": {"dim": [{"size": "2"}]}}}}}, {"name": "StatefulPartitionedCall/EfficientNetV1B3/stack_2_block1_se_1_conv/Conv2D/ReadVariableOp", "op": "Const", "attr": {"value": {"tensor": {"dtype": "DT_FLOAT", "tensorShape": {"dim": [{"size": "1"}, {"size": "1"}, {"size": "288"}, {"size": "12"}]}}}, "dtype": {"type": "DT_FLOAT"}}}, {"name": "StatefulPartitionedCall/EfficientNetV1B3/stack_2_block1_se_1_conv/BiasAdd/ReadVariableOp", "op": "Const", "attr": {"dtype": {"type": "DT_FLOAT"}, "value": {"tensor": {"dtype": "DT_FLOAT", "tensorShape": {"dim": [{"size": "12"}]}}}}}, {"name": "StatefulPartitionedCall/EfficientNetV1B3/stack_2_block1_se_2_conv/Conv2D/ReadVariableOp", "op": "Const", "attr": {"dtype": {"type": "DT_FLOAT"}, "value": {"tensor": {"dtype": "DT_FLOAT", "tensorShape": {"dim": [{"size": "1"}, {"size": "1"}, {"size": "12"}, {"size": "288"}]}}}}}, {"name": "StatefulPartitionedCall/EfficientNetV1B3/stack_2_block1_se_2_conv/BiasAdd/ReadVariableOp", "op": "Const", "attr": {"value": {"tensor": {"dtype": "DT_FLOAT", "tensorShape": {"dim": [{"size": "288"}]}}}, "dtype": {"type": "DT_FLOAT"}}}, {"name": "StatefulPartitionedCall/EfficientNetV1B3/tf.math.reduce_mean_7/Mean/reduction_indices", "op": "Const", "attr": {"dtype": {"type": "DT_INT32"}, "value": {"tensor": {"dtype": "DT_INT32", "tensorShape": {"dim": [{"size": "2"}]}}}}}, {"name": "StatefulPartitionedCall/EfficientNetV1B3/stack_2_block2_se_1_conv/Conv2D/ReadVariableOp", "op": "Const", "attr": {"value": {"tensor": {"dtype": "DT_FLOAT", "tensorShape": {"dim": [{"size": "1"}, {"size": "1"}, {"size": "288"}, {"size": "12"}]}}}, "dtype": {"type": "DT_FLOAT"}}}, {"name": "StatefulPartitionedCall/EfficientNetV1B3/stack_2_block2_se_1_conv/BiasAdd/ReadVariableOp", "op": "Const", "attr": {"value": {"tensor": {"dtype": "DT_FLOAT", "tensorShape": {"dim": [{"size": "12"}]}}}, "dtype": {"type": "DT_FLOAT"}}}, {"name": "StatefulPartitionedCall/EfficientNetV1B3/stack_2_block2_se_2_conv/Conv2D/ReadVariableOp", "op": "Const", "attr": {"dtype": {"type": "DT_FLOAT"}, "value": {"tensor": {"dtype": "DT_FLOAT", "tensorShape": {"dim": [{"size": "1"}, {"size": "1"}, {"size": "12"}, {"size": "288"}]}}}}}, {"name": "StatefulPartitionedCall/EfficientNetV1B3/stack_2_block2_se_2_conv/BiasAdd/ReadVariableOp", "op": "Const", "attr": {"dtype": {"type": "DT_FLOAT"}, "value": {"tensor": {"dtype": "DT_FLOAT", "tensorShape": {"dim": [{"size": "288"}]}}}}}, {"name": "StatefulPartitionedCall/EfficientNetV1B3/tf.math.reduce_mean_8/Mean/reduction_indices", "op": "Const", "attr": {"dtype": {"type": "DT_INT32"}, "value": {"tensor": {"dtype": "DT_INT32", "tensorShape": {"dim": [{"size": "2"}]}}}}}, {"name": "StatefulPartitionedCall/EfficientNetV1B3/stack_3_block0_se_1_conv/Conv2D/ReadVariableOp", "op": "Const", "attr": {"value": {"tensor": {"dtype": "DT_FLOAT", "tensorShape": {"dim": [{"size": "1"}, {"size": "1"}, {"size": "288"}, {"size": "12"}]}}}, "dtype": {"type": "DT_FLOAT"}}}, {"name": "StatefulPartitionedCall/EfficientNetV1B3/stack_3_block0_se_1_conv/BiasAdd/ReadVariableOp", "op": "Const", "attr": {"value": {"tensor": {"dtype": "DT_FLOAT", "tensorShape": {"dim": [{"size": "12"}]}}}, "dtype": {"type": "DT_FLOAT"}}}, {"name": "StatefulPartitionedCall/EfficientNetV1B3/stack_3_block0_se_2_conv/Conv2D/ReadVariableOp", "op": "Const", "attr": {"dtype": {"type": "DT_FLOAT"}, "value": {"tensor": {"dtype": "DT_FLOAT", "tensorShape": {"dim": [{"size": "1"}, {"size": "1"}, {"size": "12"}, {"size": "288"}]}}}}}, {"name": "StatefulPartitionedCall/EfficientNetV1B3/stack_3_block0_se_2_conv/BiasAdd/ReadVariableOp", "op": "Const", "attr": {"value": {"tensor": {"dtype": "DT_FLOAT", "tensorShape": {"dim": [{"size": "288"}]}}}, "dtype": {"type": "DT_FLOAT"}}}, {"name": "StatefulPartitionedCall/EfficientNetV1B3/tf.math.reduce_mean_9/Mean/reduction_indices", "op": "Const", "attr": {"value": {"tensor": {"dtype": "DT_INT32", "tensorShape": {"dim": [{"size": "2"}]}}}, "dtype": {"type": "DT_INT32"}}}, {"name": "StatefulPartitionedCall/EfficientNetV1B3/stack_3_block1_se_1_conv/Conv2D/ReadVariableOp", "op": "Const", "attr": {"dtype": {"type": "DT_FLOAT"}, "value": {"tensor": {"dtype": "DT_FLOAT", "tensorShape": {"dim": [{"size": "1"}, {"size": "1"}, {"size": "576"}, {"size": "24"}]}}}}}, {"name": "StatefulPartitionedCall/EfficientNetV1B3/stack_3_block1_se_1_conv/BiasAdd/ReadVariableOp", "op": "Const", "attr": {"value": {"tensor": {"dtype": "DT_FLOAT", "tensorShape": {"dim": [{"size": "24"}]}}}, "dtype": {"type": "DT_FLOAT"}}}, {"name": "StatefulPartitionedCall/EfficientNetV1B3/stack_3_block1_se_2_conv/Conv2D/ReadVariableOp", "op": "Const", "attr": {"value": {"tensor": {"dtype": "DT_FLOAT", "tensorShape": {"dim": [{"size": "1"}, {"size": "1"}, {"size": "24"}, {"size": "576"}]}}}, "dtype": {"type": "DT_FLOAT"}}}, {"name": "StatefulPartitionedCall/EfficientNetV1B3/stack_3_block1_se_2_conv/BiasAdd/ReadVariableOp", "op": "Const", "attr": {"value": {"tensor": {"dtype": "DT_FLOAT", "tensorShape": {"dim": [{"size": "576"}]}}}, "dtype": {"type": "DT_FLOAT"}}}, {"name": "StatefulPartitionedCall/EfficientNetV1B3/tf.math.reduce_mean_10/Mean/reduction_indices", "op": "Const", "attr": {"dtype": {"type": "DT_INT32"}, "value": {"tensor": {"dtype": "DT_INT32", "tensorShape": {"dim": [{"size": "2"}]}}}}}, {"name": "StatefulPartitionedCall/EfficientNetV1B3/stack_3_block2_se_1_conv/Conv2D/ReadVariableOp", "op": "Const", "attr": {"dtype": {"type": "DT_FLOAT"}, "value": {"tensor": {"dtype": "DT_FLOAT", "tensorShape": {"dim": [{"size": "1"}, {"size": "1"}, {"size": "576"}, {"size": "24"}]}}}}}, {"name": "StatefulPartitionedCall/EfficientNetV1B3/stack_3_block2_se_1_conv/BiasAdd/ReadVariableOp", "op": "Const", "attr": {"value": {"tensor": {"dtype": "DT_FLOAT", "tensorShape": {"dim": [{"size": "24"}]}}}, "dtype": {"type": "DT_FLOAT"}}}, {"name": "StatefulPartitionedCall/EfficientNetV1B3/stack_3_block2_se_2_conv/Conv2D/ReadVariableOp", "op": "Const", "attr": {"value": {"tensor": {"dtype": "DT_FLOAT", "tensorShape": {"dim": [{"size": "1"}, {"size": "1"}, {"size": "24"}, {"size": "576"}]}}}, "dtype": {"type": "DT_FLOAT"}}}, {"name": "StatefulPartitionedCall/EfficientNetV1B3/stack_3_block2_se_2_conv/BiasAdd/ReadVariableOp", "op": "Const", "attr": {"dtype": {"type": "DT_FLOAT"}, "value": {"tensor": {"dtype": "DT_FLOAT", "tensorShape": {"dim": [{"size": "576"}]}}}}}, {"name": "StatefulPartitionedCall/EfficientNetV1B3/tf.math.reduce_mean_11/Mean/reduction_indices", "op": "Const", "attr": {"value": {"tensor": {"dtype": "DT_INT32", "tensorShape": {"dim": [{"size": "2"}]}}}, "dtype": {"type": "DT_INT32"}}}, {"name": "StatefulPartitionedCall/EfficientNetV1B3/stack_3_block3_se_1_conv/Conv2D/ReadVariableOp", "op": "Const", "attr": {"dtype": {"type": "DT_FLOAT"}, "value": {"tensor": {"dtype": "DT_FLOAT", "tensorShape": {"dim": [{"size": "1"}, {"size": "1"}, {"size": "576"}, {"size": "24"}]}}}}}, {"name": "StatefulPartitionedCall/EfficientNetV1B3/stack_3_block3_se_1_conv/BiasAdd/ReadVariableOp", "op": "Const", "attr": {"value": {"tensor": {"dtype": "DT_FLOAT", "tensorShape": {"dim": [{"size": "24"}]}}}, "dtype": {"type": "DT_FLOAT"}}}, {"name": "StatefulPartitionedCall/EfficientNetV1B3/stack_3_block3_se_2_conv/Conv2D/ReadVariableOp", "op": "Const", "attr": {"dtype": {"type": "DT_FLOAT"}, "value": {"tensor": {"dtype": "DT_FLOAT", "tensorShape": {"dim": [{"size": "1"}, {"size": "1"}, {"size": "24"}, {"size": "576"}]}}}}}, {"name": "StatefulPartitionedCall/EfficientNetV1B3/stack_3_block3_se_2_conv/BiasAdd/ReadVariableOp", "op": "Const", "attr": {"dtype": {"type": "DT_FLOAT"}, "value": {"tensor": {"dtype": "DT_FLOAT", "tensorShape": {"dim": [{"size": "576"}]}}}}}, {"name": "StatefulPartitionedCall/EfficientNetV1B3/tf.math.reduce_mean_12/Mean/reduction_indices", "op": "Const", "attr": {"dtype": {"type": "DT_INT32"}, "value": {"tensor": {"dtype": "DT_INT32", "tensorShape": {"dim": [{"size": "2"}]}}}}}, {"name": "StatefulPartitionedCall/EfficientNetV1B3/stack_3_block4_se_1_conv/Conv2D/ReadVariableOp", "op": "Const", "attr": {"value": {"tensor": {"dtype": "DT_FLOAT", "tensorShape": {"dim": [{"size": "1"}, {"size": "1"}, {"size": "576"}, {"size": "24"}]}}}, "dtype": {"type": "DT_FLOAT"}}}, {"name": "StatefulPartitionedCall/EfficientNetV1B3/stack_3_block4_se_1_conv/BiasAdd/ReadVariableOp", "op": "Const", "attr": {"value": {"tensor": {"dtype": "DT_FLOAT", "tensorShape": {"dim": [{"size": "24"}]}}}, "dtype": {"type": "DT_FLOAT"}}}, {"name": "StatefulPartitionedCall/EfficientNetV1B3/stack_3_block4_se_2_conv/Conv2D/ReadVariableOp", "op": "Const", "attr": {"value": {"tensor": {"dtype": "DT_FLOAT", "tensorShape": {"dim": [{"size": "1"}, {"size": "1"}, {"size": "24"}, {"size": "576"}]}}}, "dtype": {"type": "DT_FLOAT"}}}, {"name": "StatefulPartitionedCall/EfficientNetV1B3/stack_3_block4_se_2_conv/BiasAdd/ReadVariableOp", "op": "Const", "attr": {"value": {"tensor": {"dtype": "DT_FLOAT", "tensorShape": {"dim": [{"size": "576"}]}}}, "dtype": {"type": "DT_FLOAT"}}}, {"name": "StatefulPartitionedCall/EfficientNetV1B3/tf.math.reduce_mean_13/Mean/reduction_indices", "op": "Const", "attr": {"value": {"tensor": {"dtype": "DT_INT32", "tensorShape": {"dim": [{"size": "2"}]}}}, "dtype": {"type": "DT_INT32"}}}, {"name": "StatefulPartitionedCall/EfficientNetV1B3/stack_4_block0_se_1_conv/Conv2D/ReadVariableOp", "op": "Const", "attr": {"dtype": {"type": "DT_FLOAT"}, "value": {"tensor": {"dtype": "DT_FLOAT", "tensorShape": {"dim": [{"size": "1"}, {"size": "1"}, {"size": "576"}, {"size": "24"}]}}}}}, {"name": "StatefulPartitionedCall/EfficientNetV1B3/stack_4_block0_se_1_conv/BiasAdd/ReadVariableOp", "op": "Const", "attr": {"dtype": {"type": "DT_FLOAT"}, "value": {"tensor": {"dtype": "DT_FLOAT", "tensorShape": {"dim": [{"size": "24"}]}}}}}, {"name": "StatefulPartitionedCall/EfficientNetV1B3/stack_4_block0_se_2_conv/Conv2D/ReadVariableOp", "op": "Const", "attr": {"dtype": {"type": "DT_FLOAT"}, "value": {"tensor": {"dtype": "DT_FLOAT", "tensorShape": {"dim": [{"size": "1"}, {"size": "1"}, {"size": "24"}, {"size": "576"}]}}}}}, {"name": "StatefulPartitionedCall/EfficientNetV1B3/stack_4_block0_se_2_conv/BiasAdd/ReadVariableOp", "op": "Const", "attr": {"dtype": {"type": "DT_FLOAT"}, "value": {"tensor": {"dtype": "DT_FLOAT", "tensorShape": {"dim": [{"size": "576"}]}}}}}, {"name": "StatefulPartitionedCall/EfficientNetV1B3/tf.math.reduce_mean_14/Mean/reduction_indices", "op": "Const", "attr": {"dtype": {"type": "DT_INT32"}, "value": {"tensor": {"dtype": "DT_INT32", "tensorShape": {"dim": [{"size": "2"}]}}}}}, {"name": "StatefulPartitionedCall/EfficientNetV1B3/stack_4_block1_se_1_conv/Conv2D/ReadVariableOp", "op": "Const", "attr": {"dtype": {"type": "DT_FLOAT"}, "value": {"tensor": {"dtype": "DT_FLOAT", "tensorShape": {"dim": [{"size": "1"}, {"size": "1"}, {"size": "816"}, {"size": "34"}]}}}}}, {"name": "StatefulPartitionedCall/EfficientNetV1B3/stack_4_block1_se_1_conv/BiasAdd/ReadVariableOp", "op": "Const", "attr": {"dtype": {"type": "DT_FLOAT"}, "value": {"tensor": {"dtype": "DT_FLOAT", "tensorShape": {"dim": [{"size": "34"}]}}}}}, {"name": "StatefulPartitionedCall/EfficientNetV1B3/stack_4_block1_se_2_conv/Conv2D/ReadVariableOp", "op": "Const", "attr": {"value": {"tensor": {"dtype": "DT_FLOAT", "tensorShape": {"dim": [{"size": "1"}, {"size": "1"}, {"size": "34"}, {"size": "816"}]}}}, "dtype": {"type": "DT_FLOAT"}}}, {"name": "StatefulPartitionedCall/EfficientNetV1B3/stack_4_block1_se_2_conv/BiasAdd/ReadVariableOp", "op": "Const", "attr": {"dtype": {"type": "DT_FLOAT"}, "value": {"tensor": {"dtype": "DT_FLOAT", "tensorShape": {"dim": [{"size": "816"}]}}}}}, {"name": "StatefulPartitionedCall/EfficientNetV1B3/tf.math.reduce_mean_15/Mean/reduction_indices", "op": "Const", "attr": {"value": {"tensor": {"dtype": "DT_INT32", "tensorShape": {"dim": [{"size": "2"}]}}}, "dtype": {"type": "DT_INT32"}}}, {"name": "StatefulPartitionedCall/EfficientNetV1B3/stack_4_block2_se_1_conv/Conv2D/ReadVariableOp", "op": "Const", "attr": {"value": {"tensor": {"dtype": "DT_FLOAT", "tensorShape": {"dim": [{"size": "1"}, {"size": "1"}, {"size": "816"}, {"size": "34"}]}}}, "dtype": {"type": "DT_FLOAT"}}}, {"name": "StatefulPartitionedCall/EfficientNetV1B3/stack_4_block2_se_1_conv/BiasAdd/ReadVariableOp", "op": "Const", "attr": {"dtype": {"type": "DT_FLOAT"}, "value": {"tensor": {"dtype": "DT_FLOAT", "tensorShape": {"dim": [{"size": "34"}]}}}}}, {"name": "StatefulPartitionedCall/EfficientNetV1B3/stack_4_block2_se_2_conv/Conv2D/ReadVariableOp", "op": "Const", "attr": {"dtype": {"type": "DT_FLOAT"}, "value": {"tensor": {"dtype": "DT_FLOAT", "tensorShape": {"dim": [{"size": "1"}, {"size": "1"}, {"size": "34"}, {"size": "816"}]}}}}}, {"name": "StatefulPartitionedCall/EfficientNetV1B3/stack_4_block2_se_2_conv/BiasAdd/ReadVariableOp", "op": "Const", "attr": {"value": {"tensor": {"dtype": "DT_FLOAT", "tensorShape": {"dim": [{"size": "816"}]}}}, "dtype": {"type": "DT_FLOAT"}}}, {"name": "StatefulPartitionedCall/EfficientNetV1B3/tf.math.reduce_mean_16/Mean/reduction_indices", "op": "Const", "attr": {"dtype": {"type": "DT_INT32"}, "value": {"tensor": {"dtype": "DT_INT32", "tensorShape": {"dim": [{"size": "2"}]}}}}}, {"name": "StatefulPartitionedCall/EfficientNetV1B3/stack_4_block3_se_1_conv/Conv2D/ReadVariableOp", "op": "Const", "attr": {"dtype": {"type": "DT_FLOAT"}, "value": {"tensor": {"dtype": "DT_FLOAT", "tensorShape": {"dim": [{"size": "1"}, {"size": "1"}, {"size": "816"}, {"size": "34"}]}}}}}, {"name": "StatefulPartitionedCall/EfficientNetV1B3/stack_4_block3_se_1_conv/BiasAdd/ReadVariableOp", "op": "Const", "attr": {"dtype": {"type": "DT_FLOAT"}, "value": {"tensor": {"dtype": "DT_FLOAT", "tensorShape": {"dim": [{"size": "34"}]}}}}}, {"name": "StatefulPartitionedCall/EfficientNetV1B3/stack_4_block3_se_2_conv/Conv2D/ReadVariableOp", "op": "Const", "attr": {"value": {"tensor": {"dtype": "DT_FLOAT", "tensorShape": {"dim": [{"size": "1"}, {"size": "1"}, {"size": "34"}, {"size": "816"}]}}}, "dtype": {"type": "DT_FLOAT"}}}, {"name": "StatefulPartitionedCall/EfficientNetV1B3/stack_4_block3_se_2_conv/BiasAdd/ReadVariableOp", "op": "Const", "attr": {"dtype": {"type": "DT_FLOAT"}, "value": {"tensor": {"dtype": "DT_FLOAT", "tensorShape": {"dim": [{"size": "816"}]}}}}}, {"name": "StatefulPartitionedCall/EfficientNetV1B3/tf.math.reduce_mean_17/Mean/reduction_indices", "op": "Const", "attr": {"dtype": {"type": "DT_INT32"}, "value": {"tensor": {"dtype": "DT_INT32", "tensorShape": {"dim": [{"size": "2"}]}}}}}, {"name": "StatefulPartitionedCall/EfficientNetV1B3/stack_4_block4_se_1_conv/Conv2D/ReadVariableOp", "op": "Const", "attr": {"value": {"tensor": {"dtype": "DT_FLOAT", "tensorShape": {"dim": [{"size": "1"}, {"size": "1"}, {"size": "816"}, {"size": "34"}]}}}, "dtype": {"type": "DT_FLOAT"}}}, {"name": "StatefulPartitionedCall/EfficientNetV1B3/stack_4_block4_se_1_conv/BiasAdd/ReadVariableOp", "op": "Const", "attr": {"dtype": {"type": "DT_FLOAT"}, "value": {"tensor": {"dtype": "DT_FLOAT", "tensorShape": {"dim": [{"size": "34"}]}}}}}, {"name": "StatefulPartitionedCall/EfficientNetV1B3/stack_4_block4_se_2_conv/Conv2D/ReadVariableOp", "op": "Const", "attr": {"dtype": {"type": "DT_FLOAT"}, "value": {"tensor": {"dtype": "DT_FLOAT", "tensorShape": {"dim": [{"size": "1"}, {"size": "1"}, {"size": "34"}, {"size": "816"}]}}}}}, {"name": "StatefulPartitionedCall/EfficientNetV1B3/stack_4_block4_se_2_conv/BiasAdd/ReadVariableOp", "op": "Const", "attr": {"dtype": {"type": "DT_FLOAT"}, "value": {"tensor": {"dtype": "DT_FLOAT", "tensorShape": {"dim": [{"size": "816"}]}}}}}, {"name": "StatefulPartitionedCall/EfficientNetV1B3/tf.math.reduce_mean_18/Mean/reduction_indices", "op": "Const", "attr": {"value": {"tensor": {"dtype": "DT_INT32", "tensorShape": {"dim": [{"size": "2"}]}}}, "dtype": {"type": "DT_INT32"}}}, {"name": "StatefulPartitionedCall/EfficientNetV1B3/stack_5_block0_se_1_conv/Conv2D/ReadVariableOp", "op": "Const", "attr": {"dtype": {"type": "DT_FLOAT"}, "value": {"tensor": {"dtype": "DT_FLOAT", "tensorShape": {"dim": [{"size": "1"}, {"size": "1"}, {"size": "816"}, {"size": "34"}]}}}}}, {"name": "StatefulPartitionedCall/EfficientNetV1B3/stack_5_block0_se_1_conv/BiasAdd/ReadVariableOp", "op": "Const", "attr": {"dtype": {"type": "DT_FLOAT"}, "value": {"tensor": {"dtype": "DT_FLOAT", "tensorShape": {"dim": [{"size": "34"}]}}}}}, {"name": "StatefulPartitionedCall/EfficientNetV1B3/stack_5_block0_se_2_conv/Conv2D/ReadVariableOp", "op": "Const", "attr": {"dtype": {"type": "DT_FLOAT"}, "value": {"tensor": {"dtype": "DT_FLOAT", "tensorShape": {"dim": [{"size": "1"}, {"size": "1"}, {"size": "34"}, {"size": "816"}]}}}}}, {"name": "StatefulPartitionedCall/EfficientNetV1B3/stack_5_block0_se_2_conv/BiasAdd/ReadVariableOp", "op": "Const", "attr": {"dtype": {"type": "DT_FLOAT"}, "value": {"tensor": {"dtype": "DT_FLOAT", "tensorShape": {"dim": [{"size": "816"}]}}}}}, {"name": "StatefulPartitionedCall/EfficientNetV1B3/tf.math.reduce_mean_19/Mean/reduction_indices", "op": "Const", "attr": {"dtype": {"type": "DT_INT32"}, "value": {"tensor": {"dtype": "DT_INT32", "tensorShape": {"dim": [{"size": "2"}]}}}}}, {"name": "StatefulPartitionedCall/EfficientNetV1B3/stack_5_block1_se_1_conv/Conv2D/ReadVariableOp", "op": "Const", "attr": {"value": {"tensor": {"dtype": "DT_FLOAT", "tensorShape": {"dim": [{"size": "1"}, {"size": "1"}, {"size": "1392"}, {"size": "58"}]}}}, "dtype": {"type": "DT_FLOAT"}}}, {"name": "StatefulPartitionedCall/EfficientNetV1B3/stack_5_block1_se_1_conv/BiasAdd/ReadVariableOp", "op": "Const", "attr": {"value": {"tensor": {"dtype": "DT_FLOAT", "tensorShape": {"dim": [{"size": "58"}]}}}, "dtype": {"type": "DT_FLOAT"}}}, {"name": "StatefulPartitionedCall/EfficientNetV1B3/stack_5_block1_se_2_conv/Conv2D/ReadVariableOp", "op": "Const", "attr": {"dtype": {"type": "DT_FLOAT"}, "value": {"tensor": {"dtype": "DT_FLOAT", "tensorShape": {"dim": [{"size": "1"}, {"size": "1"}, {"size": "58"}, {"size": "1392"}]}}}}}, {"name": "StatefulPartitionedCall/EfficientNetV1B3/stack_5_block1_se_2_conv/BiasAdd/ReadVariableOp", "op": "Const", "attr": {"dtype": {"type": "DT_FLOAT"}, "value": {"tensor": {"dtype": "DT_FLOAT", "tensorShape": {"dim": [{"size": "1392"}]}}}}}, {"name": "StatefulPartitionedCall/EfficientNetV1B3/tf.math.reduce_mean_20/Mean/reduction_indices", "op": "Const", "attr": {"value": {"tensor": {"dtype": "DT_INT32", "tensorShape": {"dim": [{"size": "2"}]}}}, "dtype": {"type": "DT_INT32"}}}, {"name": "StatefulPartitionedCall/EfficientNetV1B3/stack_5_block2_se_1_conv/Conv2D/ReadVariableOp", "op": "Const", "attr": {"dtype": {"type": "DT_FLOAT"}, "value": {"tensor": {"dtype": "DT_FLOAT", "tensorShape": {"dim": [{"size": "1"}, {"size": "1"}, {"size": "1392"}, {"size": "58"}]}}}}}, {"name": "StatefulPartitionedCall/EfficientNetV1B3/stack_5_block2_se_1_conv/BiasAdd/ReadVariableOp", "op": "Const", "attr": {"dtype": {"type": "DT_FLOAT"}, "value": {"tensor": {"dtype": "DT_FLOAT", "tensorShape": {"dim": [{"size": "58"}]}}}}}, {"name": "StatefulPartitionedCall/EfficientNetV1B3/stack_5_block2_se_2_conv/Conv2D/ReadVariableOp", "op": "Const", "attr": {"dtype": {"type": "DT_FLOAT"}, "value": {"tensor": {"dtype": "DT_FLOAT", "tensorShape": {"dim": [{"size": "1"}, {"size": "1"}, {"size": "58"}, {"size": "1392"}]}}}}}, {"name": "StatefulPartitionedCall/EfficientNetV1B3/stack_5_block2_se_2_conv/BiasAdd/ReadVariableOp", "op": "Const", "attr": {"dtype": {"type": "DT_FLOAT"}, "value": {"tensor": {"dtype": "DT_FLOAT", "tensorShape": {"dim": [{"size": "1392"}]}}}}}, {"name": "StatefulPartitionedCall/EfficientNetV1B3/tf.math.reduce_mean_21/Mean/reduction_indices", "op": "Const", "attr": {"dtype": {"type": "DT_INT32"}, "value": {"tensor": {"dtype": "DT_INT32", "tensorShape": {"dim": [{"size": "2"}]}}}}}, {"name": "StatefulPartitionedCall/EfficientNetV1B3/stack_5_block3_se_1_conv/Conv2D/ReadVariableOp", "op": "Const", "attr": {"dtype": {"type": "DT_FLOAT"}, "value": {"tensor": {"dtype": "DT_FLOAT", "tensorShape": {"dim": [{"size": "1"}, {"size": "1"}, {"size": "1392"}, {"size": "58"}]}}}}}, {"name": "StatefulPartitionedCall/EfficientNetV1B3/stack_5_block3_se_1_conv/BiasAdd/ReadVariableOp", "op": "Const", "attr": {"dtype": {"type": "DT_FLOAT"}, "value": {"tensor": {"dtype": "DT_FLOAT", "tensorShape": {"dim": [{"size": "58"}]}}}}}, {"name": "StatefulPartitionedCall/EfficientNetV1B3/stack_5_block3_se_2_conv/Conv2D/ReadVariableOp", "op": "Const", "attr": {"value": {"tensor": {"dtype": "DT_FLOAT", "tensorShape": {"dim": [{"size": "1"}, {"size": "1"}, {"size": "58"}, {"size": "1392"}]}}}, "dtype": {"type": "DT_FLOAT"}}}, {"name": "StatefulPartitionedCall/EfficientNetV1B3/stack_5_block3_se_2_conv/BiasAdd/ReadVariableOp", "op": "Const", "attr": {"value": {"tensor": {"dtype": "DT_FLOAT", "tensorShape": {"dim": [{"size": "1392"}]}}}, "dtype": {"type": "DT_FLOAT"}}}, {"name": "StatefulPartitionedCall/EfficientNetV1B3/tf.math.reduce_mean_22/Mean/reduction_indices", "op": "Const", "attr": {"dtype": {"type": "DT_INT32"}, "value": {"tensor": {"dtype": "DT_INT32", "tensorShape": {"dim": [{"size": "2"}]}}}}}, {"name": "StatefulPartitionedCall/EfficientNetV1B3/stack_5_block4_se_1_conv/Conv2D/ReadVariableOp", "op": "Const", "attr": {"value": {"tensor": {"dtype": "DT_FLOAT", "tensorShape": {"dim": [{"size": "1"}, {"size": "1"}, {"size": "1392"}, {"size": "58"}]}}}, "dtype": {"type": "DT_FLOAT"}}}, {"name": "StatefulPartitionedCall/EfficientNetV1B3/stack_5_block4_se_1_conv/BiasAdd/ReadVariableOp", "op": "Const", "attr": {"value": {"tensor": {"dtype": "DT_FLOAT", "tensorShape": {"dim": [{"size": "58"}]}}}, "dtype": {"type": "DT_FLOAT"}}}, {"name": "StatefulPartitionedCall/EfficientNetV1B3/stack_5_block4_se_2_conv/Conv2D/ReadVariableOp", "op": "Const", "attr": {"value": {"tensor": {"dtype": "DT_FLOAT", "tensorShape": {"dim": [{"size": "1"}, {"size": "1"}, {"size": "58"}, {"size": "1392"}]}}}, "dtype": {"type": "DT_FLOAT"}}}, {"name": "StatefulPartitionedCall/EfficientNetV1B3/stack_5_block4_se_2_conv/BiasAdd/ReadVariableOp", "op": "Const", "attr": {"dtype": {"type": "DT_FLOAT"}, "value": {"tensor": {"dtype": "DT_FLOAT", "tensorShape": {"dim": [{"size": "1392"}]}}}}}, {"name": "StatefulPartitionedCall/EfficientNetV1B3/tf.math.reduce_mean_23/Mean/reduction_indices", "op": "Const", "attr": {"value": {"tensor": {"dtype": "DT_INT32", "tensorShape": {"dim": [{"size": "2"}]}}}, "dtype": {"type": "DT_INT32"}}}, {"name": "StatefulPartitionedCall/EfficientNetV1B3/stack_5_block5_se_1_conv/Conv2D/ReadVariableOp", "op": "Const", "attr": {"dtype": {"type": "DT_FLOAT"}, "value": {"tensor": {"dtype": "DT_FLOAT", "tensorShape": {"dim": [{"size": "1"}, {"size": "1"}, {"size": "1392"}, {"size": "58"}]}}}}}, {"name": "StatefulPartitionedCall/EfficientNetV1B3/stack_5_block5_se_1_conv/BiasAdd/ReadVariableOp", "op": "Const", "attr": {"dtype": {"type": "DT_FLOAT"}, "value": {"tensor": {"dtype": "DT_FLOAT", "tensorShape": {"dim": [{"size": "58"}]}}}}}, {"name": "StatefulPartitionedCall/EfficientNetV1B3/stack_5_block5_se_2_conv/Conv2D/ReadVariableOp", "op": "Const", "attr": {"dtype": {"type": "DT_FLOAT"}, "value": {"tensor": {"dtype": "DT_FLOAT", "tensorShape": {"dim": [{"size": "1"}, {"size": "1"}, {"size": "58"}, {"size": "1392"}]}}}}}, {"name": "StatefulPartitionedCall/EfficientNetV1B3/stack_5_block5_se_2_conv/BiasAdd/ReadVariableOp", "op": "Const", "attr": {"dtype": {"type": "DT_FLOAT"}, "value": {"tensor": {"dtype": "DT_FLOAT", "tensorShape": {"dim": [{"size": "1392"}]}}}}}, {"name": "StatefulPartitionedCall/EfficientNetV1B3/tf.math.reduce_mean_24/Mean/reduction_indices", "op": "Const", "attr": {"dtype": {"type": "DT_INT32"}, "value": {"tensor": {"dtype": "DT_INT32", "tensorShape": {"dim": [{"size": "2"}]}}}}}, {"name": "StatefulPartitionedCall/EfficientNetV1B3/stack_6_block0_se_1_conv/Conv2D/ReadVariableOp", "op": "Const", "attr": {"value": {"tensor": {"dtype": "DT_FLOAT", "tensorShape": {"dim": [{"size": "1"}, {"size": "1"}, {"size": "1392"}, {"size": "58"}]}}}, "dtype": {"type": "DT_FLOAT"}}}, {"name": "StatefulPartitionedCall/EfficientNetV1B3/stack_6_block0_se_1_conv/BiasAdd/ReadVariableOp", "op": "Const", "attr": {"dtype": {"type": "DT_FLOAT"}, "value": {"tensor": {"dtype": "DT_FLOAT", "tensorShape": {"dim": [{"size": "58"}]}}}}}, {"name": "StatefulPartitionedCall/EfficientNetV1B3/stack_6_block0_se_2_conv/Conv2D/ReadVariableOp", "op": "Const", "attr": {"dtype": {"type": "DT_FLOAT"}, "value": {"tensor": {"dtype": "DT_FLOAT", "tensorShape": {"dim": [{"size": "1"}, {"size": "1"}, {"size": "58"}, {"size": "1392"}]}}}}}, {"name": "StatefulPartitionedCall/EfficientNetV1B3/stack_6_block0_se_2_conv/BiasAdd/ReadVariableOp", "op": "Const", "attr": {"value": {"tensor": {"dtype": "DT_FLOAT", "tensorShape": {"dim": [{"size": "1392"}]}}}, "dtype": {"type": "DT_FLOAT"}}}, {"name": "StatefulPartitionedCall/EfficientNetV1B3/tf.math.reduce_mean_25/Mean/reduction_indices", "op": "Const", "attr": {"value": {"tensor": {"dtype": "DT_INT32", "tensorShape": {"dim": [{"size": "2"}]}}}, "dtype": {"type": "DT_INT32"}}}, {"name": "StatefulPartitionedCall/EfficientNetV1B3/stack_6_block1_se_1_conv/Conv2D/ReadVariableOp", "op": "Const", "attr": {"dtype": {"type": "DT_FLOAT"}, "value": {"tensor": {"dtype": "DT_FLOAT", "tensorShape": {"dim": [{"size": "1"}, {"size": "1"}, {"size": "2304"}, {"size": "96"}]}}}}}, {"name": "StatefulPartitionedCall/EfficientNetV1B3/stack_6_block1_se_1_conv/BiasAdd/ReadVariableOp", "op": "Const", "attr": {"value": {"tensor": {"dtype": "DT_FLOAT", "tensorShape": {"dim": [{"size": "96"}]}}}, "dtype": {"type": "DT_FLOAT"}}}, {"name": "StatefulPartitionedCall/EfficientNetV1B3/stack_6_block1_se_2_conv/Conv2D/ReadVariableOp", "op": "Const", "attr": {"value": {"tensor": {"dtype": "DT_FLOAT", "tensorShape": {"dim": [{"size": "1"}, {"size": "1"}, {"size": "96"}, {"size": "2304"}]}}}, "dtype": {"type": "DT_FLOAT"}}}, {"name": "StatefulPartitionedCall/EfficientNetV1B3/stack_6_block1_se_2_conv/BiasAdd/ReadVariableOp", "op": "Const", "attr": {"value": {"tensor": {"dtype": "DT_FLOAT", "tensorShape": {"dim": [{"size": "2304"}]}}}, "dtype": {"type": "DT_FLOAT"}}}, {"name": "StatefulPartitionedCall/EfficientNetV1B3/avg_pool/Mean/reduction_indices", "op": "Const", "attr": {"dtype": {"type": "DT_INT32"}, "value": {"tensor": {"dtype": "DT_INT32", "tensorShape": {"dim": [{"size": "2"}]}}}}}, {"name": "StatefulPartitionedCall/EfficientNetV1B3/predictions/MatMul/ReadVariableOp", "op": "Const", "attr": {"dtype": {"type": "DT_FLOAT"}, "value": {"tensor": {"dtype": "DT_FLOAT", "tensorShape": {"dim": [{"size": "1536"}, {"size": "76"}]}}}}}, {"name": "StatefulPartitionedCall/EfficientNetV1B3/predictions/BiasAdd/ReadVariableOp", "op": "Const", "attr": {"dtype": {"type": "DT_FLOAT"}, "value": {"tensor": {"dtype": "DT_FLOAT", "tensorShape": {"dim": [{"size": "76"}]}}}}}, {"name": "input_1", "op": "Placeholder", "attr": {"dtype": {"type": "DT_FLOAT"}, "shape": {"shape": {"dim": [{"size": "-1"}, {"size": "300"}, {"size": "300"}, {"size": "3"}]}}}}, {"name": "StatefulPartitionedCall/EfficientNetV1B3/stem_conv/Conv2D_weights", "op": "Const", "attr": {"dtype": {"type": "DT_FLOAT"}, "value": {"tensor": {"dtype": "DT_FLOAT", "tensorShape": {"dim": [{"size": "3"}, {"size": "3"}, {"size": "3"}, {"size": "40"}]}}}}}, {"name": "StatefulPartitionedCall/EfficientNetV1B3/stem_conv/Conv2D_bn_offset", "op": "Const", "attr": {"dtype": {"type": "DT_FLOAT"}, "value": {"tensor": {"dtype": "DT_FLOAT", "tensorShape": {"dim": [{"size": "40"}]}}}}}, {"name": "StatefulPartitionedCall/EfficientNetV1B3/stack_0_block0_MB_dw_/depthwise_weights", "op": "Const", "attr": {"dtype": {"type": "DT_FLOAT"}, "value": {"tensor": {"dtype": "DT_FLOAT", "tensorShape": {"dim": [{"size": "3"}, {"size": "3"}, {"size": "40"}, {"size": "1"}]}}}}}, {"name": "StatefulPartitionedCall/EfficientNetV1B3/stack_0_block0_MB_dw_/depthwise_bn_offset", "op": "Const", "attr": {"dtype": {"type": "DT_FLOAT"}, "value": {"tensor": {"dtype": "DT_FLOAT", "tensorShape": {"dim": [{"size": "40"}]}}}}}, {"name": "StatefulPartitionedCall/EfficientNetV1B3/stack_0_block0_MB_pw_conv/Conv2D_weights", "op": "Const", "attr": {"dtype": {"type": "DT_FLOAT"}, "value": {"tensor": {"dtype": "DT_FLOAT", "tensorShape": {"dim": [{"size": "1"}, {"size": "1"}, {"size": "40"}, {"size": "24"}]}}}}}, {"name": "StatefulPartitionedCall/EfficientNetV1B3/stack_0_block0_MB_pw_conv/Conv2D_bn_offset", "op": "Const", "attr": {"value": {"tensor": {"dtype": "DT_FLOAT", "tensorShape": {"dim": [{"size": "24"}]}}}, "dtype": {"type": "DT_FLOAT"}}}, {"name": "StatefulPartitionedCall/EfficientNetV1B3/stack_0_block1_MB_dw_/depthwise_weights", "op": "Const", "attr": {"dtype": {"type": "DT_FLOAT"}, "value": {"tensor": {"dtype": "DT_FLOAT", "tensorShape": {"dim": [{"size": "3"}, {"size": "3"}, {"size": "24"}, {"size": "1"}]}}}}}, {"name": "StatefulPartitionedCall/EfficientNetV1B3/stack_0_block1_MB_dw_/depthwise_bn_offset", "op": "Const", "attr": {"value": {"tensor": {"dtype": "DT_FLOAT", "tensorShape": {"dim": [{"size": "24"}]}}}, "dtype": {"type": "DT_FLOAT"}}}, {"name": "StatefulPartitionedCall/EfficientNetV1B3/stack_0_block1_MB_pw_conv/Conv2D_weights", "op": "Const", "attr": {"dtype": {"type": "DT_FLOAT"}, "value": {"tensor": {"dtype": "DT_FLOAT", "tensorShape": {"dim": [{"size": "1"}, {"size": "1"}, {"size": "24"}, {"size": "24"}]}}}}}, {"name": "StatefulPartitionedCall/EfficientNetV1B3/stack_0_block1_MB_pw_conv/Conv2D_bn_offset", "op": "Const", "attr": {"dtype": {"type": "DT_FLOAT"}, "value": {"tensor": {"dtype": "DT_FLOAT", "tensorShape": {"dim": [{"size": "24"}]}}}}}, {"name": "StatefulPartitionedCall/EfficientNetV1B3/stack_1_block0_sortcut_conv/Conv2D_weights", "op": "Const", "attr": {"dtype": {"type": "DT_FLOAT"}, "value": {"tensor": {"dtype": "DT_FLOAT", "tensorShape": {"dim": [{"size": "1"}, {"size": "1"}, {"size": "24"}, {"size": "144"}]}}}}}, {"name": "StatefulPartitionedCall/EfficientNetV1B3/stack_1_block0_sortcut_conv/Conv2D_bn_offset", "op": "Const", "attr": {"dtype": {"type": "DT_FLOAT"}, "value": {"tensor": {"dtype": "DT_FLOAT", "tensorShape": {"dim": [{"size": "144"}]}}}}}, {"name": "StatefulPartitionedCall/EfficientNetV1B3/stack_1_block0_MB_dw_/depthwise_weights", "op": "Const", "attr": {"dtype": {"type": "DT_FLOAT"}, "value": {"tensor": {"dtype": "DT_FLOAT", "tensorShape": {"dim": [{"size": "3"}, {"size": "3"}, {"size": "144"}, {"size": "1"}]}}}}}, {"name": "StatefulPartitionedCall/EfficientNetV1B3/stack_1_block0_MB_dw_/depthwise_bn_offset", "op": "Const", "attr": {"dtype": {"type": "DT_FLOAT"}, "value": {"tensor": {"dtype": "DT_FLOAT", "tensorShape": {"dim": [{"size": "144"}]}}}}}, {"name": "StatefulPartitionedCall/EfficientNetV1B3/stack_6_block1_MB_pw_conv/Conv2D_weights", "op": "Const", "attr": {"value": {"tensor": {"dtype": "DT_FLOAT", "tensorShape": {"dim": [{"size": "1"}, {"size": "1"}, {"size": "2304"}, {"size": "384"}]}}}, "dtype": {"type": "DT_FLOAT"}}}, {"name": "StatefulPartitionedCall/EfficientNetV1B3/stack_1_block0_MB_pw_conv/Conv2D_weights", "op": "Const", "attr": {"dtype": {"type": "DT_FLOAT"}, "value": {"tensor": {"dtype": "DT_FLOAT", "tensorShape": {"dim": [{"size": "1"}, {"size": "1"}, {"size": "144"}, {"size": "32"}]}}}}}, {"name": "StatefulPartitionedCall/EfficientNetV1B3/stack_1_block0_MB_pw_conv/Conv2D_bn_offset", "op": "Const", "attr": {"dtype": {"type": "DT_FLOAT"}, "value": {"tensor": {"dtype": "DT_FLOAT", "tensorShape": {"dim": [{"size": "32"}]}}}}}, {"name": "StatefulPartitionedCall/EfficientNetV1B3/stack_1_block1_sortcut_conv/Conv2D_weights", "op": "Const", "attr": {"dtype": {"type": "DT_FLOAT"}, "value": {"tensor": {"dtype": "DT_FLOAT", "tensorShape": {"dim": [{"size": "1"}, {"size": "1"}, {"size": "32"}, {"size": "192"}]}}}}}, {"name": "StatefulPartitionedCall/EfficientNetV1B3/stack_1_block1_sortcut_conv/Conv2D_bn_offset", "op": "Const", "attr": {"dtype": {"type": "DT_FLOAT"}, "value": {"tensor": {"dtype": "DT_FLOAT", "tensorShape": {"dim": [{"size": "192"}]}}}}}, {"name": "StatefulPartitionedCall/EfficientNetV1B3/stack_1_block1_MB_dw_/depthwise_weights", "op": "Const", "attr": {"value": {"tensor": {"dtype": "DT_FLOAT", "tensorShape": {"dim": [{"size": "3"}, {"size": "3"}, {"size": "192"}, {"size": "1"}]}}}, "dtype": {"type": "DT_FLOAT"}}}, {"name": "StatefulPartitionedCall/EfficientNetV1B3/stack_1_block1_MB_dw_/depthwise_bn_offset", "op": "Const", "attr": {"value": {"tensor": {"dtype": "DT_FLOAT", "tensorShape": {"dim": [{"size": "192"}]}}}, "dtype": {"type": "DT_FLOAT"}}}, {"name": "StatefulPartitionedCall/EfficientNetV1B3/stack_5_block4_MB_pw_conv/Conv2D_weights", "op": "Const", "attr": {"dtype": {"type": "DT_FLOAT"}, "value": {"tensor": {"dtype": "DT_FLOAT", "tensorShape": {"dim": [{"size": "1"}, {"size": "1"}, {"size": "1392"}, {"size": "232"}]}}}}}, {"name": "StatefulPartitionedCall/EfficientNetV1B3/stack_1_block1_MB_pw_conv/Conv2D_weights", "op": "Const", "attr": {"dtype": {"type": "DT_FLOAT"}, "value": {"tensor": {"dtype": "DT_FLOAT", "tensorShape": {"dim": [{"size": "1"}, {"size": "1"}, {"size": "192"}, {"size": "32"}]}}}}}, {"name": "StatefulPartitionedCall/EfficientNetV1B3/stack_5_block4_MB_pw_conv/Conv2D_bn_offset", "op": "Const", "attr": {"dtype": {"type": "DT_FLOAT"}, "value": {"tensor": {"dtype": "DT_FLOAT", "tensorShape": {"dim": [{"size": "232"}]}}}}}, {"name": "StatefulPartitionedCall/EfficientNetV1B3/stack_1_block1_MB_pw_conv/Conv2D_bn_offset", "op": "Const", "attr": {"dtype": {"type": "DT_FLOAT"}, "value": {"tensor": {"dtype": "DT_FLOAT", "tensorShape": {"dim": [{"size": "32"}]}}}}}, {"name": "StatefulPartitionedCall/EfficientNetV1B3/stack_1_block2_sortcut_conv/Conv2D_weights", "op": "Const", "attr": {"dtype": {"type": "DT_FLOAT"}, "value": {"tensor": {"dtype": "DT_FLOAT", "tensorShape": {"dim": [{"size": "1"}, {"size": "1"}, {"size": "32"}, {"size": "192"}]}}}}}, {"name": "StatefulPartitionedCall/EfficientNetV1B3/stack_1_block2_sortcut_conv/Conv2D_bn_offset", "op": "Const", "attr": {"dtype": {"type": "DT_FLOAT"}, "value": {"tensor": {"dtype": "DT_FLOAT", "tensorShape": {"dim": [{"size": "192"}]}}}}}, {"name": "StatefulPartitionedCall/EfficientNetV1B3/stack_1_block2_MB_dw_/depthwise_weights", "op": "Const", "attr": {"dtype": {"type": "DT_FLOAT"}, "value": {"tensor": {"dtype": "DT_FLOAT", "tensorShape": {"dim": [{"size": "3"}, {"size": "3"}, {"size": "192"}, {"size": "1"}]}}}}}, {"name": "StatefulPartitionedCall/EfficientNetV1B3/stack_1_block2_MB_dw_/depthwise_bn_offset", "op": "Const", "attr": {"dtype": {"type": "DT_FLOAT"}, "value": {"tensor": {"dtype": "DT_FLOAT", "tensorShape": {"dim": [{"size": "192"}]}}}}}, {"name": "StatefulPartitionedCall/EfficientNetV1B3/stack_5_block5_sortcut_conv/Conv2D_weights", "op": "Const", "attr": {"dtype": {"type": "DT_FLOAT"}, "value": {"tensor": {"dtype": "DT_FLOAT", "tensorShape": {"dim": [{"size": "1"}, {"size": "1"}, {"size": "232"}, {"size": "1392"}]}}}}}, {"name": "StatefulPartitionedCall/EfficientNetV1B3/stack_1_block2_MB_pw_conv/Conv2D_weights", "op": "Const", "attr": {"dtype": {"type": "DT_FLOAT"}, "value": {"tensor": {"dtype": "DT_FLOAT", "tensorShape": {"dim": [{"size": "1"}, {"size": "1"}, {"size": "192"}, {"size": "32"}]}}}}}, {"name": "StatefulPartitionedCall/EfficientNetV1B3/stack_6_block1_MB_pw_conv/Conv2D_bn_offset", "op": "Const", "attr": {"dtype": {"type": "DT_FLOAT"}, "value": {"tensor": {"dtype": "DT_FLOAT", "tensorShape": {"dim": [{"size": "384"}]}}}}}, {"name": "StatefulPartitionedCall/EfficientNetV1B3/stack_1_block2_MB_pw_conv/Conv2D_bn_offset", "op": "Const", "attr": {"dtype": {"type": "DT_FLOAT"}, "value": {"tensor": {"dtype": "DT_FLOAT", "tensorShape": {"dim": [{"size": "32"}]}}}}}, {"name": "StatefulPartitionedCall/EfficientNetV1B3/stack_2_block0_sortcut_conv/Conv2D_weights", "op": "Const", "attr": {"dtype": {"type": "DT_FLOAT"}, "value": {"tensor": {"dtype": "DT_FLOAT", "tensorShape": {"dim": [{"size": "1"}, {"size": "1"}, {"size": "32"}, {"size": "192"}]}}}}}, {"name": "StatefulPartitionedCall/EfficientNetV1B3/stack_5_block5_sortcut_conv/Conv2D_bn_offset", "op": "Const", "attr": {"dtype": {"type": "DT_FLOAT"}, "value": {"tensor": {"dtype": "DT_FLOAT", "tensorShape": {"dim": [{"size": "1392"}]}}}}}, {"name": "StatefulPartitionedCall/EfficientNetV1B3/stack_2_block0_sortcut_conv/Conv2D_bn_offset", "op": "Const", "attr": {"dtype": {"type": "DT_FLOAT"}, "value": {"tensor": {"dtype": "DT_FLOAT", "tensorShape": {"dim": [{"size": "192"}]}}}}}, {"name": "StatefulPartitionedCall/EfficientNetV1B3/stack_2_block0_MB_dw_/depthwise_weights", "op": "Const", "attr": {"dtype": {"type": "DT_FLOAT"}, "value": {"tensor": {"dtype": "DT_FLOAT", "tensorShape": {"dim": [{"size": "5"}, {"size": "5"}, {"size": "192"}, {"size": "1"}]}}}}}, {"name": "StatefulPartitionedCall/EfficientNetV1B3/stack_2_block0_MB_dw_/depthwise_bn_offset", "op": "Const", "attr": {"dtype": {"type": "DT_FLOAT"}, "value": {"tensor": {"dtype": "DT_FLOAT", "tensorShape": {"dim": [{"size": "192"}]}}}}}, {"name": "StatefulPartitionedCall/EfficientNetV1B3/stack_2_block0_MB_pw_conv/Conv2D_weights", "op": "Const", "attr": {"dtype": {"type": "DT_FLOAT"}, "value": {"tensor": {"dtype": "DT_FLOAT", "tensorShape": {"dim": [{"size": "1"}, {"size": "1"}, {"size": "192"}, {"size": "48"}]}}}}}, {"name": "StatefulPartitionedCall/EfficientNetV1B3/stack_2_block0_MB_pw_conv/Conv2D_bn_offset", "op": "Const", "attr": {"dtype": {"type": "DT_FLOAT"}, "value": {"tensor": {"dtype": "DT_FLOAT", "tensorShape": {"dim": [{"size": "48"}]}}}}}, {"name": "StatefulPartitionedCall/EfficientNetV1B3/stack_2_block1_sortcut_conv/Conv2D_weights", "op": "Const", "attr": {"dtype": {"type": "DT_FLOAT"}, "value": {"tensor": {"dtype": "DT_FLOAT", "tensorShape": {"dim": [{"size": "1"}, {"size": "1"}, {"size": "48"}, {"size": "288"}]}}}}}, {"name": "StatefulPartitionedCall/EfficientNetV1B3/stack_5_block5_MB_dw_/depthwise_weights", "op": "Const", "attr": {"dtype": {"type": "DT_FLOAT"}, "value": {"tensor": {"dtype": "DT_FLOAT", "tensorShape": {"dim": [{"size": "5"}, {"size": "5"}, {"size": "1392"}, {"size": "1"}]}}}}}, {"name": "StatefulPartitionedCall/EfficientNetV1B3/stack_2_block1_sortcut_conv/Conv2D_bn_offset", "op": "Const", "attr": {"dtype": {"type": "DT_FLOAT"}, "value": {"tensor": {"dtype": "DT_FLOAT", "tensorShape": {"dim": [{"size": "288"}]}}}}}, {"name": "StatefulPartitionedCall/EfficientNetV1B3/stack_2_block1_MB_dw_/depthwise_weights", "op": "Const", "attr": {"dtype": {"type": "DT_FLOAT"}, "value": {"tensor": {"dtype": "DT_FLOAT", "tensorShape": {"dim": [{"size": "5"}, {"size": "5"}, {"size": "288"}, {"size": "1"}]}}}}}, {"name": "StatefulPartitionedCall/EfficientNetV1B3/stack_2_block1_MB_dw_/depthwise_bn_offset", "op": "Const", "attr": {"dtype": {"type": "DT_FLOAT"}, "value": {"tensor": {"dtype": "DT_FLOAT", "tensorShape": {"dim": [{"size": "288"}]}}}}}, {"name": "StatefulPartitionedCall/EfficientNetV1B3/stack_5_block5_MB_dw_/depthwise_bn_offset", "op": "Const", "attr": {"dtype": {"type": "DT_FLOAT"}, "value": {"tensor": {"dtype": "DT_FLOAT", "tensorShape": {"dim": [{"size": "1392"}]}}}}}, {"name": "StatefulPartitionedCall/EfficientNetV1B3/stack_2_block1_MB_pw_conv/Conv2D_weights", "op": "Const", "attr": {"dtype": {"type": "DT_FLOAT"}, "value": {"tensor": {"dtype": "DT_FLOAT", "tensorShape": {"dim": [{"size": "1"}, {"size": "1"}, {"size": "288"}, {"size": "48"}]}}}}}, {"name": "StatefulPartitionedCall/EfficientNetV1B3/stack_2_block1_MB_pw_conv/Conv2D_bn_offset", "op": "Const", "attr": {"dtype": {"type": "DT_FLOAT"}, "value": {"tensor": {"dtype": "DT_FLOAT", "tensorShape": {"dim": [{"size": "48"}]}}}}}, {"name": "StatefulPartitionedCall/EfficientNetV1B3/stack_2_block2_sortcut_conv/Conv2D_weights", "op": "Const", "attr": {"dtype": {"type": "DT_FLOAT"}, "value": {"tensor": {"dtype": "DT_FLOAT", "tensorShape": {"dim": [{"size": "1"}, {"size": "1"}, {"size": "48"}, {"size": "288"}]}}}}}, {"name": "StatefulPartitionedCall/EfficientNetV1B3/stack_2_block2_sortcut_conv/Conv2D_bn_offset", "op": "Const", "attr": {"value": {"tensor": {"dtype": "DT_FLOAT", "tensorShape": {"dim": [{"size": "288"}]}}}, "dtype": {"type": "DT_FLOAT"}}}, {"name": "StatefulPartitionedCall/EfficientNetV1B3/stack_2_block2_MB_dw_/depthwise_weights", "op": "Const", "attr": {"value": {"tensor": {"dtype": "DT_FLOAT", "tensorShape": {"dim": [{"size": "5"}, {"size": "5"}, {"size": "288"}, {"size": "1"}]}}}, "dtype": {"type": "DT_FLOAT"}}}, {"name": "StatefulPartitionedCall/EfficientNetV1B3/stack_2_block2_MB_dw_/depthwise_bn_offset", "op": "Const", "attr": {"dtype": {"type": "DT_FLOAT"}, "value": {"tensor": {"dtype": "DT_FLOAT", "tensorShape": {"dim": [{"size": "288"}]}}}}}, {"name": "StatefulPartitionedCall/EfficientNetV1B3/stack_2_block2_MB_pw_conv/Conv2D_weights", "op": "Const", "attr": {"dtype": {"type": "DT_FLOAT"}, "value": {"tensor": {"dtype": "DT_FLOAT", "tensorShape": {"dim": [{"size": "1"}, {"size": "1"}, {"size": "288"}, {"size": "48"}]}}}}}, {"name": "StatefulPartitionedCall/EfficientNetV1B3/stack_2_block2_MB_pw_conv/Conv2D_bn_offset", "op": "Const", "attr": {"dtype": {"type": "DT_FLOAT"}, "value": {"tensor": {"dtype": "DT_FLOAT", "tensorShape": {"dim": [{"size": "48"}]}}}}}, {"name": "StatefulPartitionedCall/EfficientNetV1B3/stack_3_block0_sortcut_conv/Conv2D_weights", "op": "Const", "attr": {"value": {"tensor": {"dtype": "DT_FLOAT", "tensorShape": {"dim": [{"size": "1"}, {"size": "1"}, {"size": "48"}, {"size": "288"}]}}}, "dtype": {"type": "DT_FLOAT"}}}, {"name": "StatefulPartitionedCall/EfficientNetV1B3/stack_3_block0_sortcut_conv/Conv2D_bn_offset", "op": "Const", "attr": {"dtype": {"type": "DT_FLOAT"}, "value": {"tensor": {"dtype": "DT_FLOAT", "tensorShape": {"dim": [{"size": "288"}]}}}}}, {"name": "StatefulPartitionedCall/EfficientNetV1B3/stack_3_block0_MB_dw_/depthwise_weights", "op": "Const", "attr": {"value": {"tensor": {"dtype": "DT_FLOAT", "tensorShape": {"dim": [{"size": "3"}, {"size": "3"}, {"size": "288"}, {"size": "1"}]}}}, "dtype": {"type": "DT_FLOAT"}}}, {"name": "StatefulPartitionedCall/EfficientNetV1B3/stack_3_block0_MB_dw_/depthwise_bn_offset", "op": "Const", "attr": {"dtype": {"type": "DT_FLOAT"}, "value": {"tensor": {"dtype": "DT_FLOAT", "tensorShape": {"dim": [{"size": "288"}]}}}}}, {"name": "StatefulPartitionedCall/EfficientNetV1B3/stack_3_block0_MB_pw_conv/Conv2D_weights", "op": "Const", "attr": {"dtype": {"type": "DT_FLOAT"}, "value": {"tensor": {"dtype": "DT_FLOAT", "tensorShape": {"dim": [{"size": "1"}, {"size": "1"}, {"size": "288"}, {"size": "96"}]}}}}}, {"name": "StatefulPartitionedCall/EfficientNetV1B3/stack_3_block0_MB_pw_conv/Conv2D_bn_offset", "op": "Const", "attr": {"dtype": {"type": "DT_FLOAT"}, "value": {"tensor": {"dtype": "DT_FLOAT", "tensorShape": {"dim": [{"size": "96"}]}}}}}, {"name": "StatefulPartitionedCall/EfficientNetV1B3/stack_3_block1_sortcut_conv/Conv2D_weights", "op": "Const", "attr": {"dtype": {"type": "DT_FLOAT"}, "value": {"tensor": {"dtype": "DT_FLOAT", "tensorShape": {"dim": [{"size": "1"}, {"size": "1"}, {"size": "96"}, {"size": "576"}]}}}}}, {"name": "StatefulPartitionedCall/EfficientNetV1B3/stack_3_block1_sortcut_conv/Conv2D_bn_offset", "op": "Const", "attr": {"dtype": {"type": "DT_FLOAT"}, "value": {"tensor": {"dtype": "DT_FLOAT", "tensorShape": {"dim": [{"size": "576"}]}}}}}, {"name": "StatefulPartitionedCall/EfficientNetV1B3/stack_3_block1_MB_dw_/depthwise_weights", "op": "Const", "attr": {"dtype": {"type": "DT_FLOAT"}, "value": {"tensor": {"dtype": "DT_FLOAT", "tensorShape": {"dim": [{"size": "3"}, {"size": "3"}, {"size": "576"}, {"size": "1"}]}}}}}, {"name": "StatefulPartitionedCall/EfficientNetV1B3/stack_3_block1_MB_dw_/depthwise_bn_offset", "op": "Const", "attr": {"dtype": {"type": "DT_FLOAT"}, "value": {"tensor": {"dtype": "DT_FLOAT", "tensorShape": {"dim": [{"size": "576"}]}}}}}, {"name": "StatefulPartitionedCall/EfficientNetV1B3/stack_3_block1_MB_pw_conv/Conv2D_weights", "op": "Const", "attr": {"dtype": {"type": "DT_FLOAT"}, "value": {"tensor": {"dtype": "DT_FLOAT", "tensorShape": {"dim": [{"size": "1"}, {"size": "1"}, {"size": "576"}, {"size": "96"}]}}}}}, {"name": "StatefulPartitionedCall/EfficientNetV1B3/stack_5_block5_MB_pw_conv/Conv2D_weights", "op": "Const", "attr": {"dtype": {"type": "DT_FLOAT"}, "value": {"tensor": {"dtype": "DT_FLOAT", "tensorShape": {"dim": [{"size": "1"}, {"size": "1"}, {"size": "1392"}, {"size": "232"}]}}}}}, {"name": "StatefulPartitionedCall/EfficientNetV1B3/stack_3_block1_MB_pw_conv/Conv2D_bn_offset", "op": "Const", "attr": {"dtype": {"type": "DT_FLOAT"}, "value": {"tensor": {"dtype": "DT_FLOAT", "tensorShape": {"dim": [{"size": "96"}]}}}}}, {"name": "StatefulPartitionedCall/EfficientNetV1B3/stack_3_block2_sortcut_conv/Conv2D_weights", "op": "Const", "attr": {"dtype": {"type": "DT_FLOAT"}, "value": {"tensor": {"dtype": "DT_FLOAT", "tensorShape": {"dim": [{"size": "1"}, {"size": "1"}, {"size": "96"}, {"size": "576"}]}}}}}, {"name": "StatefulPartitionedCall/EfficientNetV1B3/post_conv/Conv2D_weights", "op": "Const", "attr": {"dtype": {"type": "DT_FLOAT"}, "value": {"tensor": {"dtype": "DT_FLOAT", "tensorShape": {"dim": [{"size": "1"}, {"size": "1"}, {"size": "384"}, {"size": "1536"}]}}}}}, {"name": "StatefulPartitionedCall/EfficientNetV1B3/stack_3_block2_sortcut_conv/Conv2D_bn_offset", "op": "Const", "attr": {"dtype": {"type": "DT_FLOAT"}, "value": {"tensor": {"dtype": "DT_FLOAT", "tensorShape": {"dim": [{"size": "576"}]}}}}}, {"name": "StatefulPartitionedCall/EfficientNetV1B3/stack_3_block2_MB_dw_/depthwise_weights", "op": "Const", "attr": {"dtype": {"type": "DT_FLOAT"}, "value": {"tensor": {"dtype": "DT_FLOAT", "tensorShape": {"dim": [{"size": "3"}, {"size": "3"}, {"size": "576"}, {"size": "1"}]}}}}}, {"name": "StatefulPartitionedCall/EfficientNetV1B3/stack_3_block2_MB_dw_/depthwise_bn_offset", "op": "Const", "attr": {"dtype": {"type": "DT_FLOAT"}, "value": {"tensor": {"dtype": "DT_FLOAT", "tensorShape": {"dim": [{"size": "576"}]}}}}}, {"name": "StatefulPartitionedCall/EfficientNetV1B3/stack_5_block5_MB_pw_conv/Conv2D_bn_offset", "op": "Const", "attr": {"dtype": {"type": "DT_FLOAT"}, "value": {"tensor": {"dtype": "DT_FLOAT", "tensorShape": {"dim": [{"size": "232"}]}}}}}, {"name": "StatefulPartitionedCall/EfficientNetV1B3/stack_3_block2_MB_pw_conv/Conv2D_weights", "op": "Const", "attr": {"dtype": {"type": "DT_FLOAT"}, "value": {"tensor": {"dtype": "DT_FLOAT", "tensorShape": {"dim": [{"size": "1"}, {"size": "1"}, {"size": "576"}, {"size": "96"}]}}}}}, {"name": "StatefulPartitionedCall/EfficientNetV1B3/stack_3_block2_MB_pw_conv/Conv2D_bn_offset", "op": "Const", "attr": {"dtype": {"type": "DT_FLOAT"}, "value": {"tensor": {"dtype": "DT_FLOAT", "tensorShape": {"dim": [{"size": "96"}]}}}}}, {"name": "StatefulPartitionedCall/EfficientNetV1B3/stack_3_block3_sortcut_conv/Conv2D_weights", "op": "Const", "attr": {"dtype": {"type": "DT_FLOAT"}, "value": {"tensor": {"dtype": "DT_FLOAT", "tensorShape": {"dim": [{"size": "1"}, {"size": "1"}, {"size": "96"}, {"size": "576"}]}}}}}, {"name": "StatefulPartitionedCall/EfficientNetV1B3/stack_6_block0_sortcut_conv/Conv2D_weights", "op": "Const", "attr": {"value": {"tensor": {"dtype": "DT_FLOAT", "tensorShape": {"dim": [{"size": "1"}, {"size": "1"}, {"size": "232"}, {"size": "1392"}]}}}, "dtype": {"type": "DT_FLOAT"}}}, {"name": "StatefulPartitionedCall/EfficientNetV1B3/stack_3_block3_sortcut_conv/Conv2D_bn_offset", "op": "Const", "attr": {"dtype": {"type": "DT_FLOAT"}, "value": {"tensor": {"dtype": "DT_FLOAT", "tensorShape": {"dim": [{"size": "576"}]}}}}}, {"name": "StatefulPartitionedCall/EfficientNetV1B3/stack_3_block3_MB_dw_/depthwise_weights", "op": "Const", "attr": {"value": {"tensor": {"dtype": "DT_FLOAT", "tensorShape": {"dim": [{"size": "3"}, {"size": "3"}, {"size": "576"}, {"size": "1"}]}}}, "dtype": {"type": "DT_FLOAT"}}}, {"name": "StatefulPartitionedCall/EfficientNetV1B3/stack_3_block3_MB_dw_/depthwise_bn_offset", "op": "Const", "attr": {"value": {"tensor": {"dtype": "DT_FLOAT", "tensorShape": {"dim": [{"size": "576"}]}}}, "dtype": {"type": "DT_FLOAT"}}}, {"name": "StatefulPartitionedCall/EfficientNetV1B3/stack_6_block0_sortcut_conv/Conv2D_bn_offset", "op": "Const", "attr": {"value": {"tensor": {"dtype": "DT_FLOAT", "tensorShape": {"dim": [{"size": "1392"}]}}}, "dtype": {"type": "DT_FLOAT"}}}, {"name": "StatefulPartitionedCall/EfficientNetV1B3/stack_3_block3_MB_pw_conv/Conv2D_weights", "op": "Const", "attr": {"dtype": {"type": "DT_FLOAT"}, "value": {"tensor": {"dtype": "DT_FLOAT", "tensorShape": {"dim": [{"size": "1"}, {"size": "1"}, {"size": "576"}, {"size": "96"}]}}}}}, {"name": "StatefulPartitionedCall/EfficientNetV1B3/stack_3_block3_MB_pw_conv/Conv2D_bn_offset", "op": "Const", "attr": {"value": {"tensor": {"dtype": "DT_FLOAT", "tensorShape": {"dim": [{"size": "96"}]}}}, "dtype": {"type": "DT_FLOAT"}}}, {"name": "StatefulPartitionedCall/EfficientNetV1B3/stack_3_block4_sortcut_conv/Conv2D_weights", "op": "Const", "attr": {"dtype": {"type": "DT_FLOAT"}, "value": {"tensor": {"dtype": "DT_FLOAT", "tensorShape": {"dim": [{"size": "1"}, {"size": "1"}, {"size": "96"}, {"size": "576"}]}}}}}, {"name": "StatefulPartitionedCall/EfficientNetV1B3/stack_3_block4_sortcut_conv/Conv2D_bn_offset", "op": "Const", "attr": {"dtype": {"type": "DT_FLOAT"}, "value": {"tensor": {"dtype": "DT_FLOAT", "tensorShape": {"dim": [{"size": "576"}]}}}}}, {"name": "StatefulPartitionedCall/EfficientNetV1B3/stack_3_block4_MB_dw_/depthwise_weights", "op": "Const", "attr": {"dtype": {"type": "DT_FLOAT"}, "value": {"tensor": {"dtype": "DT_FLOAT", "tensorShape": {"dim": [{"size": "3"}, {"size": "3"}, {"size": "576"}, {"size": "1"}]}}}}}, {"name": "StatefulPartitionedCall/EfficientNetV1B3/stack_3_block4_MB_dw_/depthwise_bn_offset", "op": "Const", "attr": {"dtype": {"type": "DT_FLOAT"}, "value": {"tensor": {"dtype": "DT_FLOAT", "tensorShape": {"dim": [{"size": "576"}]}}}}}, {"name": "StatefulPartitionedCall/EfficientNetV1B3/stack_6_block0_MB_dw_/depthwise_weights", "op": "Const", "attr": {"dtype": {"type": "DT_FLOAT"}, "value": {"tensor": {"dtype": "DT_FLOAT", "tensorShape": {"dim": [{"size": "3"}, {"size": "3"}, {"size": "1392"}, {"size": "1"}]}}}}}, {"name": "StatefulPartitionedCall/EfficientNetV1B3/stack_3_block4_MB_pw_conv/Conv2D_weights", "op": "Const", "attr": {"dtype": {"type": "DT_FLOAT"}, "value": {"tensor": {"dtype": "DT_FLOAT", "tensorShape": {"dim": [{"size": "1"}, {"size": "1"}, {"size": "576"}, {"size": "96"}]}}}}}, {"name": "StatefulPartitionedCall/EfficientNetV1B3/stack_3_block4_MB_pw_conv/Conv2D_bn_offset", "op": "Const", "attr": {"dtype": {"type": "DT_FLOAT"}, "value": {"tensor": {"dtype": "DT_FLOAT", "tensorShape": {"dim": [{"size": "96"}]}}}}}, {"name": "StatefulPartitionedCall/EfficientNetV1B3/stack_4_block0_sortcut_conv/Conv2D_weights", "op": "Const", "attr": {"value": {"tensor": {"dtype": "DT_FLOAT", "tensorShape": {"dim": [{"size": "1"}, {"size": "1"}, {"size": "96"}, {"size": "576"}]}}}, "dtype": {"type": "DT_FLOAT"}}}, {"name": "StatefulPartitionedCall/EfficientNetV1B3/stack_6_block0_MB_dw_/depthwise_bn_offset", "op": "Const", "attr": {"value": {"tensor": {"dtype": "DT_FLOAT", "tensorShape": {"dim": [{"size": "1392"}]}}}, "dtype": {"type": "DT_FLOAT"}}}, {"name": "StatefulPartitionedCall/EfficientNetV1B3/stack_4_block0_sortcut_conv/Conv2D_bn_offset", "op": "Const", "attr": {"value": {"tensor": {"dtype": "DT_FLOAT", "tensorShape": {"dim": [{"size": "576"}]}}}, "dtype": {"type": "DT_FLOAT"}}}, {"name": "StatefulPartitionedCall/EfficientNetV1B3/stack_4_block0_MB_dw_/depthwise_weights", "op": "Const", "attr": {"dtype": {"type": "DT_FLOAT"}, "value": {"tensor": {"dtype": "DT_FLOAT", "tensorShape": {"dim": [{"size": "5"}, {"size": "5"}, {"size": "576"}, {"size": "1"}]}}}}}, {"name": "StatefulPartitionedCall/EfficientNetV1B3/stack_4_block0_MB_dw_/depthwise_bn_offset", "op": "Const", "attr": {"value": {"tensor": {"dtype": "DT_FLOAT", "tensorShape": {"dim": [{"size": "576"}]}}}, "dtype": {"type": "DT_FLOAT"}}}, {"name": "StatefulPartitionedCall/EfficientNetV1B3/stack_4_block0_MB_pw_conv/Conv2D_weights", "op": "Const", "attr": {"dtype": {"type": "DT_FLOAT"}, "value": {"tensor": {"dtype": "DT_FLOAT", "tensorShape": {"dim": [{"size": "1"}, {"size": "1"}, {"size": "576"}, {"size": "136"}]}}}}}, {"name": "StatefulPartitionedCall/EfficientNetV1B3/stack_4_block0_MB_pw_conv/Conv2D_bn_offset", "op": "Const", "attr": {"dtype": {"type": "DT_FLOAT"}, "value": {"tensor": {"dtype": "DT_FLOAT", "tensorShape": {"dim": [{"size": "136"}]}}}}}, {"name": "StatefulPartitionedCall/EfficientNetV1B3/stack_4_block1_sortcut_conv/Conv2D_weights", "op": "Const", "attr": {"dtype": {"type": "DT_FLOAT"}, "value": {"tensor": {"dtype": "DT_FLOAT", "tensorShape": {"dim": [{"size": "1"}, {"size": "1"}, {"size": "136"}, {"size": "816"}]}}}}}, {"name": "StatefulPartitionedCall/EfficientNetV1B3/stack_4_block1_sortcut_conv/Conv2D_bn_offset", "op": "Const", "attr": {"dtype": {"type": "DT_FLOAT"}, "value": {"tensor": {"dtype": "DT_FLOAT", "tensorShape": {"dim": [{"size": "816"}]}}}}}, {"name": "StatefulPartitionedCall/EfficientNetV1B3/stack_4_block1_MB_dw_/depthwise_weights", "op": "Const", "attr": {"value": {"tensor": {"dtype": "DT_FLOAT", "tensorShape": {"dim": [{"size": "5"}, {"size": "5"}, {"size": "816"}, {"size": "1"}]}}}, "dtype": {"type": "DT_FLOAT"}}}, {"name": "StatefulPartitionedCall/EfficientNetV1B3/stack_4_block1_MB_dw_/depthwise_bn_offset", "op": "Const", "attr": {"dtype": {"type": "DT_FLOAT"}, "value": {"tensor": {"dtype": "DT_FLOAT", "tensorShape": {"dim": [{"size": "816"}]}}}}}, {"name": "StatefulPartitionedCall/EfficientNetV1B3/post_conv/Conv2D_bn_offset", "op": "Const", "attr": {"dtype": {"type": "DT_FLOAT"}, "value": {"tensor": {"dtype": "DT_FLOAT", "tensorShape": {"dim": [{"size": "1536"}]}}}}}, {"name": "StatefulPartitionedCall/EfficientNetV1B3/stack_4_block1_MB_pw_conv/Conv2D_weights", "op": "Const", "attr": {"dtype": {"type": "DT_FLOAT"}, "value": {"tensor": {"dtype": "DT_FLOAT", "tensorShape": {"dim": [{"size": "1"}, {"size": "1"}, {"size": "816"}, {"size": "136"}]}}}}}, {"name": "StatefulPartitionedCall/EfficientNetV1B3/stack_4_block1_MB_pw_conv/Conv2D_bn_offset", "op": "Const", "attr": {"dtype": {"type": "DT_FLOAT"}, "value": {"tensor": {"dtype": "DT_FLOAT", "tensorShape": {"dim": [{"size": "136"}]}}}}}, {"name": "StatefulPartitionedCall/EfficientNetV1B3/stack_4_block2_sortcut_conv/Conv2D_weights", "op": "Const", "attr": {"dtype": {"type": "DT_FLOAT"}, "value": {"tensor": {"dtype": "DT_FLOAT", "tensorShape": {"dim": [{"size": "1"}, {"size": "1"}, {"size": "136"}, {"size": "816"}]}}}}}, {"name": "StatefulPartitionedCall/EfficientNetV1B3/stack_4_block2_sortcut_conv/Conv2D_bn_offset", "op": "Const", "attr": {"value": {"tensor": {"dtype": "DT_FLOAT", "tensorShape": {"dim": [{"size": "816"}]}}}, "dtype": {"type": "DT_FLOAT"}}}, {"name": "StatefulPartitionedCall/EfficientNetV1B3/stack_4_block2_MB_dw_/depthwise_weights", "op": "Const", "attr": {"dtype": {"type": "DT_FLOAT"}, "value": {"tensor": {"dtype": "DT_FLOAT", "tensorShape": {"dim": [{"size": "5"}, {"size": "5"}, {"size": "816"}, {"size": "1"}]}}}}}, {"name": "StatefulPartitionedCall/EfficientNetV1B3/stack_4_block2_MB_dw_/depthwise_bn_offset", "op": "Const", "attr": {"dtype": {"type": "DT_FLOAT"}, "value": {"tensor": {"dtype": "DT_FLOAT", "tensorShape": {"dim": [{"size": "816"}]}}}}}, {"name": "StatefulPartitionedCall/EfficientNetV1B3/stack_4_block2_MB_pw_conv/Conv2D_weights", "op": "Const", "attr": {"dtype": {"type": "DT_FLOAT"}, "value": {"tensor": {"dtype": "DT_FLOAT", "tensorShape": {"dim": [{"size": "1"}, {"size": "1"}, {"size": "816"}, {"size": "136"}]}}}}}, {"name": "StatefulPartitionedCall/EfficientNetV1B3/stack_4_block2_MB_pw_conv/Conv2D_bn_offset", "op": "Const", "attr": {"dtype": {"type": "DT_FLOAT"}, "value": {"tensor": {"dtype": "DT_FLOAT", "tensorShape": {"dim": [{"size": "136"}]}}}}}, {"name": "StatefulPartitionedCall/EfficientNetV1B3/stack_4_block3_sortcut_conv/Conv2D_weights", "op": "Const", "attr": {"dtype": {"type": "DT_FLOAT"}, "value": {"tensor": {"dtype": "DT_FLOAT", "tensorShape": {"dim": [{"size": "1"}, {"size": "1"}, {"size": "136"}, {"size": "816"}]}}}}}, {"name": "StatefulPartitionedCall/EfficientNetV1B3/stack_4_block3_sortcut_conv/Conv2D_bn_offset", "op": "Const", "attr": {"dtype": {"type": "DT_FLOAT"}, "value": {"tensor": {"dtype": "DT_FLOAT", "tensorShape": {"dim": [{"size": "816"}]}}}}}, {"name": "StatefulPartitionedCall/EfficientNetV1B3/stack_4_block3_MB_dw_/depthwise_weights", "op": "Const", "attr": {"dtype": {"type": "DT_FLOAT"}, "value": {"tensor": {"dtype": "DT_FLOAT", "tensorShape": {"dim": [{"size": "5"}, {"size": "5"}, {"size": "816"}, {"size": "1"}]}}}}}, {"name": "StatefulPartitionedCall/EfficientNetV1B3/stack_4_block3_MB_dw_/depthwise_bn_offset", "op": "Const", "attr": {"value": {"tensor": {"dtype": "DT_FLOAT", "tensorShape": {"dim": [{"size": "816"}]}}}, "dtype": {"type": "DT_FLOAT"}}}, {"name": "StatefulPartitionedCall/EfficientNetV1B3/stack_6_block0_MB_pw_conv/Conv2D_weights", "op": "Const", "attr": {"value": {"tensor": {"dtype": "DT_FLOAT", "tensorShape": {"dim": [{"size": "1"}, {"size": "1"}, {"size": "1392"}, {"size": "384"}]}}}, "dtype": {"type": "DT_FLOAT"}}}, {"name": "StatefulPartitionedCall/EfficientNetV1B3/stack_4_block3_MB_pw_conv/Conv2D_weights", "op": "Const", "attr": {"value": {"tensor": {"dtype": "DT_FLOAT", "tensorShape": {"dim": [{"size": "1"}, {"size": "1"}, {"size": "816"}, {"size": "136"}]}}}, "dtype": {"type": "DT_FLOAT"}}}, {"name": "StatefulPartitionedCall/EfficientNetV1B3/stack_6_block0_MB_pw_conv/Conv2D_bn_offset", "op": "Const", "attr": {"value": {"tensor": {"dtype": "DT_FLOAT", "tensorShape": {"dim": [{"size": "384"}]}}}, "dtype": {"type": "DT_FLOAT"}}}, {"name": "StatefulPartitionedCall/EfficientNetV1B3/stack_4_block3_MB_pw_conv/Conv2D_bn_offset", "op": "Const", "attr": {"dtype": {"type": "DT_FLOAT"}, "value": {"tensor": {"dtype": "DT_FLOAT", "tensorShape": {"dim": [{"size": "136"}]}}}}}, {"name": "StatefulPartitionedCall/EfficientNetV1B3/stack_4_block4_sortcut_conv/Conv2D_weights", "op": "Const", "attr": {"value": {"tensor": {"dtype": "DT_FLOAT", "tensorShape": {"dim": [{"size": "1"}, {"size": "1"}, {"size": "136"}, {"size": "816"}]}}}, "dtype": {"type": "DT_FLOAT"}}}, {"name": "StatefulPartitionedCall/EfficientNetV1B3/stack_4_block4_sortcut_conv/Conv2D_bn_offset", "op": "Const", "attr": {"value": {"tensor": {"dtype": "DT_FLOAT", "tensorShape": {"dim": [{"size": "816"}]}}}, "dtype": {"type": "DT_FLOAT"}}}, {"name": "StatefulPartitionedCall/EfficientNetV1B3/stack_4_block4_MB_dw_/depthwise_weights", "op": "Const", "attr": {"value": {"tensor": {"dtype": "DT_FLOAT", "tensorShape": {"dim": [{"size": "5"}, {"size": "5"}, {"size": "816"}, {"size": "1"}]}}}, "dtype": {"type": "DT_FLOAT"}}}, {"name": "StatefulPartitionedCall/EfficientNetV1B3/stack_4_block4_MB_dw_/depthwise_bn_offset", "op": "Const", "attr": {"value": {"tensor": {"dtype": "DT_FLOAT", "tensorShape": {"dim": [{"size": "816"}]}}}, "dtype": {"type": "DT_FLOAT"}}}, {"name": "StatefulPartitionedCall/EfficientNetV1B3/stack_6_block1_sortcut_conv/Conv2D_weights", "op": "Const", "attr": {"value": {"tensor": {"dtype": "DT_FLOAT", "tensorShape": {"dim": [{"size": "1"}, {"size": "1"}, {"size": "384"}, {"size": "2304"}]}}}, "dtype": {"type": "DT_FLOAT"}}}, {"name": "StatefulPartitionedCall/EfficientNetV1B3/stack_4_block4_MB_pw_conv/Conv2D_weights", "op": "Const", "attr": {"value": {"tensor": {"dtype": "DT_FLOAT", "tensorShape": {"dim": [{"size": "1"}, {"size": "1"}, {"size": "816"}, {"size": "136"}]}}}, "dtype": {"type": "DT_FLOAT"}}}, {"name": "StatefulPartitionedCall/EfficientNetV1B3/stack_6_block1_sortcut_conv/Conv2D_bn_offset", "op": "Const", "attr": {"dtype": {"type": "DT_FLOAT"}, "value": {"tensor": {"dtype": "DT_FLOAT", "tensorShape": {"dim": [{"size": "2304"}]}}}}}, {"name": "StatefulPartitionedCall/EfficientNetV1B3/stack_4_block4_MB_pw_conv/Conv2D_bn_offset", "op": "Const", "attr": {"dtype": {"type": "DT_FLOAT"}, "value": {"tensor": {"dtype": "DT_FLOAT", "tensorShape": {"dim": [{"size": "136"}]}}}}}, {"name": "StatefulPartitionedCall/EfficientNetV1B3/stack_5_block0_sortcut_conv/Conv2D_weights", "op": "Const", "attr": {"value": {"tensor": {"dtype": "DT_FLOAT", "tensorShape": {"dim": [{"size": "1"}, {"size": "1"}, {"size": "136"}, {"size": "816"}]}}}, "dtype": {"type": "DT_FLOAT"}}}, {"name": "StatefulPartitionedCall/EfficientNetV1B3/stack_5_block0_sortcut_conv/Conv2D_bn_offset", "op": "Const", "attr": {"value": {"tensor": {"dtype": "DT_FLOAT", "tensorShape": {"dim": [{"size": "816"}]}}}, "dtype": {"type": "DT_FLOAT"}}}, {"name": "StatefulPartitionedCall/EfficientNetV1B3/stack_5_block0_MB_dw_/depthwise_weights", "op": "Const", "attr": {"dtype": {"type": "DT_FLOAT"}, "value": {"tensor": {"dtype": "DT_FLOAT", "tensorShape": {"dim": [{"size": "5"}, {"size": "5"}, {"size": "816"}, {"size": "1"}]}}}}}, {"name": "StatefulPartitionedCall/EfficientNetV1B3/stack_5_block0_MB_dw_/depthwise_bn_offset", "op": "Const", "attr": {"value": {"tensor": {"dtype": "DT_FLOAT", "tensorShape": {"dim": [{"size": "816"}]}}}, "dtype": {"type": "DT_FLOAT"}}}, {"name": "StatefulPartitionedCall/EfficientNetV1B3/stack_5_block0_MB_pw_conv/Conv2D_weights", "op": "Const", "attr": {"value": {"tensor": {"dtype": "DT_FLOAT", "tensorShape": {"dim": [{"size": "1"}, {"size": "1"}, {"size": "816"}, {"size": "232"}]}}}, "dtype": {"type": "DT_FLOAT"}}}, {"name": "StatefulPartitionedCall/EfficientNetV1B3/stack_6_block1_MB_dw_/depthwise_weights", "op": "Const", "attr": {"dtype": {"type": "DT_FLOAT"}, "value": {"tensor": {"dtype": "DT_FLOAT", "tensorShape": {"dim": [{"size": "3"}, {"size": "3"}, {"size": "2304"}, {"size": "1"}]}}}}}, {"name": "StatefulPartitionedCall/EfficientNetV1B3/stack_5_block0_MB_pw_conv/Conv2D_bn_offset", "op": "Const", "attr": {"dtype": {"type": "DT_FLOAT"}, "value": {"tensor": {"dtype": "DT_FLOAT", "tensorShape": {"dim": [{"size": "232"}]}}}}}, {"name": "StatefulPartitionedCall/EfficientNetV1B3/stack_5_block1_sortcut_conv/Conv2D_weights", "op": "Const", "attr": {"dtype": {"type": "DT_FLOAT"}, "value": {"tensor": {"dtype": "DT_FLOAT", "tensorShape": {"dim": [{"size": "1"}, {"size": "1"}, {"size": "232"}, {"size": "1392"}]}}}}}, {"name": "StatefulPartitionedCall/EfficientNetV1B3/stack_5_block1_sortcut_conv/Conv2D_bn_offset", "op": "Const", "attr": {"dtype": {"type": "DT_FLOAT"}, "value": {"tensor": {"dtype": "DT_FLOAT", "tensorShape": {"dim": [{"size": "1392"}]}}}}}, {"name": "StatefulPartitionedCall/EfficientNetV1B3/stack_5_block1_MB_dw_/depthwise_weights", "op": "Const", "attr": {"value": {"tensor": {"dtype": "DT_FLOAT", "tensorShape": {"dim": [{"size": "5"}, {"size": "5"}, {"size": "1392"}, {"size": "1"}]}}}, "dtype": {"type": "DT_FLOAT"}}}, {"name": "StatefulPartitionedCall/EfficientNetV1B3/stack_5_block1_MB_dw_/depthwise_bn_offset", "op": "Const", "attr": {"value": {"tensor": {"dtype": "DT_FLOAT", "tensorShape": {"dim": [{"size": "1392"}]}}}, "dtype": {"type": "DT_FLOAT"}}}, {"name": "StatefulPartitionedCall/EfficientNetV1B3/stack_6_block1_MB_dw_/depthwise_bn_offset", "op": "Const", "attr": {"value": {"tensor": {"dtype": "DT_FLOAT", "tensorShape": {"dim": [{"size": "2304"}]}}}, "dtype": {"type": "DT_FLOAT"}}}, {"name": "StatefulPartitionedCall/EfficientNetV1B3/stack_5_block1_MB_pw_conv/Conv2D_weights", "op": "Const", "attr": {"value": {"tensor": {"dtype": "DT_FLOAT", "tensorShape": {"dim": [{"size": "1"}, {"size": "1"}, {"size": "1392"}, {"size": "232"}]}}}, "dtype": {"type": "DT_FLOAT"}}}, {"name": "StatefulPartitionedCall/EfficientNetV1B3/stack_5_block1_MB_pw_conv/Conv2D_bn_offset", "op": "Const", "attr": {"value": {"tensor": {"dtype": "DT_FLOAT", "tensorShape": {"dim": [{"size": "232"}]}}}, "dtype": {"type": "DT_FLOAT"}}}, {"name": "StatefulPartitionedCall/EfficientNetV1B3/stack_5_block2_sortcut_conv/Conv2D_weights", "op": "Const", "attr": {"value": {"tensor": {"dtype": "DT_FLOAT", "tensorShape": {"dim": [{"size": "1"}, {"size": "1"}, {"size": "232"}, {"size": "1392"}]}}}, "dtype": {"type": "DT_FLOAT"}}}, {"name": "StatefulPartitionedCall/EfficientNetV1B3/stack_5_block2_sortcut_conv/Conv2D_bn_offset", "op": "Const", "attr": {"dtype": {"type": "DT_FLOAT"}, "value": {"tensor": {"dtype": "DT_FLOAT", "tensorShape": {"dim": [{"size": "1392"}]}}}}}, {"name": "StatefulPartitionedCall/EfficientNetV1B3/stack_5_block2_MB_dw_/depthwise_weights", "op": "Const", "attr": {"value": {"tensor": {"dtype": "DT_FLOAT", "tensorShape": {"dim": [{"size": "5"}, {"size": "5"}, {"size": "1392"}, {"size": "1"}]}}}, "dtype": {"type": "DT_FLOAT"}}}, {"name": "StatefulPartitionedCall/EfficientNetV1B3/stack_5_block2_MB_dw_/depthwise_bn_offset", "op": "Const", "attr": {"value": {"tensor": {"dtype": "DT_FLOAT", "tensorShape": {"dim": [{"size": "1392"}]}}}, "dtype": {"type": "DT_FLOAT"}}}, {"name": "StatefulPartitionedCall/EfficientNetV1B3/stack_5_block2_MB_pw_conv/Conv2D_weights", "op": "Const", "attr": {"value": {"tensor": {"dtype": "DT_FLOAT", "tensorShape": {"dim": [{"size": "1"}, {"size": "1"}, {"size": "1392"}, {"size": "232"}]}}}, "dtype": {"type": "DT_FLOAT"}}}, {"name": "StatefulPartitionedCall/EfficientNetV1B3/stack_5_block2_MB_pw_conv/Conv2D_bn_offset", "op": "Const", "attr": {"value": {"tensor": {"dtype": "DT_FLOAT", "tensorShape": {"dim": [{"size": "232"}]}}}, "dtype": {"type": "DT_FLOAT"}}}, {"name": "StatefulPartitionedCall/EfficientNetV1B3/stack_5_block3_sortcut_conv/Conv2D_weights", "op": "Const", "attr": {"value": {"tensor": {"dtype": "DT_FLOAT", "tensorShape": {"dim": [{"size": "1"}, {"size": "1"}, {"size": "232"}, {"size": "1392"}]}}}, "dtype": {"type": "DT_FLOAT"}}}, {"name": "StatefulPartitionedCall/EfficientNetV1B3/stack_5_block3_sortcut_conv/Conv2D_bn_offset", "op": "Const", "attr": {"value": {"tensor": {"dtype": "DT_FLOAT", "tensorShape": {"dim": [{"size": "1392"}]}}}, "dtype": {"type": "DT_FLOAT"}}}, {"name": "StatefulPartitionedCall/EfficientNetV1B3/stack_5_block3_MB_dw_/depthwise_weights", "op": "Const", "attr": {"dtype": {"type": "DT_FLOAT"}, "value": {"tensor": {"dtype": "DT_FLOAT", "tensorShape": {"dim": [{"size": "5"}, {"size": "5"}, {"size": "1392"}, {"size": "1"}]}}}}}, {"name": "StatefulPartitionedCall/EfficientNetV1B3/stack_5_block3_MB_dw_/depthwise_bn_offset", "op": "Const", "attr": {"value": {"tensor": {"dtype": "DT_FLOAT", "tensorShape": {"dim": [{"size": "1392"}]}}}, "dtype": {"type": "DT_FLOAT"}}}, {"name": "StatefulPartitionedCall/EfficientNetV1B3/stack_5_block3_MB_pw_conv/Conv2D_weights", "op": "Const", "attr": {"value": {"tensor": {"dtype": "DT_FLOAT", "tensorShape": {"dim": [{"size": "1"}, {"size": "1"}, {"size": "1392"}, {"size": "232"}]}}}, "dtype": {"type": "DT_FLOAT"}}}, {"name": "StatefulPartitionedCall/EfficientNetV1B3/stack_5_block3_MB_pw_conv/Conv2D_bn_offset", "op": "Const", "attr": {"dtype": {"type": "DT_FLOAT"}, "value": {"tensor": {"dtype": "DT_FLOAT", "tensorShape": {"dim": [{"size": "232"}]}}}}}, {"name": "StatefulPartitionedCall/EfficientNetV1B3/stack_5_block4_sortcut_conv/Conv2D_weights", "op": "Const", "attr": {"value": {"tensor": {"dtype": "DT_FLOAT", "tensorShape": {"dim": [{"size": "1"}, {"size": "1"}, {"size": "232"}, {"size": "1392"}]}}}, "dtype": {"type": "DT_FLOAT"}}}, {"name": "StatefulPartitionedCall/EfficientNetV1B3/stack_5_block4_sortcut_conv/Conv2D_bn_offset", "op": "Const", "attr": {"dtype": {"type": "DT_FLOAT"}, "value": {"tensor": {"dtype": "DT_FLOAT", "tensorShape": {"dim": [{"size": "1392"}]}}}}}, {"name": "StatefulPartitionedCall/EfficientNetV1B3/stack_5_block4_MB_dw_/depthwise_weights", "op": "Const", "attr": {"value": {"tensor": {"dtype": "DT_FLOAT", "tensorShape": {"dim": [{"size": "5"}, {"size": "5"}, {"size": "1392"}, {"size": "1"}]}}}, "dtype": {"type": "DT_FLOAT"}}}, {"name": "StatefulPartitionedCall/EfficientNetV1B3/stack_5_block4_MB_dw_/depthwise_bn_offset", "op": "Const", "attr": {"value": {"tensor": {"dtype": "DT_FLOAT", "tensorShape": {"dim": [{"size": "1392"}]}}}, "dtype": {"type": "DT_FLOAT"}}}, {"name": "StatefulPartitionedCall/EfficientNetV1B3/stem_bn/FusedBatchNormV3", "op": "_FusedConv2D", "input": ["input_1", "StatefulPartitionedCall/EfficientNetV1B3/stem_conv/Conv2D_weights", "StatefulPartitionedCall/EfficientNetV1B3/stem_conv/Conv2D_bn_offset"], "device": "/device:CPU:0", "attr": {"data_format": {"s": "TkhXQw=="}, "explicit_paddings": {"list": {}}, "fused_ops": {"list": {"s": ["Qmlhc0FkZA=="]}}, "dilations": {"list": {"i": ["1", "1", "1", "1"]}}, "T": {"type": "DT_FLOAT"}, "strides": {"list": {"i": ["1", "2", "2", "1"]}}, "num_args": {"i": "1"}, "padding": {"s": "U0FNRQ=="}, "epsilon": {"f": 0.0}, "use_cudnn_on_gpu": {"b": true}}}, {"name": "StatefulPartitionedCall/EfficientNetV1B3/stem_swish/Sigmoid", "op": "Sigmoid", "input": ["StatefulPartitionedCall/EfficientNetV1B3/stem_bn/FusedBatchNormV3"], "attr": {"T": {"type": "DT_FLOAT"}}}, {"name": "StatefulPartitionedCall/EfficientNetV1B3/stem_swish/mul", "op": "Mul", "input": ["StatefulPartitionedCall/EfficientNetV1B3/stem_bn/FusedBatchNormV3", "StatefulPartitionedCall/EfficientNetV1B3/stem_swish/Sigmoid"], "attr": {"T": {"type": "DT_FLOAT"}}}, {"name": "StatefulPartitionedCall/EfficientNetV1B3/stack_0_block0_MB_dw_/depthwise", "op": "FusedDepthwiseConv2dNative", "input": ["StatefulPartitionedCall/EfficientNetV1B3/stem_swish/mul", "StatefulPartitionedCall/EfficientNetV1B3/stack_0_block0_MB_dw_/depthwise_weights", "StatefulPartitionedCall/EfficientNetV1B3/stack_0_block0_MB_dw_/depthwise_bn_offset"], "attr": {"strides": {"list": {"i": ["1", "1", "1", "1"]}}, "num_args": {"i": "1"}, "fused_ops": {"list": {"s": ["Qmlhc0FkZA=="]}}, "data_format": {"s": "TkhXQw=="}, "padding": {"s": "U0FNRQ=="}, "dilations": {"list": {"i": ["1", "1", "1", "1"]}}, "explicit_paddings": {"list": {}}, "T": {"type": "DT_FLOAT"}}}, {"name": "StatefulPartitionedCall/EfficientNetV1B3/stack_0_block0_MB_dw_swish/Sigmoid", "op": "Sigmoid", "input": ["StatefulPartitionedCall/EfficientNetV1B3/stack_0_block0_MB_dw_/depthwise"], "attr": {"T": {"type": "DT_FLOAT"}}}, {"name": "StatefulPartitionedCall/EfficientNetV1B3/stack_0_block0_MB_dw_swish/mul", "op": "Mul", "input": ["StatefulPartitionedCall/EfficientNetV1B3/stack_0_block0_MB_dw_/depthwise", "StatefulPartitionedCall/EfficientNetV1B3/stack_0_block0_MB_dw_swish/Sigmoid"], "attr": {"T": {"type": "DT_FLOAT"}}}, {"name": "StatefulPartitionedCall/EfficientNetV1B3/tf.math.reduce_mean/Mean", "op": "Mean", "input": ["StatefulPartitionedCall/EfficientNetV1B3/stack_0_block0_MB_dw_swish/mul", "StatefulPartitionedCall/EfficientNetV1B3/tf.math.reduce_mean/Mean/reduction_indices"], "attr": {"T": {"type": "DT_FLOAT"}, "keep_dims": {"b": true}, "Tidx": {"type": "DT_INT32"}}}, {"name": "StatefulPartitionedCall/EfficientNetV1B3/stack_0_block0_se_1_conv/BiasAdd", "op": "_FusedConv2D", "input": ["StatefulPartitionedCall/EfficientNetV1B3/tf.math.reduce_mean/Mean", "StatefulPartitionedCall/EfficientNetV1B3/stack_0_block0_se_1_conv/Conv2D/ReadVariableOp", "StatefulPartitionedCall/EfficientNetV1B3/stack_0_block0_se_1_conv/BiasAdd/ReadVariableOp"], "device": "/device:CPU:0", "attr": {"data_format": {"s": "TkhXQw=="}, "explicit_paddings": {"list": {}}, "fused_ops": {"list": {"s": ["Qmlhc0FkZA=="]}}, "dilations": {"list": {"i": ["1", "1", "1", "1"]}}, "T": {"type": "DT_FLOAT"}, "strides": {"list": {"i": ["1", "1", "1", "1"]}}, "num_args": {"i": "1"}, "padding": {"s": "VkFMSUQ="}, "epsilon": {"f": 0.0}, "use_cudnn_on_gpu": {"b": true}}}, {"name": "StatefulPartitionedCall/EfficientNetV1B3/activation/Sigmoid", "op": "Sigmoid", "input": ["StatefulPartitionedCall/EfficientNetV1B3/stack_0_block0_se_1_conv/BiasAdd"], "attr": {"T": {"type": "DT_FLOAT"}}}, {"name": "StatefulPartitionedCall/EfficientNetV1B3/activation/mul", "op": "Mul", "input": ["StatefulPartitionedCall/EfficientNetV1B3/stack_0_block0_se_1_conv/BiasAdd", "StatefulPartitionedCall/EfficientNetV1B3/activation/Sigmoid"], "attr": {"T": {"type": "DT_FLOAT"}}}, {"name": "StatefulPartitionedCall/EfficientNetV1B3/stack_0_block0_se_2_conv/BiasAdd", "op": "_FusedConv2D", "input": ["StatefulPartitionedCall/EfficientNetV1B3/activation/mul", "StatefulPartitionedCall/EfficientNetV1B3/stack_0_block0_se_2_conv/Conv2D/ReadVariableOp", "StatefulPartitionedCall/EfficientNetV1B3/stack_0_block0_se_2_conv/BiasAdd/ReadVariableOp"], "device": "/device:CPU:0", "attr": {"padding": {"s": "VkFMSUQ="}, "T": {"type": "DT_FLOAT"}, "dilations": {"list": {"i": ["1", "1", "1", "1"]}}, "explicit_paddings": {"list": {}}, "epsilon": {"f": 0.0}, "strides": {"list": {"i": ["1", "1", "1", "1"]}}, "num_args": {"i": "1"}, "fused_ops": {"list": {"s": ["Qmlhc0FkZA=="]}}, "data_format": {"s": "TkhXQw=="}, "use_cudnn_on_gpu": {"b": true}}}, {"name": "StatefulPartitionedCall/EfficientNetV1B3/activation_1/Sigmoid", "op": "Sigmoid", "input": ["StatefulPartitionedCall/EfficientNetV1B3/stack_0_block0_se_2_conv/BiasAdd"], "attr": {"T": {"type": "DT_FLOAT"}}}, {"name": "StatefulPartitionedCall/EfficientNetV1B3/multiply/mul", "op": "Mul", "input": ["StatefulPartitionedCall/EfficientNetV1B3/stack_0_block0_MB_dw_swish/mul", "StatefulPartitionedCall/EfficientNetV1B3/activation_1/Sigmoid"], "attr": {"T": {"type": "DT_FLOAT"}}}, {"name": "StatefulPartitionedCall/EfficientNetV1B3/stack_0_block0_MB_pw_bn/FusedBatchNormV3", "op": "_FusedConv2D", "input": ["StatefulPartitionedCall/EfficientNetV1B3/multiply/mul", "StatefulPartitionedCall/EfficientNetV1B3/stack_0_block0_MB_pw_conv/Conv2D_weights", "StatefulPartitionedCall/EfficientNetV1B3/stack_0_block0_MB_pw_conv/Conv2D_bn_offset"], "device": "/device:CPU:0", "attr": {"padding": {"s": "U0FNRQ=="}, "T": {"type": "DT_FLOAT"}, "dilations": {"list": {"i": ["1", "1", "1", "1"]}}, "explicit_paddings": {"list": {}}, "epsilon": {"f": 0.0}, "strides": {"list": {"i": ["1", "1", "1", "1"]}}, "num_args": {"i": "1"}, "fused_ops": {"list": {"s": ["Qmlhc0FkZA=="]}}, "data_format": {"s": "TkhXQw=="}, "use_cudnn_on_gpu": {"b": true}}}, {"name": "StatefulPartitionedCall/EfficientNetV1B3/stack_0_block1_MB_dw_/depthwise", "op": "FusedDepthwiseConv2dNative", "input": ["StatefulPartitionedCall/EfficientNetV1B3/stack_0_block0_MB_pw_bn/FusedBatchNormV3", "StatefulPartitionedCall/EfficientNetV1B3/stack_0_block1_MB_dw_/depthwise_weights", "StatefulPartitionedCall/EfficientNetV1B3/stack_0_block1_MB_dw_/depthwise_bn_offset"], "attr": {"dilations": {"list": {"i": ["1", "1", "1", "1"]}}, "fused_ops": {"list": {"s": ["Qmlhc0FkZA=="]}}, "padding": {"s": "U0FNRQ=="}, "T": {"type": "DT_FLOAT"}, "strides": {"list": {"i": ["1", "1", "1", "1"]}}, "num_args": {"i": "1"}, "data_format": {"s": "TkhXQw=="}, "explicit_paddings": {"list": {}}}}, {"name": "StatefulPartitionedCall/EfficientNetV1B3/stack_0_block1_MB_dw_swish/Sigmoid", "op": "Sigmoid", "input": ["StatefulPartitionedCall/EfficientNetV1B3/stack_0_block1_MB_dw_/depthwise"], "attr": {"T": {"type": "DT_FLOAT"}}}, {"name": "StatefulPartitionedCall/EfficientNetV1B3/stack_0_block1_MB_dw_swish/mul", "op": "Mul", "input": ["StatefulPartitionedCall/EfficientNetV1B3/stack_0_block1_MB_dw_/depthwise", "StatefulPartitionedCall/EfficientNetV1B3/stack_0_block1_MB_dw_swish/Sigmoid"], "attr": {"T": {"type": "DT_FLOAT"}}}, {"name": "StatefulPartitionedCall/EfficientNetV1B3/tf.math.reduce_mean_1/Mean", "op": "Mean", "input": ["StatefulPartitionedCall/EfficientNetV1B3/stack_0_block1_MB_dw_swish/mul", "StatefulPartitionedCall/EfficientNetV1B3/tf.math.reduce_mean_1/Mean/reduction_indices"], "attr": {"keep_dims": {"b": true}, "T": {"type": "DT_FLOAT"}, "Tidx": {"type": "DT_INT32"}}}, {"name": "StatefulPartitionedCall/EfficientNetV1B3/stack_0_block1_se_1_conv/BiasAdd", "op": "_FusedConv2D", "input": ["StatefulPartitionedCall/EfficientNetV1B3/tf.math.reduce_mean_1/Mean", "StatefulPartitionedCall/EfficientNetV1B3/stack_0_block1_se_1_conv/Conv2D/ReadVariableOp", "StatefulPartitionedCall/EfficientNetV1B3/stack_0_block1_se_1_conv/BiasAdd/ReadVariableOp"], "device": "/device:CPU:0", "attr": {"dilations": {"list": {"i": ["1", "1", "1", "1"]}}, "fused_ops": {"list": {"s": ["Qmlhc0FkZA=="]}}, "padding": {"s": "VkFMSUQ="}, "T": {"type": "DT_FLOAT"}, "strides": {"list": {"i": ["1", "1", "1", "1"]}}, "use_cudnn_on_gpu": {"b": true}, "num_args": {"i": "1"}, "epsilon": {"f": 0.0}, "data_format": {"s": "TkhXQw=="}, "explicit_paddings": {"list": {}}}}, {"name": "StatefulPartitionedCall/EfficientNetV1B3/activation_2/Sigmoid", "op": "Sigmoid", "input": ["StatefulPartitionedCall/EfficientNetV1B3/stack_0_block1_se_1_conv/BiasAdd"], "attr": {"T": {"type": "DT_FLOAT"}}}, {"name": "StatefulPartitionedCall/EfficientNetV1B3/activation_2/mul", "op": "Mul", "input": ["StatefulPartitionedCall/EfficientNetV1B3/stack_0_block1_se_1_conv/BiasAdd", "StatefulPartitionedCall/EfficientNetV1B3/activation_2/Sigmoid"], "attr": {"T": {"type": "DT_FLOAT"}}}, {"name": "StatefulPartitionedCall/EfficientNetV1B3/stack_0_block1_se_2_conv/BiasAdd", "op": "_FusedConv2D", "input": ["StatefulPartitionedCall/EfficientNetV1B3/activation_2/mul", "StatefulPartitionedCall/EfficientNetV1B3/stack_0_block1_se_2_conv/Conv2D/ReadVariableOp", "StatefulPartitionedCall/EfficientNetV1B3/stack_0_block1_se_2_conv/BiasAdd/ReadVariableOp"], "device": "/device:CPU:0", "attr": {"use_cudnn_on_gpu": {"b": true}, "data_format": {"s": "TkhXQw=="}, "padding": {"s": "VkFMSUQ="}, "epsilon": {"f": 0.0}, "dilations": {"list": {"i": ["1", "1", "1", "1"]}}, "num_args": {"i": "1"}, "fused_ops": {"list": {"s": ["Qmlhc0FkZA=="]}}, "T": {"type": "DT_FLOAT"}, "strides": {"list": {"i": ["1", "1", "1", "1"]}}, "explicit_paddings": {"list": {}}}}, {"name": "StatefulPartitionedCall/EfficientNetV1B3/activation_3/Sigmoid", "op": "Sigmoid", "input": ["StatefulPartitionedCall/EfficientNetV1B3/stack_0_block1_se_2_conv/BiasAdd"], "attr": {"T": {"type": "DT_FLOAT"}}}, {"name": "StatefulPartitionedCall/EfficientNetV1B3/multiply_1/mul", "op": "Mul", "input": ["StatefulPartitionedCall/EfficientNetV1B3/stack_0_block1_MB_dw_swish/mul", "StatefulPartitionedCall/EfficientNetV1B3/activation_3/Sigmoid"], "attr": {"T": {"type": "DT_FLOAT"}}}, {"name": "StatefulPartitionedCall/EfficientNetV1B3/stack_0_block1_MB_pw_bn/FusedBatchNormV3", "op": "_FusedConv2D", "input": ["StatefulPartitionedCall/EfficientNetV1B3/multiply_1/mul", "StatefulPartitionedCall/EfficientNetV1B3/stack_0_block1_MB_pw_conv/Conv2D_weights", "StatefulPartitionedCall/EfficientNetV1B3/stack_0_block1_MB_pw_conv/Conv2D_bn_offset"], "device": "/device:CPU:0", "attr": {"use_cudnn_on_gpu": {"b": true}, "data_format": {"s": "TkhXQw=="}, "padding": {"s": "U0FNRQ=="}, "epsilon": {"f": 0.0}, "dilations": {"list": {"i": ["1", "1", "1", "1"]}}, "num_args": {"i": "1"}, "fused_ops": {"list": {"s": ["Qmlhc0FkZA=="]}}, "T": {"type": "DT_FLOAT"}, "strides": {"list": {"i": ["1", "1", "1", "1"]}}, "explicit_paddings": {"list": {}}}}, {"name": "StatefulPartitionedCall/EfficientNetV1B3/add/add", "op": "AddV2", "input": ["StatefulPartitionedCall/EfficientNetV1B3/stack_0_block0_MB_pw_bn/FusedBatchNormV3", "StatefulPartitionedCall/EfficientNetV1B3/stack_0_block1_MB_pw_bn/FusedBatchNormV3"], "attr": {"T": {"type": "DT_FLOAT"}}}, {"name": "StatefulPartitionedCall/EfficientNetV1B3/stack_1_block0_sortcut_bn/FusedBatchNormV3", "op": "_FusedConv2D", "input": ["StatefulPartitionedCall/EfficientNetV1B3/add/add", "StatefulPartitionedCall/EfficientNetV1B3/stack_1_block0_sortcut_conv/Conv2D_weights", "StatefulPartitionedCall/EfficientNetV1B3/stack_1_block0_sortcut_conv/Conv2D_bn_offset"], "device": "/device:CPU:0", "attr": {"strides": {"list": {"i": ["1", "1", "1", "1"]}}, "explicit_paddings": {"list": {}}, "padding": {"s": "U0FNRQ=="}, "use_cudnn_on_gpu": {"b": true}, "T": {"type": "DT_FLOAT"}, "fused_ops": {"list": {"s": ["Qmlhc0FkZA=="]}}, "data_format": {"s": "TkhXQw=="}, "num_args": {"i": "1"}, "epsilon": {"f": 0.0}, "dilations": {"list": {"i": ["1", "1", "1", "1"]}}}}, {"name": "StatefulPartitionedCall/EfficientNetV1B3/stack_1_block0_sortcut_swish/Sigmoid", "op": "Sigmoid", "input": ["StatefulPartitionedCall/EfficientNetV1B3/stack_1_block0_sortcut_bn/FusedBatchNormV3"], "attr": {"T": {"type": "DT_FLOAT"}}}, {"name": "StatefulPartitionedCall/EfficientNetV1B3/stack_1_block0_sortcut_swish/mul", "op": "Mul", "input": ["StatefulPartitionedCall/EfficientNetV1B3/stack_1_block0_sortcut_bn/FusedBatchNormV3", "StatefulPartitionedCall/EfficientNetV1B3/stack_1_block0_sortcut_swish/Sigmoid"], "attr": {"T": {"type": "DT_FLOAT"}}}, {"name": "StatefulPartitionedCall/EfficientNetV1B3/stack_1_block0_MB_dw_/depthwise", "op": "FusedDepthwiseConv2dNative", "input": ["StatefulPartitionedCall/EfficientNetV1B3/stack_1_block0_sortcut_swish/mul", "StatefulPartitionedCall/EfficientNetV1B3/stack_1_block0_MB_dw_/depthwise_weights", "StatefulPartitionedCall/EfficientNetV1B3/stack_1_block0_MB_dw_/depthwise_bn_offset"], "attr": {"fused_ops": {"list": {"s": ["Qmlhc0FkZA=="]}}, "data_format": {"s": "TkhXQw=="}, "num_args": {"i": "1"}, "dilations": {"list": {"i": ["1", "1", "1", "1"]}}, "explicit_paddings": {"list": {}}, "padding": {"s": "U0FNRQ=="}, "strides": {"list": {"i": ["1", "2", "2", "1"]}}, "T": {"type": "DT_FLOAT"}}}, {"name": "StatefulPartitionedCall/EfficientNetV1B3/stack_1_block0_MB_dw_swish/Sigmoid", "op": "Sigmoid", "input": ["StatefulPartitionedCall/EfficientNetV1B3/stack_1_block0_MB_dw_/depthwise"], "attr": {"T": {"type": "DT_FLOAT"}}}, {"name": "StatefulPartitionedCall/EfficientNetV1B3/stack_1_block0_MB_dw_swish/mul", "op": "Mul", "input": ["StatefulPartitionedCall/EfficientNetV1B3/stack_1_block0_MB_dw_/depthwise", "StatefulPartitionedCall/EfficientNetV1B3/stack_1_block0_MB_dw_swish/Sigmoid"], "attr": {"T": {"type": "DT_FLOAT"}}}, {"name": "StatefulPartitionedCall/EfficientNetV1B3/tf.math.reduce_mean_2/Mean", "op": "Mean", "input": ["StatefulPartitionedCall/EfficientNetV1B3/stack_1_block0_MB_dw_swish/mul", "StatefulPartitionedCall/EfficientNetV1B3/tf.math.reduce_mean_2/Mean/reduction_indices"], "attr": {"T": {"type": "DT_FLOAT"}, "keep_dims": {"b": true}, "Tidx": {"type": "DT_INT32"}}}, {"name": "StatefulPartitionedCall/EfficientNetV1B3/stack_1_block0_se_1_conv/BiasAdd", "op": "_FusedConv2D", "input": ["StatefulPartitionedCall/EfficientNetV1B3/tf.math.reduce_mean_2/Mean", "StatefulPartitionedCall/EfficientNetV1B3/stack_1_block0_se_1_conv/Conv2D/ReadVariableOp", "StatefulPartitionedCall/EfficientNetV1B3/stack_1_block0_se_1_conv/BiasAdd/ReadVariableOp"], "device": "/device:CPU:0", "attr": {"strides": {"list": {"i": ["1", "1", "1", "1"]}}, "explicit_paddings": {"list": {}}, "padding": {"s": "VkFMSUQ="}, "use_cudnn_on_gpu": {"b": true}, "T": {"type": "DT_FLOAT"}, "fused_ops": {"list": {"s": ["Qmlhc0FkZA=="]}}, "data_format": {"s": "TkhXQw=="}, "num_args": {"i": "1"}, "epsilon": {"f": 0.0}, "dilations": {"list": {"i": ["1", "1", "1", "1"]}}}}, {"name": "StatefulPartitionedCall/EfficientNetV1B3/activation_4/Sigmoid", "op": "Sigmoid", "input": ["StatefulPartitionedCall/EfficientNetV1B3/stack_1_block0_se_1_conv/BiasAdd"], "attr": {"T": {"type": "DT_FLOAT"}}}, {"name": "StatefulPartitionedCall/EfficientNetV1B3/activation_4/mul", "op": "Mul", "input": ["StatefulPartitionedCall/EfficientNetV1B3/stack_1_block0_se_1_conv/BiasAdd", "StatefulPartitionedCall/EfficientNetV1B3/activation_4/Sigmoid"], "attr": {"T": {"type": "DT_FLOAT"}}}, {"name": "StatefulPartitionedCall/EfficientNetV1B3/stack_1_block0_se_2_conv/BiasAdd", "op": "_FusedConv2D", "input": ["StatefulPartitionedCall/EfficientNetV1B3/activation_4/mul", "StatefulPartitionedCall/EfficientNetV1B3/stack_1_block0_se_2_conv/Conv2D/ReadVariableOp", "StatefulPartitionedCall/EfficientNetV1B3/stack_1_block0_se_2_conv/BiasAdd/ReadVariableOp"], "device": "/device:CPU:0", "attr": {"use_cudnn_on_gpu": {"b": true}, "data_format": {"s": "TkhXQw=="}, "padding": {"s": "VkFMSUQ="}, "epsilon": {"f": 0.0}, "dilations": {"list": {"i": ["1", "1", "1", "1"]}}, "num_args": {"i": "1"}, "fused_ops": {"list": {"s": ["Qmlhc0FkZA=="]}}, "T": {"type": "DT_FLOAT"}, "strides": {"list": {"i": ["1", "1", "1", "1"]}}, "explicit_paddings": {"list": {}}}}, {"name": "StatefulPartitionedCall/EfficientNetV1B3/activation_5/Sigmoid", "op": "Sigmoid", "input": ["StatefulPartitionedCall/EfficientNetV1B3/stack_1_block0_se_2_conv/BiasAdd"], "attr": {"T": {"type": "DT_FLOAT"}}}, {"name": "StatefulPartitionedCall/EfficientNetV1B3/multiply_2/mul", "op": "Mul", "input": ["StatefulPartitionedCall/EfficientNetV1B3/stack_1_block0_MB_dw_swish/mul", "StatefulPartitionedCall/EfficientNetV1B3/activation_5/Sigmoid"], "attr": {"T": {"type": "DT_FLOAT"}}}, {"name": "StatefulPartitionedCall/EfficientNetV1B3/stack_1_block0_MB_pw_bn/FusedBatchNormV3", "op": "_FusedConv2D", "input": ["StatefulPartitionedCall/EfficientNetV1B3/multiply_2/mul", "StatefulPartitionedCall/EfficientNetV1B3/stack_1_block0_MB_pw_conv/Conv2D_weights", "StatefulPartitionedCall/EfficientNetV1B3/stack_1_block0_MB_pw_conv/Conv2D_bn_offset"], "device": "/device:CPU:0", "attr": {"fused_ops": {"list": {"s": ["Qmlhc0FkZA=="]}}, "data_format": {"s": "TkhXQw=="}, "num_args": {"i": "1"}, "dilations": {"list": {"i": ["1", "1", "1", "1"]}}, "epsilon": {"f": 0.0}, "explicit_paddings": {"list": {}}, "padding": {"s": "U0FNRQ=="}, "strides": {"list": {"i": ["1", "1", "1", "1"]}}, "use_cudnn_on_gpu": {"b": true}, "T": {"type": "DT_FLOAT"}}}, {"name": "StatefulPartitionedCall/EfficientNetV1B3/stack_1_block1_sortcut_bn/FusedBatchNormV3", "op": "_FusedConv2D", "input": ["StatefulPartitionedCall/EfficientNetV1B3/stack_1_block0_MB_pw_bn/FusedBatchNormV3", "StatefulPartitionedCall/EfficientNetV1B3/stack_1_block1_sortcut_conv/Conv2D_weights", "StatefulPartitionedCall/EfficientNetV1B3/stack_1_block1_sortcut_conv/Conv2D_bn_offset"], "device": "/device:CPU:0", "attr": {"strides": {"list": {"i": ["1", "1", "1", "1"]}}, "explicit_paddings": {"list": {}}, "padding": {"s": "U0FNRQ=="}, "use_cudnn_on_gpu": {"b": true}, "T": {"type": "DT_FLOAT"}, "fused_ops": {"list": {"s": ["Qmlhc0FkZA=="]}}, "data_format": {"s": "TkhXQw=="}, "num_args": {"i": "1"}, "epsilon": {"f": 0.0}, "dilations": {"list": {"i": ["1", "1", "1", "1"]}}}}, {"name": "StatefulPartitionedCall/EfficientNetV1B3/stack_1_block1_sortcut_swish/Sigmoid", "op": "Sigmoid", "input": ["StatefulPartitionedCall/EfficientNetV1B3/stack_1_block1_sortcut_bn/FusedBatchNormV3"], "attr": {"T": {"type": "DT_FLOAT"}}}, {"name": "StatefulPartitionedCall/EfficientNetV1B3/stack_1_block1_sortcut_swish/mul", "op": "Mul", "input": ["StatefulPartitionedCall/EfficientNetV1B3/stack_1_block1_sortcut_bn/FusedBatchNormV3", "StatefulPartitionedCall/EfficientNetV1B3/stack_1_block1_sortcut_swish/Sigmoid"], "attr": {"T": {"type": "DT_FLOAT"}}}, {"name": "StatefulPartitionedCall/EfficientNetV1B3/stack_1_block1_MB_dw_/depthwise", "op": "FusedDepthwiseConv2dNative", "input": ["StatefulPartitionedCall/EfficientNetV1B3/stack_1_block1_sortcut_swish/mul", "StatefulPartitionedCall/EfficientNetV1B3/stack_1_block1_MB_dw_/depthwise_weights", "StatefulPartitionedCall/EfficientNetV1B3/stack_1_block1_MB_dw_/depthwise_bn_offset"], "attr": {"data_format": {"s": "TkhXQw=="}, "padding": {"s": "U0FNRQ=="}, "dilations": {"list": {"i": ["1", "1", "1", "1"]}}, "num_args": {"i": "1"}, "fused_ops": {"list": {"s": ["Qmlhc0FkZA=="]}}, "T": {"type": "DT_FLOAT"}, "strides": {"list": {"i": ["1", "1", "1", "1"]}}, "explicit_paddings": {"list": {}}}}, {"name": "StatefulPartitionedCall/EfficientNetV1B3/stack_1_block1_MB_dw_swish/Sigmoid", "op": "Sigmoid", "input": ["StatefulPartitionedCall/EfficientNetV1B3/stack_1_block1_MB_dw_/depthwise"], "attr": {"T": {"type": "DT_FLOAT"}}}, {"name": "StatefulPartitionedCall/EfficientNetV1B3/stack_1_block1_MB_dw_swish/mul", "op": "Mul", "input": ["StatefulPartitionedCall/EfficientNetV1B3/stack_1_block1_MB_dw_/depthwise", "StatefulPartitionedCall/EfficientNetV1B3/stack_1_block1_MB_dw_swish/Sigmoid"], "attr": {"T": {"type": "DT_FLOAT"}}}, {"name": "StatefulPartitionedCall/EfficientNetV1B3/tf.math.reduce_mean_3/Mean", "op": "Mean", "input": ["StatefulPartitionedCall/EfficientNetV1B3/stack_1_block1_MB_dw_swish/mul", "StatefulPartitionedCall/EfficientNetV1B3/tf.math.reduce_mean_3/Mean/reduction_indices"], "attr": {"Tidx": {"type": "DT_INT32"}, "keep_dims": {"b": true}, "T": {"type": "DT_FLOAT"}}}, {"name": "StatefulPartitionedCall/EfficientNetV1B3/stack_1_block1_se_1_conv/BiasAdd", "op": "_FusedConv2D", "input": ["StatefulPartitionedCall/EfficientNetV1B3/tf.math.reduce_mean_3/Mean", "StatefulPartitionedCall/EfficientNetV1B3/stack_1_block1_se_1_conv/Conv2D/ReadVariableOp", "StatefulPartitionedCall/EfficientNetV1B3/stack_1_block1_se_1_conv/BiasAdd/ReadVariableOp"], "device": "/device:CPU:0", "attr": {"data_format": {"s": "TkhXQw=="}, "padding": {"s": "VkFMSUQ="}, "num_args": {"i": "1"}, "dilations": {"list": {"i": ["1", "1", "1", "1"]}}, "epsilon": {"f": 0.0}, "explicit_paddings": {"list": {}}, "T": {"type": "DT_FLOAT"}, "strides": {"list": {"i": ["1", "1", "1", "1"]}}, "fused_ops": {"list": {"s": ["Qmlhc0FkZA=="]}}, "use_cudnn_on_gpu": {"b": true}}}, {"name": "StatefulPartitionedCall/EfficientNetV1B3/activation_6/Sigmoid", "op": "Sigmoid", "input": ["StatefulPartitionedCall/EfficientNetV1B3/stack_1_block1_se_1_conv/BiasAdd"], "attr": {"T": {"type": "DT_FLOAT"}}}, {"name": "StatefulPartitionedCall/EfficientNetV1B3/activation_6/mul", "op": "Mul", "input": ["StatefulPartitionedCall/EfficientNetV1B3/stack_1_block1_se_1_conv/BiasAdd", "StatefulPartitionedCall/EfficientNetV1B3/activation_6/Sigmoid"], "attr": {"T": {"type": "DT_FLOAT"}}}, {"name": "StatefulPartitionedCall/EfficientNetV1B3/stack_1_block1_se_2_conv/BiasAdd", "op": "_FusedConv2D", "input": ["StatefulPartitionedCall/EfficientNetV1B3/activation_6/mul", "StatefulPartitionedCall/EfficientNetV1B3/stack_1_block1_se_2_conv/Conv2D/ReadVariableOp", "StatefulPartitionedCall/EfficientNetV1B3/stack_1_block1_se_2_conv/BiasAdd/ReadVariableOp"], "device": "/device:CPU:0", "attr": {"use_cudnn_on_gpu": {"b": true}, "data_format": {"s": "TkhXQw=="}, "padding": {"s": "VkFMSUQ="}, "epsilon": {"f": 0.0}, "dilations": {"list": {"i": ["1", "1", "1", "1"]}}, "num_args": {"i": "1"}, "fused_ops": {"list": {"s": ["Qmlhc0FkZA=="]}}, "T": {"type": "DT_FLOAT"}, "strides": {"list": {"i": ["1", "1", "1", "1"]}}, "explicit_paddings": {"list": {}}}}, {"name": "StatefulPartitionedCall/EfficientNetV1B3/activation_7/Sigmoid", "op": "Sigmoid", "input": ["StatefulPartitionedCall/EfficientNetV1B3/stack_1_block1_se_2_conv/BiasAdd"], "attr": {"T": {"type": "DT_FLOAT"}}}, {"name": "StatefulPartitionedCall/EfficientNetV1B3/multiply_3/mul", "op": "Mul", "input": ["StatefulPartitionedCall/EfficientNetV1B3/stack_1_block1_MB_dw_swish/mul", "StatefulPartitionedCall/EfficientNetV1B3/activation_7/Sigmoid"], "attr": {"T": {"type": "DT_FLOAT"}}}, {"name": "StatefulPartitionedCall/EfficientNetV1B3/stack_1_block1_MB_pw_bn/FusedBatchNormV3", "op": "_FusedConv2D", "input": ["StatefulPartitionedCall/EfficientNetV1B3/multiply_3/mul", "StatefulPartitionedCall/EfficientNetV1B3/stack_1_block1_MB_pw_conv/Conv2D_weights", "StatefulPartitionedCall/EfficientNetV1B3/stack_1_block1_MB_pw_conv/Conv2D_bn_offset"], "device": "/device:CPU:0", "attr": {"fused_ops": {"list": {"s": ["Qmlhc0FkZA=="]}}, "data_format": {"s": "TkhXQw=="}, "num_args": {"i": "1"}, "dilations": {"list": {"i": ["1", "1", "1", "1"]}}, "epsilon": {"f": 0.0}, "explicit_paddings": {"list": {}}, "padding": {"s": "U0FNRQ=="}, "strides": {"list": {"i": ["1", "1", "1", "1"]}}, "use_cudnn_on_gpu": {"b": true}, "T": {"type": "DT_FLOAT"}}}, {"name": "StatefulPartitionedCall/EfficientNetV1B3/add_1/add", "op": "AddV2", "input": ["StatefulPartitionedCall/EfficientNetV1B3/stack_1_block0_MB_pw_bn/FusedBatchNormV3", "StatefulPartitionedCall/EfficientNetV1B3/stack_1_block1_MB_pw_bn/FusedBatchNormV3"], "attr": {"T": {"type": "DT_FLOAT"}}}, {"name": "StatefulPartitionedCall/EfficientNetV1B3/stack_1_block2_sortcut_bn/FusedBatchNormV3", "op": "_FusedConv2D", "input": ["StatefulPartitionedCall/EfficientNetV1B3/add_1/add", "StatefulPartitionedCall/EfficientNetV1B3/stack_1_block2_sortcut_conv/Conv2D_weights", "StatefulPartitionedCall/EfficientNetV1B3/stack_1_block2_sortcut_conv/Conv2D_bn_offset"], "device": "/device:CPU:0", "attr": {"fused_ops": {"list": {"s": ["Qmlhc0FkZA=="]}}, "data_format": {"s": "TkhXQw=="}, "num_args": {"i": "1"}, "dilations": {"list": {"i": ["1", "1", "1", "1"]}}, "epsilon": {"f": 0.0}, "explicit_paddings": {"list": {}}, "padding": {"s": "U0FNRQ=="}, "strides": {"list": {"i": ["1", "1", "1", "1"]}}, "use_cudnn_on_gpu": {"b": true}, "T": {"type": "DT_FLOAT"}}}, {"name": "StatefulPartitionedCall/EfficientNetV1B3/stack_1_block2_sortcut_swish/Sigmoid", "op": "Sigmoid", "input": ["StatefulPartitionedCall/EfficientNetV1B3/stack_1_block2_sortcut_bn/FusedBatchNormV3"], "attr": {"T": {"type": "DT_FLOAT"}}}, {"name": "StatefulPartitionedCall/EfficientNetV1B3/stack_1_block2_sortcut_swish/mul", "op": "Mul", "input": ["StatefulPartitionedCall/EfficientNetV1B3/stack_1_block2_sortcut_bn/FusedBatchNormV3", "StatefulPartitionedCall/EfficientNetV1B3/stack_1_block2_sortcut_swish/Sigmoid"], "attr": {"T": {"type": "DT_FLOAT"}}}, {"name": "StatefulPartitionedCall/EfficientNetV1B3/stack_1_block2_MB_dw_/depthwise", "op": "FusedDepthwiseConv2dNative", "input": ["StatefulPartitionedCall/EfficientNetV1B3/stack_1_block2_sortcut_swish/mul", "StatefulPartitionedCall/EfficientNetV1B3/stack_1_block2_MB_dw_/depthwise_weights", "StatefulPartitionedCall/EfficientNetV1B3/stack_1_block2_MB_dw_/depthwise_bn_offset"], "attr": {"fused_ops": {"list": {"s": ["Qmlhc0FkZA=="]}}, "data_format": {"s": "TkhXQw=="}, "dilations": {"list": {"i": ["1", "1", "1", "1"]}}, "num_args": {"i": "1"}, "explicit_paddings": {"list": {}}, "padding": {"s": "U0FNRQ=="}, "strides": {"list": {"i": ["1", "1", "1", "1"]}}, "T": {"type": "DT_FLOAT"}}}, {"name": "StatefulPartitionedCall/EfficientNetV1B3/stack_1_block2_MB_dw_swish/Sigmoid", "op": "Sigmoid", "input": ["StatefulPartitionedCall/EfficientNetV1B3/stack_1_block2_MB_dw_/depthwise"], "attr": {"T": {"type": "DT_FLOAT"}}}, {"name": "StatefulPartitionedCall/EfficientNetV1B3/stack_1_block2_MB_dw_swish/mul", "op": "Mul", "input": ["StatefulPartitionedCall/EfficientNetV1B3/stack_1_block2_MB_dw_/depthwise", "StatefulPartitionedCall/EfficientNetV1B3/stack_1_block2_MB_dw_swish/Sigmoid"], "attr": {"T": {"type": "DT_FLOAT"}}}, {"name": "StatefulPartitionedCall/EfficientNetV1B3/tf.math.reduce_mean_4/Mean", "op": "Mean", "input": ["StatefulPartitionedCall/EfficientNetV1B3/stack_1_block2_MB_dw_swish/mul", "StatefulPartitionedCall/EfficientNetV1B3/tf.math.reduce_mean_4/Mean/reduction_indices"], "attr": {"Tidx": {"type": "DT_INT32"}, "keep_dims": {"b": true}, "T": {"type": "DT_FLOAT"}}}, {"name": "StatefulPartitionedCall/EfficientNetV1B3/stack_1_block2_se_1_conv/BiasAdd", "op": "_FusedConv2D", "input": ["StatefulPartitionedCall/EfficientNetV1B3/tf.math.reduce_mean_4/Mean", "StatefulPartitionedCall/EfficientNetV1B3/stack_1_block2_se_1_conv/Conv2D/ReadVariableOp", "StatefulPartitionedCall/EfficientNetV1B3/stack_1_block2_se_1_conv/BiasAdd/ReadVariableOp"], "device": "/device:CPU:0", "attr": {"strides": {"list": {"i": ["1", "1", "1", "1"]}}, "explicit_paddings": {"list": {}}, "padding": {"s": "VkFMSUQ="}, "use_cudnn_on_gpu": {"b": true}, "T": {"type": "DT_FLOAT"}, "fused_ops": {"list": {"s": ["Qmlhc0FkZA=="]}}, "data_format": {"s": "TkhXQw=="}, "num_args": {"i": "1"}, "epsilon": {"f": 0.0}, "dilations": {"list": {"i": ["1", "1", "1", "1"]}}}}, {"name": "StatefulPartitionedCall/EfficientNetV1B3/activation_8/Sigmoid", "op": "Sigmoid", "input": ["StatefulPartitionedCall/EfficientNetV1B3/stack_1_block2_se_1_conv/BiasAdd"], "attr": {"T": {"type": "DT_FLOAT"}}}, {"name": "StatefulPartitionedCall/EfficientNetV1B3/activation_8/mul", "op": "Mul", "input": ["StatefulPartitionedCall/EfficientNetV1B3/stack_1_block2_se_1_conv/BiasAdd", "StatefulPartitionedCall/EfficientNetV1B3/activation_8/Sigmoid"], "attr": {"T": {"type": "DT_FLOAT"}}}, {"name": "StatefulPartitionedCall/EfficientNetV1B3/stack_1_block2_se_2_conv/BiasAdd", "op": "_FusedConv2D", "input": ["StatefulPartitionedCall/EfficientNetV1B3/activation_8/mul", "StatefulPartitionedCall/EfficientNetV1B3/stack_1_block2_se_2_conv/Conv2D/ReadVariableOp", "StatefulPartitionedCall/EfficientNetV1B3/stack_1_block2_se_2_conv/BiasAdd/ReadVariableOp"], "device": "/device:CPU:0", "attr": {"strides": {"list": {"i": ["1", "1", "1", "1"]}}, "explicit_paddings": {"list": {}}, "padding": {"s": "VkFMSUQ="}, "use_cudnn_on_gpu": {"b": true}, "T": {"type": "DT_FLOAT"}, "fused_ops": {"list": {"s": ["Qmlhc0FkZA=="]}}, "data_format": {"s": "TkhXQw=="}, "num_args": {"i": "1"}, "epsilon": {"f": 0.0}, "dilations": {"list": {"i": ["1", "1", "1", "1"]}}}}, {"name": "StatefulPartitionedCall/EfficientNetV1B3/activation_9/Sigmoid", "op": "Sigmoid", "input": ["StatefulPartitionedCall/EfficientNetV1B3/stack_1_block2_se_2_conv/BiasAdd"], "attr": {"T": {"type": "DT_FLOAT"}}}, {"name": "StatefulPartitionedCall/EfficientNetV1B3/multiply_4/mul", "op": "Mul", "input": ["StatefulPartitionedCall/EfficientNetV1B3/stack_1_block2_MB_dw_swish/mul", "StatefulPartitionedCall/EfficientNetV1B3/activation_9/Sigmoid"], "attr": {"T": {"type": "DT_FLOAT"}}}, {"name": "StatefulPartitionedCall/EfficientNetV1B3/stack_1_block2_MB_pw_bn/FusedBatchNormV3", "op": "_FusedConv2D", "input": ["StatefulPartitionedCall/EfficientNetV1B3/multiply_4/mul", "StatefulPartitionedCall/EfficientNetV1B3/stack_1_block2_MB_pw_conv/Conv2D_weights", "StatefulPartitionedCall/EfficientNetV1B3/stack_1_block2_MB_pw_conv/Conv2D_bn_offset"], "device": "/device:CPU:0", "attr": {"padding": {"s": "U0FNRQ=="}, "epsilon": {"f": 0.0}, "dilations": {"list": {"i": ["1", "1", "1", "1"]}}, "T": {"type": "DT_FLOAT"}, "strides": {"list": {"i": ["1", "1", "1", "1"]}}, "explicit_paddings": {"list": {}}, "fused_ops": {"list": {"s": ["Qmlhc0FkZA=="]}}, "use_cudnn_on_gpu": {"b": true}, "data_format": {"s": "TkhXQw=="}, "num_args": {"i": "1"}}}, {"name": "StatefulPartitionedCall/EfficientNetV1B3/add_2/add", "op": "AddV2", "input": ["StatefulPartitionedCall/EfficientNetV1B3/add_1/add", "StatefulPartitionedCall/EfficientNetV1B3/stack_1_block2_MB_pw_bn/FusedBatchNormV3"], "attr": {"T": {"type": "DT_FLOAT"}}}, {"name": "StatefulPartitionedCall/EfficientNetV1B3/stack_2_block0_sortcut_bn/FusedBatchNormV3", "op": "_FusedConv2D", "input": ["StatefulPartitionedCall/EfficientNetV1B3/add_2/add", "StatefulPartitionedCall/EfficientNetV1B3/stack_2_block0_sortcut_conv/Conv2D_weights", "StatefulPartitionedCall/EfficientNetV1B3/stack_2_block0_sortcut_conv/Conv2D_bn_offset"], "device": "/device:CPU:0", "attr": {"fused_ops": {"list": {"s": ["Qmlhc0FkZA=="]}}, "data_format": {"s": "TkhXQw=="}, "num_args": {"i": "1"}, "dilations": {"list": {"i": ["1", "1", "1", "1"]}}, "epsilon": {"f": 0.0}, "explicit_paddings": {"list": {}}, "padding": {"s": "U0FNRQ=="}, "strides": {"list": {"i": ["1", "1", "1", "1"]}}, "use_cudnn_on_gpu": {"b": true}, "T": {"type": "DT_FLOAT"}}}, {"name": "StatefulPartitionedCall/EfficientNetV1B3/stack_2_block0_sortcut_swish/Sigmoid", "op": "Sigmoid", "input": ["StatefulPartitionedCall/EfficientNetV1B3/stack_2_block0_sortcut_bn/FusedBatchNormV3"], "attr": {"T": {"type": "DT_FLOAT"}}}, {"name": "StatefulPartitionedCall/EfficientNetV1B3/stack_2_block0_sortcut_swish/mul", "op": "Mul", "input": ["StatefulPartitionedCall/EfficientNetV1B3/stack_2_block0_sortcut_bn/FusedBatchNormV3", "StatefulPartitionedCall/EfficientNetV1B3/stack_2_block0_sortcut_swish/Sigmoid"], "attr": {"T": {"type": "DT_FLOAT"}}}, {"name": "StatefulPartitionedCall/EfficientNetV1B3/stack_2_block0_MB_dw_/depthwise", "op": "FusedDepthwiseConv2dNative", "input": ["StatefulPartitionedCall/EfficientNetV1B3/stack_2_block0_sortcut_swish/mul", "StatefulPartitionedCall/EfficientNetV1B3/stack_2_block0_MB_dw_/depthwise_weights", "StatefulPartitionedCall/EfficientNetV1B3/stack_2_block0_MB_dw_/depthwise_bn_offset"], "attr": {"data_format": {"s": "TkhXQw=="}, "padding": {"s": "U0FNRQ=="}, "dilations": {"list": {"i": ["1", "1", "1", "1"]}}, "num_args": {"i": "1"}, "explicit_paddings": {"list": {}}, "T": {"type": "DT_FLOAT"}, "strides": {"list": {"i": ["1", "2", "2", "1"]}}, "fused_ops": {"list": {"s": ["Qmlhc0FkZA=="]}}}}, {"name": "StatefulPartitionedCall/EfficientNetV1B3/stack_2_block0_MB_dw_swish/Sigmoid", "op": "Sigmoid", "input": ["StatefulPartitionedCall/EfficientNetV1B3/stack_2_block0_MB_dw_/depthwise"], "attr": {"T": {"type": "DT_FLOAT"}}}, {"name": "StatefulPartitionedCall/EfficientNetV1B3/stack_2_block0_MB_dw_swish/mul", "op": "Mul", "input": ["StatefulPartitionedCall/EfficientNetV1B3/stack_2_block0_MB_dw_/depthwise", "StatefulPartitionedCall/EfficientNetV1B3/stack_2_block0_MB_dw_swish/Sigmoid"], "attr": {"T": {"type": "DT_FLOAT"}}}, {"name": "StatefulPartitionedCall/EfficientNetV1B3/tf.math.reduce_mean_5/Mean", "op": "Mean", "input": ["StatefulPartitionedCall/EfficientNetV1B3/stack_2_block0_MB_dw_swish/mul", "StatefulPartitionedCall/EfficientNetV1B3/tf.math.reduce_mean_5/Mean/reduction_indices"], "attr": {"keep_dims": {"b": true}, "T": {"type": "DT_FLOAT"}, "Tidx": {"type": "DT_INT32"}}}, {"name": "StatefulPartitionedCall/EfficientNetV1B3/stack_2_block0_se_1_conv/BiasAdd", "op": "_FusedConv2D", "input": ["StatefulPartitionedCall/EfficientNetV1B3/tf.math.reduce_mean_5/Mean", "StatefulPartitionedCall/EfficientNetV1B3/stack_2_block0_se_1_conv/Conv2D/ReadVariableOp", "StatefulPartitionedCall/EfficientNetV1B3/stack_2_block0_se_1_conv/BiasAdd/ReadVariableOp"], "device": "/device:CPU:0", "attr": {"strides": {"list": {"i": ["1", "1", "1", "1"]}}, "explicit_paddings": {"list": {}}, "padding": {"s": "VkFMSUQ="}, "use_cudnn_on_gpu": {"b": true}, "T": {"type": "DT_FLOAT"}, "fused_ops": {"list": {"s": ["Qmlhc0FkZA=="]}}, "data_format": {"s": "TkhXQw=="}, "num_args": {"i": "1"}, "epsilon": {"f": 0.0}, "dilations": {"list": {"i": ["1", "1", "1", "1"]}}}}, {"name": "StatefulPartitionedCall/EfficientNetV1B3/activation_10/Sigmoid", "op": "Sigmoid", "input": ["StatefulPartitionedCall/EfficientNetV1B3/stack_2_block0_se_1_conv/BiasAdd"], "attr": {"T": {"type": "DT_FLOAT"}}}, {"name": "StatefulPartitionedCall/EfficientNetV1B3/activation_10/mul", "op": "Mul", "input": ["StatefulPartitionedCall/EfficientNetV1B3/stack_2_block0_se_1_conv/BiasAdd", "StatefulPartitionedCall/EfficientNetV1B3/activation_10/Sigmoid"], "attr": {"T": {"type": "DT_FLOAT"}}}, {"name": "StatefulPartitionedCall/EfficientNetV1B3/stack_2_block0_se_2_conv/BiasAdd", "op": "_FusedConv2D", "input": ["StatefulPartitionedCall/EfficientNetV1B3/activation_10/mul", "StatefulPartitionedCall/EfficientNetV1B3/stack_2_block0_se_2_conv/Conv2D/ReadVariableOp", "StatefulPartitionedCall/EfficientNetV1B3/stack_2_block0_se_2_conv/BiasAdd/ReadVariableOp"], "device": "/device:CPU:0", "attr": {"T": {"type": "DT_FLOAT"}, "strides": {"list": {"i": ["1", "1", "1", "1"]}}, "data_format": {"s": "TkhXQw=="}, "dilations": {"list": {"i": ["1", "1", "1", "1"]}}, "num_args": {"i": "1"}, "epsilon": {"f": 0.0}, "explicit_paddings": {"list": {}}, "padding": {"s": "VkFMSUQ="}, "fused_ops": {"list": {"s": ["Qmlhc0FkZA=="]}}, "use_cudnn_on_gpu": {"b": true}}}, {"name": "StatefulPartitionedCall/EfficientNetV1B3/activation_11/Sigmoid", "op": "Sigmoid", "input": ["StatefulPartitionedCall/EfficientNetV1B3/stack_2_block0_se_2_conv/BiasAdd"], "attr": {"T": {"type": "DT_FLOAT"}}}, {"name": "StatefulPartitionedCall/EfficientNetV1B3/multiply_5/mul", "op": "Mul", "input": ["StatefulPartitionedCall/EfficientNetV1B3/stack_2_block0_MB_dw_swish/mul", "StatefulPartitionedCall/EfficientNetV1B3/activation_11/Sigmoid"], "attr": {"T": {"type": "DT_FLOAT"}}}, {"name": "StatefulPartitionedCall/EfficientNetV1B3/stack_2_block0_MB_pw_bn/FusedBatchNormV3", "op": "_FusedConv2D", "input": ["StatefulPartitionedCall/EfficientNetV1B3/multiply_5/mul", "StatefulPartitionedCall/EfficientNetV1B3/stack_2_block0_MB_pw_conv/Conv2D_weights", "StatefulPartitionedCall/EfficientNetV1B3/stack_2_block0_MB_pw_conv/Conv2D_bn_offset"], "device": "/device:CPU:0", "attr": {"T": {"type": "DT_FLOAT"}, "epsilon": {"f": 0.0}, "dilations": {"list": {"i": ["1", "1", "1", "1"]}}, "num_args": {"i": "1"}, "padding": {"s": "U0FNRQ=="}, "strides": {"list": {"i": ["1", "1", "1", "1"]}}, "explicit_paddings": {"list": {}}, "fused_ops": {"list": {"s": ["Qmlhc0FkZA=="]}}, "use_cudnn_on_gpu": {"b": true}, "data_format": {"s": "TkhXQw=="}}}, {"name": "StatefulPartitionedCall/EfficientNetV1B3/stack_2_block1_sortcut_bn/FusedBatchNormV3", "op": "_FusedConv2D", "input": ["StatefulPartitionedCall/EfficientNetV1B3/stack_2_block0_MB_pw_bn/FusedBatchNormV3", "StatefulPartitionedCall/EfficientNetV1B3/stack_2_block1_sortcut_conv/Conv2D_weights", "StatefulPartitionedCall/EfficientNetV1B3/stack_2_block1_sortcut_conv/Conv2D_bn_offset"], "device": "/device:CPU:0", "attr": {"explicit_paddings": {"list": {}}, "fused_ops": {"list": {"s": ["Qmlhc0FkZA=="]}}, "padding": {"s": "U0FNRQ=="}, "use_cudnn_on_gpu": {"b": true}, "T": {"type": "DT_FLOAT"}, "data_format": {"s": "TkhXQw=="}, "strides": {"list": {"i": ["1", "1", "1", "1"]}}, "num_args": {"i": "1"}, "epsilon": {"f": 0.0}, "dilations": {"list": {"i": ["1", "1", "1", "1"]}}}}, {"name": "StatefulPartitionedCall/EfficientNetV1B3/stack_2_block1_sortcut_swish/Sigmoid", "op": "Sigmoid", "input": ["StatefulPartitionedCall/EfficientNetV1B3/stack_2_block1_sortcut_bn/FusedBatchNormV3"], "attr": {"T": {"type": "DT_FLOAT"}}}, {"name": "StatefulPartitionedCall/EfficientNetV1B3/stack_2_block1_sortcut_swish/mul", "op": "Mul", "input": ["StatefulPartitionedCall/EfficientNetV1B3/stack_2_block1_sortcut_bn/FusedBatchNormV3", "StatefulPartitionedCall/EfficientNetV1B3/stack_2_block1_sortcut_swish/Sigmoid"], "attr": {"T": {"type": "DT_FLOAT"}}}, {"name": "StatefulPartitionedCall/EfficientNetV1B3/stack_2_block1_MB_dw_/depthwise", "op": "FusedDepthwiseConv2dNative", "input": ["StatefulPartitionedCall/EfficientNetV1B3/stack_2_block1_sortcut_swish/mul", "StatefulPartitionedCall/EfficientNetV1B3/stack_2_block1_MB_dw_/depthwise_weights", "StatefulPartitionedCall/EfficientNetV1B3/stack_2_block1_MB_dw_/depthwise_bn_offset"], "attr": {"explicit_paddings": {"list": {}}, "fused_ops": {"list": {"s": ["Qmlhc0FkZA=="]}}, "padding": {"s": "U0FNRQ=="}, "T": {"type": "DT_FLOAT"}, "strides": {"list": {"i": ["1", "1", "1", "1"]}}, "data_format": {"s": "TkhXQw=="}, "num_args": {"i": "1"}, "dilations": {"list": {"i": ["1", "1", "1", "1"]}}}}, {"name": "StatefulPartitionedCall/EfficientNetV1B3/stack_2_block1_MB_dw_swish/Sigmoid", "op": "Sigmoid", "input": ["StatefulPartitionedCall/EfficientNetV1B3/stack_2_block1_MB_dw_/depthwise"], "attr": {"T": {"type": "DT_FLOAT"}}}, {"name": "StatefulPartitionedCall/EfficientNetV1B3/stack_2_block1_MB_dw_swish/mul", "op": "Mul", "input": ["StatefulPartitionedCall/EfficientNetV1B3/stack_2_block1_MB_dw_/depthwise", "StatefulPartitionedCall/EfficientNetV1B3/stack_2_block1_MB_dw_swish/Sigmoid"], "attr": {"T": {"type": "DT_FLOAT"}}}, {"name": "StatefulPartitionedCall/EfficientNetV1B3/tf.math.reduce_mean_6/Mean", "op": "Mean", "input": ["StatefulPartitionedCall/EfficientNetV1B3/stack_2_block1_MB_dw_swish/mul", "StatefulPartitionedCall/EfficientNetV1B3/tf.math.reduce_mean_6/Mean/reduction_indices"], "attr": {"Tidx": {"type": "DT_INT32"}, "T": {"type": "DT_FLOAT"}, "keep_dims": {"b": true}}}, {"name": "StatefulPartitionedCall/EfficientNetV1B3/stack_2_block1_se_1_conv/BiasAdd", "op": "_FusedConv2D", "input": ["StatefulPartitionedCall/EfficientNetV1B3/tf.math.reduce_mean_6/Mean", "StatefulPartitionedCall/EfficientNetV1B3/stack_2_block1_se_1_conv/Conv2D/ReadVariableOp", "StatefulPartitionedCall/EfficientNetV1B3/stack_2_block1_se_1_conv/BiasAdd/ReadVariableOp"], "device": "/device:CPU:0", "attr": {"explicit_paddings": {"list": {}}, "strides": {"list": {"i": ["1", "1", "1", "1"]}}, "use_cudnn_on_gpu": {"b": true}, "fused_ops": {"list": {"s": ["Qmlhc0FkZA=="]}}, "T": {"type": "DT_FLOAT"}, "data_format": {"s": "TkhXQw=="}, "dilations": {"list": {"i": ["1", "1", "1", "1"]}}, "epsilon": {"f": 0.0}, "padding": {"s": "VkFMSUQ="}, "num_args": {"i": "1"}}}, {"name": "StatefulPartitionedCall/EfficientNetV1B3/activation_12/Sigmoid", "op": "Sigmoid", "input": ["StatefulPartitionedCall/EfficientNetV1B3/stack_2_block1_se_1_conv/BiasAdd"], "attr": {"T": {"type": "DT_FLOAT"}}}, {"name": "StatefulPartitionedCall/EfficientNetV1B3/activation_12/mul", "op": "Mul", "input": ["StatefulPartitionedCall/EfficientNetV1B3/stack_2_block1_se_1_conv/BiasAdd", "StatefulPartitionedCall/EfficientNetV1B3/activation_12/Sigmoid"], "attr": {"T": {"type": "DT_FLOAT"}}}, {"name": "StatefulPartitionedCall/EfficientNetV1B3/stack_2_block1_se_2_conv/BiasAdd", "op": "_FusedConv2D", "input": ["StatefulPartitionedCall/EfficientNetV1B3/activation_12/mul", "StatefulPartitionedCall/EfficientNetV1B3/stack_2_block1_se_2_conv/Conv2D/ReadVariableOp", "StatefulPartitionedCall/EfficientNetV1B3/stack_2_block1_se_2_conv/BiasAdd/ReadVariableOp"], "device": "/device:CPU:0", "attr": {"explicit_paddings": {"list": {}}, "fused_ops": {"list": {"s": ["Qmlhc0FkZA=="]}}, "padding": {"s": "VkFMSUQ="}, "use_cudnn_on_gpu": {"b": true}, "T": {"type": "DT_FLOAT"}, "data_format": {"s": "TkhXQw=="}, "strides": {"list": {"i": ["1", "1", "1", "1"]}}, "num_args": {"i": "1"}, "epsilon": {"f": 0.0}, "dilations": {"list": {"i": ["1", "1", "1", "1"]}}}}, {"name": "StatefulPartitionedCall/EfficientNetV1B3/activation_13/Sigmoid", "op": "Sigmoid", "input": ["StatefulPartitionedCall/EfficientNetV1B3/stack_2_block1_se_2_conv/BiasAdd"], "attr": {"T": {"type": "DT_FLOAT"}}}, {"name": "StatefulPartitionedCall/EfficientNetV1B3/multiply_6/mul", "op": "Mul", "input": ["StatefulPartitionedCall/EfficientNetV1B3/stack_2_block1_MB_dw_swish/mul", "StatefulPartitionedCall/EfficientNetV1B3/activation_13/Sigmoid"], "attr": {"T": {"type": "DT_FLOAT"}}}, {"name": "StatefulPartitionedCall/EfficientNetV1B3/stack_2_block1_MB_pw_bn/FusedBatchNormV3", "op": "_FusedConv2D", "input": ["StatefulPartitionedCall/EfficientNetV1B3/multiply_6/mul", "StatefulPartitionedCall/EfficientNetV1B3/stack_2_block1_MB_pw_conv/Conv2D_weights", "StatefulPartitionedCall/EfficientNetV1B3/stack_2_block1_MB_pw_conv/Conv2D_bn_offset"], "device": "/device:CPU:0", "attr": {"explicit_paddings": {"list": {}}, "strides": {"list": {"i": ["1", "1", "1", "1"]}}, "use_cudnn_on_gpu": {"b": true}, "fused_ops": {"list": {"s": ["Qmlhc0FkZA=="]}}, "T": {"type": "DT_FLOAT"}, "data_format": {"s": "TkhXQw=="}, "dilations": {"list": {"i": ["1", "1", "1", "1"]}}, "epsilon": {"f": 0.0}, "padding": {"s": "U0FNRQ=="}, "num_args": {"i": "1"}}}, {"name": "StatefulPartitionedCall/EfficientNetV1B3/add_3/add", "op": "AddV2", "input": ["StatefulPartitionedCall/EfficientNetV1B3/stack_2_block0_MB_pw_bn/FusedBatchNormV3", "StatefulPartitionedCall/EfficientNetV1B3/stack_2_block1_MB_pw_bn/FusedBatchNormV3"], "attr": {"T": {"type": "DT_FLOAT"}}}, {"name": "StatefulPartitionedCall/EfficientNetV1B3/stack_2_block2_sortcut_bn/FusedBatchNormV3", "op": "_FusedConv2D", "input": ["StatefulPartitionedCall/EfficientNetV1B3/add_3/add", "StatefulPartitionedCall/EfficientNetV1B3/stack_2_block2_sortcut_conv/Conv2D_weights", "StatefulPartitionedCall/EfficientNetV1B3/stack_2_block2_sortcut_conv/Conv2D_bn_offset"], "device": "/device:CPU:0", "attr": {"explicit_paddings": {"list": {}}, "fused_ops": {"list": {"s": ["Qmlhc0FkZA=="]}}, "padding": {"s": "U0FNRQ=="}, "use_cudnn_on_gpu": {"b": true}, "T": {"type": "DT_FLOAT"}, "data_format": {"s": "TkhXQw=="}, "strides": {"list": {"i": ["1", "1", "1", "1"]}}, "num_args": {"i": "1"}, "epsilon": {"f": 0.0}, "dilations": {"list": {"i": ["1", "1", "1", "1"]}}}}, {"name": "StatefulPartitionedCall/EfficientNetV1B3/stack_2_block2_sortcut_swish/Sigmoid", "op": "Sigmoid", "input": ["StatefulPartitionedCall/EfficientNetV1B3/stack_2_block2_sortcut_bn/FusedBatchNormV3"], "attr": {"T": {"type": "DT_FLOAT"}}}, {"name": "StatefulPartitionedCall/EfficientNetV1B3/stack_2_block2_sortcut_swish/mul", "op": "Mul", "input": ["StatefulPartitionedCall/EfficientNetV1B3/stack_2_block2_sortcut_bn/FusedBatchNormV3", "StatefulPartitionedCall/EfficientNetV1B3/stack_2_block2_sortcut_swish/Sigmoid"], "attr": {"T": {"type": "DT_FLOAT"}}}, {"name": "StatefulPartitionedCall/EfficientNetV1B3/stack_2_block2_MB_dw_/depthwise", "op": "FusedDepthwiseConv2dNative", "input": ["StatefulPartitionedCall/EfficientNetV1B3/stack_2_block2_sortcut_swish/mul", "StatefulPartitionedCall/EfficientNetV1B3/stack_2_block2_MB_dw_/depthwise_weights", "StatefulPartitionedCall/EfficientNetV1B3/stack_2_block2_MB_dw_/depthwise_bn_offset"], "attr": {"fused_ops": {"list": {"s": ["Qmlhc0FkZA=="]}}, "data_format": {"s": "TkhXQw=="}, "strides": {"list": {"i": ["1", "1", "1", "1"]}}, "padding": {"s": "U0FNRQ=="}, "num_args": {"i": "1"}, "dilations": {"list": {"i": ["1", "1", "1", "1"]}}, "T": {"type": "DT_FLOAT"}, "explicit_paddings": {"list": {}}}}, {"name": "StatefulPartitionedCall/EfficientNetV1B3/stack_2_block2_MB_dw_swish/Sigmoid", "op": "Sigmoid", "input": ["StatefulPartitionedCall/EfficientNetV1B3/stack_2_block2_MB_dw_/depthwise"], "attr": {"T": {"type": "DT_FLOAT"}}}, {"name": "StatefulPartitionedCall/EfficientNetV1B3/stack_2_block2_MB_dw_swish/mul", "op": "Mul", "input": ["StatefulPartitionedCall/EfficientNetV1B3/stack_2_block2_MB_dw_/depthwise", "StatefulPartitionedCall/EfficientNetV1B3/stack_2_block2_MB_dw_swish/Sigmoid"], "attr": {"T": {"type": "DT_FLOAT"}}}, {"name": "StatefulPartitionedCall/EfficientNetV1B3/tf.math.reduce_mean_7/Mean", "op": "Mean", "input": ["StatefulPartitionedCall/EfficientNetV1B3/stack_2_block2_MB_dw_swish/mul", "StatefulPartitionedCall/EfficientNetV1B3/tf.math.reduce_mean_7/Mean/reduction_indices"], "attr": {"Tidx": {"type": "DT_INT32"}, "T": {"type": "DT_FLOAT"}, "keep_dims": {"b": true}}}, {"name": "StatefulPartitionedCall/EfficientNetV1B3/stack_2_block2_se_1_conv/BiasAdd", "op": "_FusedConv2D", "input": ["StatefulPartitionedCall/EfficientNetV1B3/tf.math.reduce_mean_7/Mean", "StatefulPartitionedCall/EfficientNetV1B3/stack_2_block2_se_1_conv/Conv2D/ReadVariableOp", "StatefulPartitionedCall/EfficientNetV1B3/stack_2_block2_se_1_conv/BiasAdd/ReadVariableOp"], "device": "/device:CPU:0", "attr": {"explicit_paddings": {"list": {}}, "fused_ops": {"list": {"s": ["Qmlhc0FkZA=="]}}, "padding": {"s": "VkFMSUQ="}, "use_cudnn_on_gpu": {"b": true}, "T": {"type": "DT_FLOAT"}, "data_format": {"s": "TkhXQw=="}, "strides": {"list": {"i": ["1", "1", "1", "1"]}}, "num_args": {"i": "1"}, "epsilon": {"f": 0.0}, "dilations": {"list": {"i": ["1", "1", "1", "1"]}}}}, {"name": "StatefulPartitionedCall/EfficientNetV1B3/activation_14/Sigmoid", "op": "Sigmoid", "input": ["StatefulPartitionedCall/EfficientNetV1B3/stack_2_block2_se_1_conv/BiasAdd"], "attr": {"T": {"type": "DT_FLOAT"}}}, {"name": "StatefulPartitionedCall/EfficientNetV1B3/activation_14/mul", "op": "Mul", "input": ["StatefulPartitionedCall/EfficientNetV1B3/stack_2_block2_se_1_conv/BiasAdd", "StatefulPartitionedCall/EfficientNetV1B3/activation_14/Sigmoid"], "attr": {"T": {"type": "DT_FLOAT"}}}, {"name": "StatefulPartitionedCall/EfficientNetV1B3/stack_2_block2_se_2_conv/BiasAdd", "op": "_FusedConv2D", "input": ["StatefulPartitionedCall/EfficientNetV1B3/activation_14/mul", "StatefulPartitionedCall/EfficientNetV1B3/stack_2_block2_se_2_conv/Conv2D/ReadVariableOp", "StatefulPartitionedCall/EfficientNetV1B3/stack_2_block2_se_2_conv/BiasAdd/ReadVariableOp"], "device": "/device:CPU:0", "attr": {"T": {"type": "DT_FLOAT"}, "strides": {"list": {"i": ["1", "1", "1", "1"]}}, "data_format": {"s": "TkhXQw=="}, "dilations": {"list": {"i": ["1", "1", "1", "1"]}}, "num_args": {"i": "1"}, "epsilon": {"f": 0.0}, "explicit_paddings": {"list": {}}, "padding": {"s": "VkFMSUQ="}, "fused_ops": {"list": {"s": ["Qmlhc0FkZA=="]}}, "use_cudnn_on_gpu": {"b": true}}}, {"name": "StatefulPartitionedCall/EfficientNetV1B3/activation_15/Sigmoid", "op": "Sigmoid", "input": ["StatefulPartitionedCall/EfficientNetV1B3/stack_2_block2_se_2_conv/BiasAdd"], "attr": {"T": {"type": "DT_FLOAT"}}}, {"name": "StatefulPartitionedCall/EfficientNetV1B3/multiply_7/mul", "op": "Mul", "input": ["StatefulPartitionedCall/EfficientNetV1B3/stack_2_block2_MB_dw_swish/mul", "StatefulPartitionedCall/EfficientNetV1B3/activation_15/Sigmoid"], "attr": {"T": {"type": "DT_FLOAT"}}}, {"name": "StatefulPartitionedCall/EfficientNetV1B3/stack_2_block2_MB_pw_bn/FusedBatchNormV3", "op": "_FusedConv2D", "input": ["StatefulPartitionedCall/EfficientNetV1B3/multiply_7/mul", "StatefulPartitionedCall/EfficientNetV1B3/stack_2_block2_MB_pw_conv/Conv2D_weights", "StatefulPartitionedCall/EfficientNetV1B3/stack_2_block2_MB_pw_conv/Conv2D_bn_offset"], "device": "/device:CPU:0", "attr": {"explicit_paddings": {"list": {}}, "strides": {"list": {"i": ["1", "1", "1", "1"]}}, "use_cudnn_on_gpu": {"b": true}, "fused_ops": {"list": {"s": ["Qmlhc0FkZA=="]}}, "T": {"type": "DT_FLOAT"}, "data_format": {"s": "TkhXQw=="}, "dilations": {"list": {"i": ["1", "1", "1", "1"]}}, "epsilon": {"f": 0.0}, "padding": {"s": "U0FNRQ=="}, "num_args": {"i": "1"}}}, {"name": "StatefulPartitionedCall/EfficientNetV1B3/add_4/add", "op": "AddV2", "input": ["StatefulPartitionedCall/EfficientNetV1B3/add_3/add", "StatefulPartitionedCall/EfficientNetV1B3/stack_2_block2_MB_pw_bn/FusedBatchNormV3"], "attr": {"T": {"type": "DT_FLOAT"}}}, {"name": "StatefulPartitionedCall/EfficientNetV1B3/stack_3_block0_sortcut_bn/FusedBatchNormV3", "op": "_FusedConv2D", "input": ["StatefulPartitionedCall/EfficientNetV1B3/add_4/add", "StatefulPartitionedCall/EfficientNetV1B3/stack_3_block0_sortcut_conv/Conv2D_weights", "StatefulPartitionedCall/EfficientNetV1B3/stack_3_block0_sortcut_conv/Conv2D_bn_offset"], "device": "/device:CPU:0", "attr": {"T": {"type": "DT_FLOAT"}, "strides": {"list": {"i": ["1", "1", "1", "1"]}}, "data_format": {"s": "TkhXQw=="}, "dilations": {"list": {"i": ["1", "1", "1", "1"]}}, "num_args": {"i": "1"}, "epsilon": {"f": 0.0}, "explicit_paddings": {"list": {}}, "padding": {"s": "U0FNRQ=="}, "fused_ops": {"list": {"s": ["Qmlhc0FkZA=="]}}, "use_cudnn_on_gpu": {"b": true}}}, {"name": "StatefulPartitionedCall/EfficientNetV1B3/stack_3_block0_sortcut_swish/Sigmoid", "op": "Sigmoid", "input": ["StatefulPartitionedCall/EfficientNetV1B3/stack_3_block0_sortcut_bn/FusedBatchNormV3"], "attr": {"T": {"type": "DT_FLOAT"}}}, {"name": "StatefulPartitionedCall/EfficientNetV1B3/stack_3_block0_sortcut_swish/mul", "op": "Mul", "input": ["StatefulPartitionedCall/EfficientNetV1B3/stack_3_block0_sortcut_bn/FusedBatchNormV3", "StatefulPartitionedCall/EfficientNetV1B3/stack_3_block0_sortcut_swish/Sigmoid"], "attr": {"T": {"type": "DT_FLOAT"}}}, {"name": "StatefulPartitionedCall/EfficientNetV1B3/stack_3_block0_MB_dw_/depthwise", "op": "FusedDepthwiseConv2dNative", "input": ["StatefulPartitionedCall/EfficientNetV1B3/stack_3_block0_sortcut_swish/mul", "StatefulPartitionedCall/EfficientNetV1B3/stack_3_block0_MB_dw_/depthwise_weights", "StatefulPartitionedCall/EfficientNetV1B3/stack_3_block0_MB_dw_/depthwise_bn_offset"], "attr": {"fused_ops": {"list": {"s": ["Qmlhc0FkZA=="]}}, "strides": {"list": {"i": ["1", "2", "2", "1"]}}, "data_format": {"s": "TkhXQw=="}, "padding": {"s": "U0FNRQ=="}, "num_args": {"i": "1"}, "dilations": {"list": {"i": ["1", "1", "1", "1"]}}, "T": {"type": "DT_FLOAT"}, "explicit_paddings": {"list": {}}}}, {"name": "StatefulPartitionedCall/EfficientNetV1B3/stack_3_block0_MB_dw_swish/Sigmoid", "op": "Sigmoid", "input": ["StatefulPartitionedCall/EfficientNetV1B3/stack_3_block0_MB_dw_/depthwise"], "attr": {"T": {"type": "DT_FLOAT"}}}, {"name": "StatefulPartitionedCall/EfficientNetV1B3/stack_3_block0_MB_dw_swish/mul", "op": "Mul", "input": ["StatefulPartitionedCall/EfficientNetV1B3/stack_3_block0_MB_dw_/depthwise", "StatefulPartitionedCall/EfficientNetV1B3/stack_3_block0_MB_dw_swish/Sigmoid"], "attr": {"T": {"type": "DT_FLOAT"}}}, {"name": "StatefulPartitionedCall/EfficientNetV1B3/tf.math.reduce_mean_8/Mean", "op": "Mean", "input": ["StatefulPartitionedCall/EfficientNetV1B3/stack_3_block0_MB_dw_swish/mul", "StatefulPartitionedCall/EfficientNetV1B3/tf.math.reduce_mean_8/Mean/reduction_indices"], "attr": {"T": {"type": "DT_FLOAT"}, "Tidx": {"type": "DT_INT32"}, "keep_dims": {"b": true}}}, {"name": "StatefulPartitionedCall/EfficientNetV1B3/stack_3_block0_se_1_conv/BiasAdd", "op": "_FusedConv2D", "input": ["StatefulPartitionedCall/EfficientNetV1B3/tf.math.reduce_mean_8/Mean", "StatefulPartitionedCall/EfficientNetV1B3/stack_3_block0_se_1_conv/Conv2D/ReadVariableOp", "StatefulPartitionedCall/EfficientNetV1B3/stack_3_block0_se_1_conv/BiasAdd/ReadVariableOp"], "device": "/device:CPU:0", "attr": {"explicit_paddings": {"list": {}}, "strides": {"list": {"i": ["1", "1", "1", "1"]}}, "use_cudnn_on_gpu": {"b": true}, "fused_ops": {"list": {"s": ["Qmlhc0FkZA=="]}}, "T": {"type": "DT_FLOAT"}, "data_format": {"s": "TkhXQw=="}, "dilations": {"list": {"i": ["1", "1", "1", "1"]}}, "epsilon": {"f": 0.0}, "padding": {"s": "VkFMSUQ="}, "num_args": {"i": "1"}}}, {"name": "StatefulPartitionedCall/EfficientNetV1B3/activation_16/Sigmoid", "op": "Sigmoid", "input": ["StatefulPartitionedCall/EfficientNetV1B3/stack_3_block0_se_1_conv/BiasAdd"], "attr": {"T": {"type": "DT_FLOAT"}}}, {"name": "StatefulPartitionedCall/EfficientNetV1B3/activation_16/mul", "op": "Mul", "input": ["StatefulPartitionedCall/EfficientNetV1B3/stack_3_block0_se_1_conv/BiasAdd", "StatefulPartitionedCall/EfficientNetV1B3/activation_16/Sigmoid"], "attr": {"T": {"type": "DT_FLOAT"}}}, {"name": "StatefulPartitionedCall/EfficientNetV1B3/stack_3_block0_se_2_conv/BiasAdd", "op": "_FusedConv2D", "input": ["StatefulPartitionedCall/EfficientNetV1B3/activation_16/mul", "StatefulPartitionedCall/EfficientNetV1B3/stack_3_block0_se_2_conv/Conv2D/ReadVariableOp", "StatefulPartitionedCall/EfficientNetV1B3/stack_3_block0_se_2_conv/BiasAdd/ReadVariableOp"], "device": "/device:CPU:0", "attr": {"explicit_paddings": {"list": {}}, "strides": {"list": {"i": ["1", "1", "1", "1"]}}, "use_cudnn_on_gpu": {"b": true}, "fused_ops": {"list": {"s": ["Qmlhc0FkZA=="]}}, "T": {"type": "DT_FLOAT"}, "data_format": {"s": "TkhXQw=="}, "dilations": {"list": {"i": ["1", "1", "1", "1"]}}, "epsilon": {"f": 0.0}, "padding": {"s": "VkFMSUQ="}, "num_args": {"i": "1"}}}, {"name": "StatefulPartitionedCall/EfficientNetV1B3/activation_17/Sigmoid", "op": "Sigmoid", "input": ["StatefulPartitionedCall/EfficientNetV1B3/stack_3_block0_se_2_conv/BiasAdd"], "attr": {"T": {"type": "DT_FLOAT"}}}, {"name": "StatefulPartitionedCall/EfficientNetV1B3/multiply_8/mul", "op": "Mul", "input": ["StatefulPartitionedCall/EfficientNetV1B3/stack_3_block0_MB_dw_swish/mul", "StatefulPartitionedCall/EfficientNetV1B3/activation_17/Sigmoid"], "attr": {"T": {"type": "DT_FLOAT"}}}, {"name": "StatefulPartitionedCall/EfficientNetV1B3/stack_3_block0_MB_pw_bn/FusedBatchNormV3", "op": "_FusedConv2D", "input": ["StatefulPartitionedCall/EfficientNetV1B3/multiply_8/mul", "StatefulPartitionedCall/EfficientNetV1B3/stack_3_block0_MB_pw_conv/Conv2D_weights", "StatefulPartitionedCall/EfficientNetV1B3/stack_3_block0_MB_pw_conv/Conv2D_bn_offset"], "device": "/device:CPU:0", "attr": {"use_cudnn_on_gpu": {"b": true}, "fused_ops": {"list": {"s": ["Qmlhc0FkZA=="]}}, "data_format": {"s": "TkhXQw=="}, "strides": {"list": {"i": ["1", "1", "1", "1"]}}, "padding": {"s": "U0FNRQ=="}, "num_args": {"i": "1"}, "epsilon": {"f": 0.0}, "dilations": {"list": {"i": ["1", "1", "1", "1"]}}, "T": {"type": "DT_FLOAT"}, "explicit_paddings": {"list": {}}}}, {"name": "StatefulPartitionedCall/EfficientNetV1B3/stack_3_block1_sortcut_bn/FusedBatchNormV3", "op": "_FusedConv2D", "input": ["StatefulPartitionedCall/EfficientNetV1B3/stack_3_block0_MB_pw_bn/FusedBatchNormV3", "StatefulPartitionedCall/EfficientNetV1B3/stack_3_block1_sortcut_conv/Conv2D_weights", "StatefulPartitionedCall/EfficientNetV1B3/stack_3_block1_sortcut_conv/Conv2D_bn_offset"], "device": "/device:CPU:0", "attr": {"dilations": {"list": {"i": ["1", "1", "1", "1"]}}, "num_args": {"i": "1"}, "epsilon": {"f": 0.0}, "T": {"type": "DT_FLOAT"}, "explicit_paddings": {"list": {}}, "use_cudnn_on_gpu": {"b": true}, "padding": {"s": "U0FNRQ=="}, "fused_ops": {"list": {"s": ["Qmlhc0FkZA=="]}}, "strides": {"list": {"i": ["1", "1", "1", "1"]}}, "data_format": {"s": "TkhXQw=="}}}, {"name": "StatefulPartitionedCall/EfficientNetV1B3/stack_3_block1_sortcut_swish/Sigmoid", "op": "Sigmoid", "input": ["StatefulPartitionedCall/EfficientNetV1B3/stack_3_block1_sortcut_bn/FusedBatchNormV3"], "attr": {"T": {"type": "DT_FLOAT"}}}, {"name": "StatefulPartitionedCall/EfficientNetV1B3/stack_3_block1_sortcut_swish/mul", "op": "Mul", "input": ["StatefulPartitionedCall/EfficientNetV1B3/stack_3_block1_sortcut_bn/FusedBatchNormV3", "StatefulPartitionedCall/EfficientNetV1B3/stack_3_block1_sortcut_swish/Sigmoid"], "attr": {"T": {"type": "DT_FLOAT"}}}, {"name": "StatefulPartitionedCall/EfficientNetV1B3/stack_3_block1_MB_dw_/depthwise", "op": "FusedDepthwiseConv2dNative", "input": ["StatefulPartitionedCall/EfficientNetV1B3/stack_3_block1_sortcut_swish/mul", "StatefulPartitionedCall/EfficientNetV1B3/stack_3_block1_MB_dw_/depthwise_weights", "StatefulPartitionedCall/EfficientNetV1B3/stack_3_block1_MB_dw_/depthwise_bn_offset"], "attr": {"T": {"type": "DT_FLOAT"}, "strides": {"list": {"i": ["1", "1", "1", "1"]}}, "data_format": {"s": "TkhXQw=="}, "dilations": {"list": {"i": ["1", "1", "1", "1"]}}, "num_args": {"i": "1"}, "explicit_paddings": {"list": {}}, "padding": {"s": "U0FNRQ=="}, "fused_ops": {"list": {"s": ["Qmlhc0FkZA=="]}}}}, {"name": "StatefulPartitionedCall/EfficientNetV1B3/stack_3_block1_MB_dw_swish/Sigmoid", "op": "Sigmoid", "input": ["StatefulPartitionedCall/EfficientNetV1B3/stack_3_block1_MB_dw_/depthwise"], "attr": {"T": {"type": "DT_FLOAT"}}}, {"name": "StatefulPartitionedCall/EfficientNetV1B3/stack_3_block1_MB_dw_swish/mul", "op": "Mul", "input": ["StatefulPartitionedCall/EfficientNetV1B3/stack_3_block1_MB_dw_/depthwise", "StatefulPartitionedCall/EfficientNetV1B3/stack_3_block1_MB_dw_swish/Sigmoid"], "attr": {"T": {"type": "DT_FLOAT"}}}, {"name": "StatefulPartitionedCall/EfficientNetV1B3/tf.math.reduce_mean_9/Mean", "op": "Mean", "input": ["StatefulPartitionedCall/EfficientNetV1B3/stack_3_block1_MB_dw_swish/mul", "StatefulPartitionedCall/EfficientNetV1B3/tf.math.reduce_mean_9/Mean/reduction_indices"], "attr": {"T": {"type": "DT_FLOAT"}, "Tidx": {"type": "DT_INT32"}, "keep_dims": {"b": true}}}, {"name": "StatefulPartitionedCall/EfficientNetV1B3/stack_3_block1_se_1_conv/BiasAdd", "op": "_FusedConv2D", "input": ["StatefulPartitionedCall/EfficientNetV1B3/tf.math.reduce_mean_9/Mean", "StatefulPartitionedCall/EfficientNetV1B3/stack_3_block1_se_1_conv/Conv2D/ReadVariableOp", "StatefulPartitionedCall/EfficientNetV1B3/stack_3_block1_se_1_conv/BiasAdd/ReadVariableOp"], "device": "/device:CPU:0", "attr": {"use_cudnn_on_gpu": {"b": true}, "fused_ops": {"list": {"s": ["Qmlhc0FkZA=="]}}, "data_format": {"s": "TkhXQw=="}, "strides": {"list": {"i": ["1", "1", "1", "1"]}}, "padding": {"s": "VkFMSUQ="}, "num_args": {"i": "1"}, "epsilon": {"f": 0.0}, "dilations": {"list": {"i": ["1", "1", "1", "1"]}}, "T": {"type": "DT_FLOAT"}, "explicit_paddings": {"list": {}}}}, {"name": "StatefulPartitionedCall/EfficientNetV1B3/activation_18/Sigmoid", "op": "Sigmoid", "input": ["StatefulPartitionedCall/EfficientNetV1B3/stack_3_block1_se_1_conv/BiasAdd"], "attr": {"T": {"type": "DT_FLOAT"}}}, {"name": "StatefulPartitionedCall/EfficientNetV1B3/activation_18/mul", "op": "Mul", "input": ["StatefulPartitionedCall/EfficientNetV1B3/stack_3_block1_se_1_conv/BiasAdd", "StatefulPartitionedCall/EfficientNetV1B3/activation_18/Sigmoid"], "attr": {"T": {"type": "DT_FLOAT"}}}, {"name": "StatefulPartitionedCall/EfficientNetV1B3/stack_3_block1_se_2_conv/BiasAdd", "op": "_FusedConv2D", "input": ["StatefulPartitionedCall/EfficientNetV1B3/activation_18/mul", "StatefulPartitionedCall/EfficientNetV1B3/stack_3_block1_se_2_conv/Conv2D/ReadVariableOp", "StatefulPartitionedCall/EfficientNetV1B3/stack_3_block1_se_2_conv/BiasAdd/ReadVariableOp"], "device": "/device:CPU:0", "attr": {"dilations": {"list": {"i": ["1", "1", "1", "1"]}}, "T": {"type": "DT_FLOAT"}, "epsilon": {"f": 0.0}, "strides": {"list": {"i": ["1", "1", "1", "1"]}}, "num_args": {"i": "1"}, "padding": {"s": "VkFMSUQ="}, "fused_ops": {"list": {"s": ["Qmlhc0FkZA=="]}}, "explicit_paddings": {"list": {}}, "use_cudnn_on_gpu": {"b": true}, "data_format": {"s": "TkhXQw=="}}}, {"name": "StatefulPartitionedCall/EfficientNetV1B3/activation_19/Sigmoid", "op": "Sigmoid", "input": ["StatefulPartitionedCall/EfficientNetV1B3/stack_3_block1_se_2_conv/BiasAdd"], "attr": {"T": {"type": "DT_FLOAT"}}}, {"name": "StatefulPartitionedCall/EfficientNetV1B3/multiply_9/mul", "op": "Mul", "input": ["StatefulPartitionedCall/EfficientNetV1B3/stack_3_block1_MB_dw_swish/mul", "StatefulPartitionedCall/EfficientNetV1B3/activation_19/Sigmoid"], "attr": {"T": {"type": "DT_FLOAT"}}}, {"name": "StatefulPartitionedCall/EfficientNetV1B3/stack_3_block1_MB_pw_bn/FusedBatchNormV3", "op": "_FusedConv2D", "input": ["StatefulPartitionedCall/EfficientNetV1B3/multiply_9/mul", "StatefulPartitionedCall/EfficientNetV1B3/stack_3_block1_MB_pw_conv/Conv2D_weights", "StatefulPartitionedCall/EfficientNetV1B3/stack_3_block1_MB_pw_conv/Conv2D_bn_offset"], "device": "/device:CPU:0", "attr": {"padding": {"s": "U0FNRQ=="}, "strides": {"list": {"i": ["1", "1", "1", "1"]}}, "explicit_paddings": {"list": {}}, "fused_ops": {"list": {"s": ["Qmlhc0FkZA=="]}}, "use_cudnn_on_gpu": {"b": true}, "data_format": {"s": "TkhXQw=="}, "T": {"type": "DT_FLOAT"}, "epsilon": {"f": 0.0}, "dilations": {"list": {"i": ["1", "1", "1", "1"]}}, "num_args": {"i": "1"}}}, {"name": "StatefulPartitionedCall/EfficientNetV1B3/add_5/add", "op": "AddV2", "input": ["StatefulPartitionedCall/EfficientNetV1B3/stack_3_block0_MB_pw_bn/FusedBatchNormV3", "StatefulPartitionedCall/EfficientNetV1B3/stack_3_block1_MB_pw_bn/FusedBatchNormV3"], "attr": {"T": {"type": "DT_FLOAT"}}}, {"name": "StatefulPartitionedCall/EfficientNetV1B3/stack_3_block2_sortcut_bn/FusedBatchNormV3", "op": "_FusedConv2D", "input": ["StatefulPartitionedCall/EfficientNetV1B3/add_5/add", "StatefulPartitionedCall/EfficientNetV1B3/stack_3_block2_sortcut_conv/Conv2D_weights", "StatefulPartitionedCall/EfficientNetV1B3/stack_3_block2_sortcut_conv/Conv2D_bn_offset"], "device": "/device:CPU:0", "attr": {"padding": {"s": "U0FNRQ=="}, "strides": {"list": {"i": ["1", "1", "1", "1"]}}, "explicit_paddings": {"list": {}}, "fused_ops": {"list": {"s": ["Qmlhc0FkZA=="]}}, "use_cudnn_on_gpu": {"b": true}, "data_format": {"s": "TkhXQw=="}, "T": {"type": "DT_FLOAT"}, "epsilon": {"f": 0.0}, "dilations": {"list": {"i": ["1", "1", "1", "1"]}}, "num_args": {"i": "1"}}}, {"name": "StatefulPartitionedCall/EfficientNetV1B3/stack_3_block2_sortcut_swish/Sigmoid", "op": "Sigmoid", "input": ["StatefulPartitionedCall/EfficientNetV1B3/stack_3_block2_sortcut_bn/FusedBatchNormV3"], "attr": {"T": {"type": "DT_FLOAT"}}}, {"name": "StatefulPartitionedCall/EfficientNetV1B3/stack_3_block2_sortcut_swish/mul", "op": "Mul", "input": ["StatefulPartitionedCall/EfficientNetV1B3/stack_3_block2_sortcut_bn/FusedBatchNormV3", "StatefulPartitionedCall/EfficientNetV1B3/stack_3_block2_sortcut_swish/Sigmoid"], "attr": {"T": {"type": "DT_FLOAT"}}}, {"name": "StatefulPartitionedCall/EfficientNetV1B3/stack_3_block2_MB_dw_/depthwise", "op": "FusedDepthwiseConv2dNative", "input": ["StatefulPartitionedCall/EfficientNetV1B3/stack_3_block2_sortcut_swish/mul", "StatefulPartitionedCall/EfficientNetV1B3/stack_3_block2_MB_dw_/depthwise_weights", "StatefulPartitionedCall/EfficientNetV1B3/stack_3_block2_MB_dw_/depthwise_bn_offset"], "attr": {"padding": {"s": "U0FNRQ=="}, "strides": {"list": {"i": ["1", "1", "1", "1"]}}, "T": {"type": "DT_FLOAT"}, "fused_ops": {"list": {"s": ["Qmlhc0FkZA=="]}}, "data_format": {"s": "TkhXQw=="}, "dilations": {"list": {"i": ["1", "1", "1", "1"]}}, "num_args": {"i": "1"}, "explicit_paddings": {"list": {}}}}, {"name": "StatefulPartitionedCall/EfficientNetV1B3/stack_3_block2_MB_dw_swish/Sigmoid", "op": "Sigmoid", "input": ["StatefulPartitionedCall/EfficientNetV1B3/stack_3_block2_MB_dw_/depthwise"], "attr": {"T": {"type": "DT_FLOAT"}}}, {"name": "StatefulPartitionedCall/EfficientNetV1B3/stack_3_block2_MB_dw_swish/mul", "op": "Mul", "input": ["StatefulPartitionedCall/EfficientNetV1B3/stack_3_block2_MB_dw_/depthwise", "StatefulPartitionedCall/EfficientNetV1B3/stack_3_block2_MB_dw_swish/Sigmoid"], "attr": {"T": {"type": "DT_FLOAT"}}}, {"name": "StatefulPartitionedCall/EfficientNetV1B3/tf.math.reduce_mean_10/Mean", "op": "Mean", "input": ["StatefulPartitionedCall/EfficientNetV1B3/stack_3_block2_MB_dw_swish/mul", "StatefulPartitionedCall/EfficientNetV1B3/tf.math.reduce_mean_10/Mean/reduction_indices"], "attr": {"T": {"type": "DT_FLOAT"}, "keep_dims": {"b": true}, "Tidx": {"type": "DT_INT32"}}}, {"name": "StatefulPartitionedCall/EfficientNetV1B3/stack_3_block2_se_1_conv/BiasAdd", "op": "_FusedConv2D", "input": ["StatefulPartitionedCall/EfficientNetV1B3/tf.math.reduce_mean_10/Mean", "StatefulPartitionedCall/EfficientNetV1B3/stack_3_block2_se_1_conv/Conv2D/ReadVariableOp", "StatefulPartitionedCall/EfficientNetV1B3/stack_3_block2_se_1_conv/BiasAdd/ReadVariableOp"], "device": "/device:CPU:0", "attr": {"padding": {"s": "VkFMSUQ="}, "strides": {"list": {"i": ["1", "1", "1", "1"]}}, "use_cudnn_on_gpu": {"b": true}, "T": {"type": "DT_FLOAT"}, "fused_ops": {"list": {"s": ["Qmlhc0FkZA=="]}}, "data_format": {"s": "TkhXQw=="}, "num_args": {"i": "1"}, "dilations": {"list": {"i": ["1", "1", "1", "1"]}}, "epsilon": {"f": 0.0}, "explicit_paddings": {"list": {}}}}, {"name": "StatefulPartitionedCall/EfficientNetV1B3/activation_20/Sigmoid", "op": "Sigmoid", "input": ["StatefulPartitionedCall/EfficientNetV1B3/stack_3_block2_se_1_conv/BiasAdd"], "attr": {"T": {"type": "DT_FLOAT"}}}, {"name": "StatefulPartitionedCall/EfficientNetV1B3/activation_20/mul", "op": "Mul", "input": ["StatefulPartitionedCall/EfficientNetV1B3/stack_3_block2_se_1_conv/BiasAdd", "StatefulPartitionedCall/EfficientNetV1B3/activation_20/Sigmoid"], "attr": {"T": {"type": "DT_FLOAT"}}}, {"name": "StatefulPartitionedCall/EfficientNetV1B3/stack_3_block2_se_2_conv/BiasAdd", "op": "_FusedConv2D", "input": ["StatefulPartitionedCall/EfficientNetV1B3/activation_20/mul", "StatefulPartitionedCall/EfficientNetV1B3/stack_3_block2_se_2_conv/Conv2D/ReadVariableOp", "StatefulPartitionedCall/EfficientNetV1B3/stack_3_block2_se_2_conv/BiasAdd/ReadVariableOp"], "device": "/device:CPU:0", "attr": {"padding": {"s": "VkFMSUQ="}, "strides": {"list": {"i": ["1", "1", "1", "1"]}}, "use_cudnn_on_gpu": {"b": true}, "T": {"type": "DT_FLOAT"}, "fused_ops": {"list": {"s": ["Qmlhc0FkZA=="]}}, "data_format": {"s": "TkhXQw=="}, "num_args": {"i": "1"}, "dilations": {"list": {"i": ["1", "1", "1", "1"]}}, "epsilon": {"f": 0.0}, "explicit_paddings": {"list": {}}}}, {"name": "StatefulPartitionedCall/EfficientNetV1B3/activation_21/Sigmoid", "op": "Sigmoid", "input": ["StatefulPartitionedCall/EfficientNetV1B3/stack_3_block2_se_2_conv/BiasAdd"], "attr": {"T": {"type": "DT_FLOAT"}}}, {"name": "StatefulPartitionedCall/EfficientNetV1B3/multiply_10/mul", "op": "Mul", "input": ["StatefulPartitionedCall/EfficientNetV1B3/stack_3_block2_MB_dw_swish/mul", "StatefulPartitionedCall/EfficientNetV1B3/activation_21/Sigmoid"], "attr": {"T": {"type": "DT_FLOAT"}}}, {"name": "StatefulPartitionedCall/EfficientNetV1B3/stack_3_block2_MB_pw_bn/FusedBatchNormV3", "op": "_FusedConv2D", "input": ["StatefulPartitionedCall/EfficientNetV1B3/multiply_10/mul", "StatefulPartitionedCall/EfficientNetV1B3/stack_3_block2_MB_pw_conv/Conv2D_weights", "StatefulPartitionedCall/EfficientNetV1B3/stack_3_block2_MB_pw_conv/Conv2D_bn_offset"], "device": "/device:CPU:0", "attr": {"num_args": {"i": "1"}, "fused_ops": {"list": {"s": ["Qmlhc0FkZA=="]}}, "T": {"type": "DT_FLOAT"}, "strides": {"list": {"i": ["1", "1", "1", "1"]}}, "explicit_paddings": {"list": {}}, "use_cudnn_on_gpu": {"b": true}, "data_format": {"s": "TkhXQw=="}, "padding": {"s": "U0FNRQ=="}, "epsilon": {"f": 0.0}, "dilations": {"list": {"i": ["1", "1", "1", "1"]}}}}, {"name": "StatefulPartitionedCall/EfficientNetV1B3/add_6/add", "op": "AddV2", "input": ["StatefulPartitionedCall/EfficientNetV1B3/add_5/add", "StatefulPartitionedCall/EfficientNetV1B3/stack_3_block2_MB_pw_bn/FusedBatchNormV3"], "attr": {"T": {"type": "DT_FLOAT"}}}, {"name": "StatefulPartitionedCall/EfficientNetV1B3/stack_3_block3_sortcut_bn/FusedBatchNormV3", "op": "_FusedConv2D", "input": ["StatefulPartitionedCall/EfficientNetV1B3/add_6/add", "StatefulPartitionedCall/EfficientNetV1B3/stack_3_block3_sortcut_conv/Conv2D_weights", "StatefulPartitionedCall/EfficientNetV1B3/stack_3_block3_sortcut_conv/Conv2D_bn_offset"], "device": "/device:CPU:0", "attr": {"num_args": {"i": "1"}, "fused_ops": {"list": {"s": ["Qmlhc0FkZA=="]}}, "T": {"type": "DT_FLOAT"}, "strides": {"list": {"i": ["1", "1", "1", "1"]}}, "explicit_paddings": {"list": {}}, "use_cudnn_on_gpu": {"b": true}, "data_format": {"s": "TkhXQw=="}, "padding": {"s": "U0FNRQ=="}, "epsilon": {"f": 0.0}, "dilations": {"list": {"i": ["1", "1", "1", "1"]}}}}, {"name": "StatefulPartitionedCall/EfficientNetV1B3/stack_3_block3_sortcut_swish/Sigmoid", "op": "Sigmoid", "input": ["StatefulPartitionedCall/EfficientNetV1B3/stack_3_block3_sortcut_bn/FusedBatchNormV3"], "attr": {"T": {"type": "DT_FLOAT"}}}, {"name": "StatefulPartitionedCall/EfficientNetV1B3/stack_3_block3_sortcut_swish/mul", "op": "Mul", "input": ["StatefulPartitionedCall/EfficientNetV1B3/stack_3_block3_sortcut_bn/FusedBatchNormV3", "StatefulPartitionedCall/EfficientNetV1B3/stack_3_block3_sortcut_swish/Sigmoid"], "attr": {"T": {"type": "DT_FLOAT"}}}, {"name": "StatefulPartitionedCall/EfficientNetV1B3/stack_3_block3_MB_dw_/depthwise", "op": "FusedDepthwiseConv2dNative", "input": ["StatefulPartitionedCall/EfficientNetV1B3/stack_3_block3_sortcut_swish/mul", "StatefulPartitionedCall/EfficientNetV1B3/stack_3_block3_MB_dw_/depthwise_weights", "StatefulPartitionedCall/EfficientNetV1B3/stack_3_block3_MB_dw_/depthwise_bn_offset"], "attr": {"fused_ops": {"list": {"s": ["Qmlhc0FkZA=="]}}, "data_format": {"s": "TkhXQw=="}, "num_args": {"i": "1"}, "dilations": {"list": {"i": ["1", "1", "1", "1"]}}, "explicit_paddings": {"list": {}}, "strides": {"list": {"i": ["1", "1", "1", "1"]}}, "padding": {"s": "U0FNRQ=="}, "T": {"type": "DT_FLOAT"}}}, {"name": "StatefulPartitionedCall/EfficientNetV1B3/stack_3_block3_MB_dw_swish/Sigmoid", "op": "Sigmoid", "input": ["StatefulPartitionedCall/EfficientNetV1B3/stack_3_block3_MB_dw_/depthwise"], "attr": {"T": {"type": "DT_FLOAT"}}}, {"name": "StatefulPartitionedCall/EfficientNetV1B3/stack_3_block3_MB_dw_swish/mul", "op": "Mul", "input": ["StatefulPartitionedCall/EfficientNetV1B3/stack_3_block3_MB_dw_/depthwise", "StatefulPartitionedCall/EfficientNetV1B3/stack_3_block3_MB_dw_swish/Sigmoid"], "attr": {"T": {"type": "DT_FLOAT"}}}, {"name": "StatefulPartitionedCall/EfficientNetV1B3/tf.math.reduce_mean_11/Mean", "op": "Mean", "input": ["StatefulPartitionedCall/EfficientNetV1B3/stack_3_block3_MB_dw_swish/mul", "StatefulPartitionedCall/EfficientNetV1B3/tf.math.reduce_mean_11/Mean/reduction_indices"], "attr": {"Tidx": {"type": "DT_INT32"}, "keep_dims": {"b": true}, "T": {"type": "DT_FLOAT"}}}, {"name": "StatefulPartitionedCall/EfficientNetV1B3/stack_3_block3_se_1_conv/BiasAdd", "op": "_FusedConv2D", "input": ["StatefulPartitionedCall/EfficientNetV1B3/tf.math.reduce_mean_11/Mean", "StatefulPartitionedCall/EfficientNetV1B3/stack_3_block3_se_1_conv/Conv2D/ReadVariableOp", "StatefulPartitionedCall/EfficientNetV1B3/stack_3_block3_se_1_conv/BiasAdd/ReadVariableOp"], "device": "/device:CPU:0", "attr": {"use_cudnn_on_gpu": {"b": true}, "data_format": {"s": "TkhXQw=="}, "padding": {"s": "VkFMSUQ="}, "dilations": {"list": {"i": ["1", "1", "1", "1"]}}, "epsilon": {"f": 0.0}, "num_args": {"i": "1"}, "fused_ops": {"list": {"s": ["Qmlhc0FkZA=="]}}, "explicit_paddings": {"list": {}}, "T": {"type": "DT_FLOAT"}, "strides": {"list": {"i": ["1", "1", "1", "1"]}}}}, {"name": "StatefulPartitionedCall/EfficientNetV1B3/activation_22/Sigmoid", "op": "Sigmoid", "input": ["StatefulPartitionedCall/EfficientNetV1B3/stack_3_block3_se_1_conv/BiasAdd"], "attr": {"T": {"type": "DT_FLOAT"}}}, {"name": "StatefulPartitionedCall/EfficientNetV1B3/activation_22/mul", "op": "Mul", "input": ["StatefulPartitionedCall/EfficientNetV1B3/stack_3_block3_se_1_conv/BiasAdd", "StatefulPartitionedCall/EfficientNetV1B3/activation_22/Sigmoid"], "attr": {"T": {"type": "DT_FLOAT"}}}, {"name": "StatefulPartitionedCall/EfficientNetV1B3/stack_3_block3_se_2_conv/BiasAdd", "op": "_FusedConv2D", "input": ["StatefulPartitionedCall/EfficientNetV1B3/activation_22/mul", "StatefulPartitionedCall/EfficientNetV1B3/stack_3_block3_se_2_conv/Conv2D/ReadVariableOp", "StatefulPartitionedCall/EfficientNetV1B3/stack_3_block3_se_2_conv/BiasAdd/ReadVariableOp"], "device": "/device:CPU:0", "attr": {"padding": {"s": "VkFMSUQ="}, "strides": {"list": {"i": ["1", "1", "1", "1"]}}, "use_cudnn_on_gpu": {"b": true}, "T": {"type": "DT_FLOAT"}, "fused_ops": {"list": {"s": ["Qmlhc0FkZA=="]}}, "data_format": {"s": "TkhXQw=="}, "num_args": {"i": "1"}, "dilations": {"list": {"i": ["1", "1", "1", "1"]}}, "epsilon": {"f": 0.0}, "explicit_paddings": {"list": {}}}}, {"name": "StatefulPartitionedCall/EfficientNetV1B3/activation_23/Sigmoid", "op": "Sigmoid", "input": ["StatefulPartitionedCall/EfficientNetV1B3/stack_3_block3_se_2_conv/BiasAdd"], "attr": {"T": {"type": "DT_FLOAT"}}}, {"name": "StatefulPartitionedCall/EfficientNetV1B3/multiply_11/mul", "op": "Mul", "input": ["StatefulPartitionedCall/EfficientNetV1B3/stack_3_block3_MB_dw_swish/mul", "StatefulPartitionedCall/EfficientNetV1B3/activation_23/Sigmoid"], "attr": {"T": {"type": "DT_FLOAT"}}}, {"name": "StatefulPartitionedCall/EfficientNetV1B3/stack_3_block3_MB_pw_bn/FusedBatchNormV3", "op": "_FusedConv2D", "input"…
Sigmoid"], "attr": {"T": {"type": "DT_FLOAT"}}}, {"name": "StatefulPartitionedCall/EfficientNetV1B3/stack_6_block0_MB_pw_bn/FusedBatchNormV3", "op": "_FusedConv2D", "input": ["StatefulPartitionedCall/EfficientNetV1B3/multiply_24/mul", "StatefulPartitionedCall/EfficientNetV1B3/stack_6_block0_MB_pw_conv/Conv2D_weights", "StatefulPartitionedCall/EfficientNetV1B3/stack_6_block0_MB_pw_conv/Conv2D_bn_offset"], "device": "/device:CPU:0", "attr": {"T": {"type": "DT_FLOAT"}, "epsilon": {"f": 0.0}, "dilations": {"list": {"i": ["1", "1", "1", "1"]}}, "num_args": {"i": "1"}, "padding": {"s": "U0FNRQ=="}, "strides": {"list": {"i": ["1", "1", "1", "1"]}}, "explicit_paddings": {"list": {}}, "fused_ops": {"list": {"s": ["Qmlhc0FkZA=="]}}, "use_cudnn_on_gpu": {"b": true}, "data_format": {"s": "TkhXQw=="}}}, {"name": "StatefulPartitionedCall/EfficientNetV1B3/stack_6_block1_sortcut_bn/FusedBatchNormV3", "op": "_FusedConv2D", "input": ["StatefulPartitionedCall/EfficientNetV1B3/stack_6_block0_MB_pw_bn/FusedBatchNormV3", "StatefulPartitionedCall/EfficientNetV1B3/stack_6_block1_sortcut_conv/Conv2D_weights", "StatefulPartitionedCall/EfficientNetV1B3/stack_6_block1_sortcut_conv/Conv2D_bn_offset"], "device": "/device:CPU:0", "attr": {"explicit_paddings": {"list": {}}, "strides": {"list": {"i": ["1", "1", "1", "1"]}}, "use_cudnn_on_gpu": {"b": true}, "fused_ops": {"list": {"s": ["Qmlhc0FkZA=="]}}, "data_format": {"s": "TkhXQw=="}, "T": {"type": "DT_FLOAT"}, "dilations": {"list": {"i": ["1", "1", "1", "1"]}}, "epsilon": {"f": 0.0}, "padding": {"s": "U0FNRQ=="}, "num_args": {"i": "1"}}}, {"name": "StatefulPartitionedCall/EfficientNetV1B3/stack_6_block1_sortcut_swish/Sigmoid", "op": "Sigmoid", "input": ["StatefulPartitionedCall/EfficientNetV1B3/stack_6_block1_sortcut_bn/FusedBatchNormV3"], "attr": {"T": {"type": "DT_FLOAT"}}}, {"name": "StatefulPartitionedCall/EfficientNetV1B3/stack_6_block1_sortcut_swish/mul", "op": "Mul", "input": ["StatefulPartitionedCall/EfficientNetV1B3/stack_6_block1_sortcut_bn/FusedBatchNormV3", "StatefulPartitionedCall/EfficientNetV1B3/stack_6_block1_sortcut_swish/Sigmoid"], "attr": {"T": {"type": "DT_FLOAT"}}}, {"name": "StatefulPartitionedCall/EfficientNetV1B3/stack_6_block1_MB_dw_/depthwise", "op": "FusedDepthwiseConv2dNative", "input": ["StatefulPartitionedCall/EfficientNetV1B3/stack_6_block1_sortcut_swish/mul", "StatefulPartitionedCall/EfficientNetV1B3/stack_6_block1_MB_dw_/depthwise_weights", "StatefulPartitionedCall/EfficientNetV1B3/stack_6_block1_MB_dw_/depthwise_bn_offset"], "attr": {"explicit_paddings": {"list": {}}, "strides": {"list": {"i": ["1", "1", "1", "1"]}}, "fused_ops": {"list": {"s": ["Qmlhc0FkZA=="]}}, "data_format": {"s": "TkhXQw=="}, "T": {"type": "DT_FLOAT"}, "dilations": {"list": {"i": ["1", "1", "1", "1"]}}, "num_args": {"i": "1"}, "padding": {"s": "U0FNRQ=="}}}, {"name": "StatefulPartitionedCall/EfficientNetV1B3/stack_6_block1_MB_dw_swish/Sigmoid", "op": "Sigmoid", "input": ["StatefulPartitionedCall/EfficientNetV1B3/stack_6_block1_MB_dw_/depthwise"], "attr": {"T": {"type": "DT_FLOAT"}}}, {"name": "StatefulPartitionedCall/EfficientNetV1B3/stack_6_block1_MB_dw_swish/mul", "op": "Mul", "input": ["StatefulPartitionedCall/EfficientNetV1B3/stack_6_block1_MB_dw_/depthwise", "StatefulPartitionedCall/EfficientNetV1B3/stack_6_block1_MB_dw_swish/Sigmoid"], "attr": {"T": {"type": "DT_FLOAT"}}}, {"name": "StatefulPartitionedCall/EfficientNetV1B3/tf.math.reduce_mean_25/Mean", "op": "Mean", "input": ["StatefulPartitionedCall/EfficientNetV1B3/stack_6_block1_MB_dw_swish/mul", "StatefulPartitionedCall/EfficientNetV1B3/tf.math.reduce_mean_25/Mean/reduction_indices"], "attr": {"keep_dims": {"b": true}, "Tidx": {"type": "DT_INT32"}, "T": {"type": "DT_FLOAT"}}}, {"name": "StatefulPartitionedCall/EfficientNetV1B3/stack_6_block1_se_1_conv/BiasAdd", "op": "_FusedConv2D", "input": ["StatefulPartitionedCall/EfficientNetV1B3/tf.math.reduce_mean_25/Mean", "StatefulPartitionedCall/EfficientNetV1B3/stack_6_block1_se_1_conv/Conv2D/ReadVariableOp", "StatefulPartitionedCall/EfficientNetV1B3/stack_6_block1_se_1_conv/BiasAdd/ReadVariableOp"], "device": "/device:CPU:0", "attr": {"T": {"type": "DT_FLOAT"}, "epsilon": {"f": 0.0}, "dilations": {"list": {"i": ["1", "1", "1", "1"]}}, "num_args": {"i": "1"}, "padding": {"s": "VkFMSUQ="}, "strides": {"list": {"i": ["1", "1", "1", "1"]}}, "explicit_paddings": {"list": {}}, "fused_ops": {"list": {"s": ["Qmlhc0FkZA=="]}}, "use_cudnn_on_gpu": {"b": true}, "data_format": {"s": "TkhXQw=="}}}, {"name": "StatefulPartitionedCall/EfficientNetV1B3/activation_50/Sigmoid", "op": "Sigmoid", "input": ["StatefulPartitionedCall/EfficientNetV1B3/stack_6_block1_se_1_conv/BiasAdd"], "attr": {"T": {"type": "DT_FLOAT"}}}, {"name": "StatefulPartitionedCall/EfficientNetV1B3/activation_50/mul", "op": "Mul", "input": ["StatefulPartitionedCall/EfficientNetV1B3/stack_6_block1_se_1_conv/BiasAdd", "StatefulPartitionedCall/EfficientNetV1B3/activation_50/Sigmoid"], "attr": {"T": {"type": "DT_FLOAT"}}}, {"name": "StatefulPartitionedCall/EfficientNetV1B3/stack_6_block1_se_2_conv/BiasAdd", "op": "_FusedConv2D", "input": ["StatefulPartitionedCall/EfficientNetV1B3/activation_50/mul", "StatefulPartitionedCall/EfficientNetV1B3/stack_6_block1_se_2_conv/Conv2D/ReadVariableOp", "StatefulPartitionedCall/EfficientNetV1B3/stack_6_block1_se_2_conv/BiasAdd/ReadVariableOp"], "device": "/device:CPU:0", "attr": {"epsilon": {"f": 0.0}, "num_args": {"i": "1"}, "fused_ops": {"list": {"s": ["Qmlhc0FkZA=="]}}, "explicit_paddings": {"list": {}}, "T": {"type": "DT_FLOAT"}, "strides": {"list": {"i": ["1", "1", "1", "1"]}}, "use_cudnn_on_gpu": {"b": true}, "data_format": {"s": "TkhXQw=="}, "padding": {"s": "VkFMSUQ="}, "dilations": {"list": {"i": ["1", "1", "1", "1"]}}}}, {"name": "StatefulPartitionedCall/EfficientNetV1B3/activation_51/Sigmoid", "op": "Sigmoid", "input": ["StatefulPartitionedCall/EfficientNetV1B3/stack_6_block1_se_2_conv/BiasAdd"], "attr": {"T": {"type": "DT_FLOAT"}}}, {"name": "StatefulPartitionedCall/EfficientNetV1B3/multiply_25/mul", "op": "Mul", "input": ["StatefulPartitionedCall/EfficientNetV1B3/stack_6_block1_MB_dw_swish/mul", "StatefulPartitionedCall/EfficientNetV1B3/activation_51/Sigmoid"], "attr": {"T": {"type": "DT_FLOAT"}}}, {"name": "StatefulPartitionedCall/EfficientNetV1B3/stack_6_block1_MB_pw_bn/FusedBatchNormV3", "op": "_FusedConv2D", "input": ["StatefulPartitionedCall/EfficientNetV1B3/multiply_25/mul", "StatefulPartitionedCall/EfficientNetV1B3/stack_6_block1_MB_pw_conv/Conv2D_weights", "StatefulPartitionedCall/EfficientNetV1B3/stack_6_block1_MB_pw_conv/Conv2D_bn_offset"], "device": "/device:CPU:0", "attr": {"explicit_paddings": {"list": {}}, "strides": {"list": {"i": ["1", "1", "1", "1"]}}, "use_cudnn_on_gpu": {"b": true}, "fused_ops": {"list": {"s": ["Qmlhc0FkZA=="]}}, "data_format": {"s": "TkhXQw=="}, "T": {"type": "DT_FLOAT"}, "dilations": {"list": {"i": ["1", "1", "1", "1"]}}, "epsilon": {"f": 0.0}, "padding": {"s": "U0FNRQ=="}, "num_args": {"i": "1"}}}, {"name": "StatefulPartitionedCall/EfficientNetV1B3/add_18/add", "op": "AddV2", "input": ["StatefulPartitionedCall/EfficientNetV1B3/stack_6_block0_MB_pw_bn/FusedBatchNormV3", "StatefulPartitionedCall/EfficientNetV1B3/stack_6_block1_MB_pw_bn/FusedBatchNormV3"], "attr": {"T": {"type": "DT_FLOAT"}}}, {"name": "StatefulPartitionedCall/EfficientNetV1B3/post_bn/FusedBatchNormV3", "op": "_FusedConv2D", "input": ["StatefulPartitionedCall/EfficientNetV1B3/add_18/add", "StatefulPartitionedCall/EfficientNetV1B3/post_conv/Conv2D_weights", "StatefulPartitionedCall/EfficientNetV1B3/post_conv/Conv2D_bn_offset"], "device": "/device:CPU:0", "attr": {"explicit_paddings": {"list": {}}, "fused_ops": {"list": {"s": ["Qmlhc0FkZA=="]}}, "padding": {"s": "VkFMSUQ="}, "use_cudnn_on_gpu": {"b": true}, "T": {"type": "DT_FLOAT"}, "data_format": {"s": "TkhXQw=="}, "strides": {"list": {"i": ["1", "1", "1", "1"]}}, "num_args": {"i": "1"}, "epsilon": {"f": 0.0}, "dilations": {"list": {"i": ["1", "1", "1", "1"]}}}}, {"name": "StatefulPartitionedCall/EfficientNetV1B3/post_swish/Sigmoid", "op": "Sigmoid", "input": ["StatefulPartitionedCall/EfficientNetV1B3/post_bn/FusedBatchNormV3"], "attr": {"T": {"type": "DT_FLOAT"}}}, {"name": "StatefulPartitionedCall/EfficientNetV1B3/post_swish/mul", "op": "Mul", "input": ["StatefulPartitionedCall/EfficientNetV1B3/post_bn/FusedBatchNormV3", "StatefulPartitionedCall/EfficientNetV1B3/post_swish/Sigmoid"], "attr": {"T": {"type": "DT_FLOAT"}}}, {"name": "StatefulPartitionedCall/EfficientNetV1B3/avg_pool/Mean", "op": "Mean", "input": ["StatefulPartitionedCall/EfficientNetV1B3/post_swish/mul", "StatefulPartitionedCall/EfficientNetV1B3/avg_pool/Mean/reduction_indices"], "attr": {"Tidx": {"type": "DT_INT32"}, "T": {"type": "DT_FLOAT"}, "keep_dims": {"b": false}}}, {"name": "StatefulPartitionedCall/EfficientNetV1B3/predictions/BiasAdd", "op": "_FusedMatMul", "input": ["StatefulPartitionedCall/EfficientNetV1B3/avg_pool/Mean", "StatefulPartitionedCall/EfficientNetV1B3/predictions/MatMul/ReadVariableOp", "StatefulPartitionedCall/EfficientNetV1B3/predictions/BiasAdd/ReadVariableOp"], "device": "/device:CPU:0", "attr": {"T": {"type": "DT_FLOAT"}, "epsilon": {"f": 0.0}, "transpose_b": {"b": false}, "num_args": {"i": "1"}, "transpose_a": {"b": false}, "fused_ops": {"list": {"s": ["Qmlhc0FkZA=="]}}}}, {"name": "StatefulPartitionedCall/EfficientNetV1B3/predictions/Softmax", "op": "Softmax", "input": ["StatefulPartitionedCall/EfficientNetV1B3/predictions/BiasAdd"], "attr": {"T": {"type": "DT_FLOAT"}}}, {"name": "Identity", "op": "Identity", "input": ["StatefulPartitionedCall/EfficientNetV1B3/predictions/Softmax"], "attr": {"T": {"type": "DT_FLOAT"}}}], "library": {}, "versions": {"producer": 808}}, "weightsManifest": [{"paths": ["group1-shard1of11.bin", "group1-shard2of11.bin", "group1-shard3of11.bin", "group1-shard4of11.bin", "group1-shard5of11.bin", "group1-shard6of11.bin", "group1-shard7of11.bin", "group1-shard8of11.bin", "group1-shard9of11.bin", "group1-shard10of11.bin", "group1-shard11of11.bin"], "weights": [{"name": "StatefulPartitionedCall/EfficientNetV1B3/tf.math.reduce_mean/Mean/reduction_indices", "shape": [2], "dtype": "int32"}, {"name": "StatefulPartitionedCall/EfficientNetV1B3/stack_0_block0_se_1_conv/Conv2D/ReadVariableOp", "shape": [1, 1, 40, 10], "dtype": "float32"}, {"name": "StatefulPartitionedCall/EfficientNetV1B3/stack_0_block0_se_1_conv/BiasAdd/ReadVariableOp", "shape": [10], "dtype": "float32"}, {"name": "StatefulPartitionedCall/EfficientNetV1B3/stack_0_block0_se_2_conv/Conv2D/ReadVariableOp", "shape": [1, 1, 10, 40], "dtype": "float32"}, {"name": "StatefulPartitionedCall/EfficientNetV1B3/stack_0_block0_se_2_conv/BiasAdd/ReadVariableOp", "shape": [40], "dtype": "float32"}, {"name": "StatefulPartitionedCall/EfficientNetV1B3/tf.math.reduce_mean_1/Mean/reduction_indices", "shape": [2], "dtype": "int32"}, {"name": "StatefulPartitionedCall/EfficientNetV1B3/stack_0_block1_se_1_conv/Conv2D/ReadVariableOp", "shape": [1, 1, 24, 6], "dtype": "float32"}, {"name": "StatefulPartitionedCall/EfficientNetV1B3/stack_0_block1_se_1_conv/BiasAdd/ReadVariableOp", "shape": [6], "dtype": "float32"}, {"name": "StatefulPartitionedCall/EfficientNetV1B3/stack_0_block1_se_2_conv/Conv2D/ReadVariableOp", "shape": [1, 1, 6, 24], "dtype": "float32"}, {"name": "StatefulPartitionedCall/EfficientNetV1B3/stack_0_block1_se_2_conv/BiasAdd/ReadVariableOp", "shape": [24], "dtype": "float32"}, {"name": "StatefulPartitionedCall/EfficientNetV1B3/tf.math.reduce_mean_2/Mean/reduction_indices", "shape": [2], "dtype": "int32"}, {"name": "StatefulPartitionedCall/EfficientNetV1B3/stack_1_block0_se_1_conv/Conv2D/ReadVariableOp", "shape": [1, 1, 144, 6], "dtype": "float32"}, {"name": "StatefulPartitionedCall/EfficientNetV1B3/stack_1_block0_se_1_conv/BiasAdd/ReadVariableOp", "shape": [6], "dtype": "float32"}, {"name": "StatefulPartitionedCall/EfficientNetV1B3/stack_1_block0_se_2_conv/Conv2D/ReadVariableOp", "shape": [1, 1, 6, 144], "dtype": "float32"}, {"name": "StatefulPartitionedCall/EfficientNetV1B3/stack_1_block0_se_2_conv/BiasAdd/ReadVariableOp", "shape": [144], "dtype": "float32"}, {"name": "StatefulPartitionedCall/EfficientNetV1B3/tf.math.reduce_mean_3/Mean/reduction_indices", "shape": [2], "dtype": "int32"}, {"name": "StatefulPartitionedCall/EfficientNetV1B3/stack_1_block1_se_1_conv/Conv2D/ReadVariableOp", "shape": [1, 1, 192, 8], "dtype": "float32"}, {"name": "StatefulPartitionedCall/EfficientNetV1B3/stack_1_block1_se_1_conv/BiasAdd/ReadVariableOp", "shape": [8], "dtype": "float32"}, {"name": "StatefulPartitionedCall/EfficientNetV1B3/stack_1_block1_se_2_conv/Conv2D/ReadVariableOp", "shape": [1, 1, 8, 192], "dtype": "float32"}, {"name": "StatefulPartitionedCall/EfficientNetV1B3/stack_1_block1_se_2_conv/BiasAdd/ReadVariableOp", "shape": [192], "dtype": "float32"}, {"name": "StatefulPartitionedCall/EfficientNetV1B3/tf.math.reduce_mean_4/Mean/reduction_indices", "shape": [2], "dtype": "int32"}, {"name": "StatefulPartitionedCall/EfficientNetV1B3/stack_1_block2_se_1_conv/Conv2D/ReadVariableOp", "shape": [1, 1, 192, 8], "dtype": "float32"}, {"name": "StatefulPartitionedCall/EfficientNetV1B3/stack_1_block2_se_1_conv/BiasAdd/ReadVariableOp", "shape": [8], "dtype": "float32"}, {"name": "StatefulPartitionedCall/EfficientNetV1B3/stack_1_block2_se_2_conv/Conv2D/ReadVariableOp", "shape": [1, 1, 8, 192], "dtype": "float32"}, {"name": "StatefulPartitionedCall/EfficientNetV1B3/stack_1_block2_se_2_conv/BiasAdd/ReadVariableOp", "shape": [192], "dtype": "float32"}, {"name": "StatefulPartitionedCall/EfficientNetV1B3/tf.math.reduce_mean_5/Mean/reduction_indices", "shape": [2], "dtype": "int32"}, {"name": "StatefulPartitionedCall/EfficientNetV1B3/stack_2_block0_se_1_conv/Conv2D/ReadVariableOp", "shape": [1, 1, 192, 8], "dtype": "float32"}, {"name": "StatefulPartitionedCall/EfficientNetV1B3/stack_2_block0_se_1_conv/BiasAdd/ReadVariableOp", "shape": [8], "dtype": "float32"}, {"name": "StatefulPartitionedCall/EfficientNetV1B3/stack_2_block0_se_2_conv/Conv2D/ReadVariableOp", "shape": [1, 1, 8, 192], "dtype": "float32"}, {"name": "StatefulPartitionedCall/EfficientNetV1B3/stack_2_block0_se_2_conv/BiasAdd/ReadVariableOp", "shape": [192], "dtype": "float32"}, {"name": "StatefulPartitionedCall/EfficientNetV1B3/tf.math.reduce_mean_6/Mean/reduction_indices", "shape": [2], "dtype": "int32"}, {"name": "StatefulPartitionedCall/EfficientNetV1B3/stack_2_block1_se_1_conv/Conv2D/ReadVariableOp", "shape": [1, 1, 288, 12], "dtype": "float32"}, {"name": "StatefulPartitionedCall/EfficientNetV1B3/stack_2_block1_se_1_conv/BiasAdd/ReadVariableOp", "shape": [12], "dtype": "float32"}, {"name": "StatefulPartitionedCall/EfficientNetV1B3/stack_2_block1_se_2_conv/Conv2D/ReadVariableOp", "shape": [1, 1, 12, 288], "dtype": "float32"}, {"name": "StatefulPartitionedCall/EfficientNetV1B3/stack_2_block1_se_2_conv/BiasAdd/ReadVariableOp", "shape": [288], "dtype": "float32"}, {"name": "StatefulPartitionedCall/EfficientNetV1B3/tf.math.reduce_mean_7/Mean/reduction_indices", "shape": [2], "dtype": "int32"}, {"name": "StatefulPartitionedCall/EfficientNetV1B3/stack_2_block2_se_1_conv/Conv2D/ReadVariableOp", "shape": [1, 1, 288, 12], "dtype": "float32"}, {"name": "StatefulPartitionedCall/EfficientNetV1B3/stack_2_block2_se_1_conv/BiasAdd/ReadVariableOp", "shape": [12], "dtype": "float32"}, {"name": "StatefulPartitionedCall/EfficientNetV1B3/stack_2_block2_se_2_conv/Conv2D/ReadVariableOp", "shape": [1, 1, 12, 288], "dtype": "float32"}, {"name": "StatefulPartitionedCall/EfficientNetV1B3/stack_2_block2_se_2_conv/BiasAdd/ReadVariableOp", "shape": [288], "dtype": "float32"}, {"name": "StatefulPartitionedCall/EfficientNetV1B3/tf.math.reduce_mean_8/Mean/reduction_indices", "shape": [2], "dtype": "int32"}, {"name": "StatefulPartitionedCall/EfficientNetV1B3/stack_3_block0_se_1_conv/Conv2D/ReadVariableOp", "shape": [1, 1, 288, 12], "dtype": "float32"}, {"name": "StatefulPartitionedCall/EfficientNetV1B3/stack_3_block0_se_1_conv/BiasAdd/ReadVariableOp", "shape": [12], "dtype": "float32"}, {"name": "StatefulPartitionedCall/EfficientNetV1B3/stack_3_block0_se_2_conv/Conv2D/ReadVariableOp", "shape": [1, 1, 12, 288], "dtype": "float32"}, {"name": "StatefulPartitionedCall/EfficientNetV1B3/stack_3_block0_se_2_conv/BiasAdd/ReadVariableOp", "shape": [288], "dtype": "float32"}, {"name": "StatefulPartitionedCall/EfficientNetV1B3/tf.math.reduce_mean_9/Mean/reduction_indices", "shape": [2], "dtype": "int32"}, {"name": "StatefulPartitionedCall/EfficientNetV1B3/stack_3_block1_se_1_conv/Conv2D/ReadVariableOp", "shape": [1, 1, 576, 24], "dtype": "float32"}, {"name": "StatefulPartitionedCall/EfficientNetV1B3/stack_3_block1_se_1_conv/BiasAdd/ReadVariableOp", "shape": [24], "dtype": "float32"}, {"name": "StatefulPartitionedCall/EfficientNetV1B3/stack_3_block1_se_2_conv/Conv2D/ReadVariableOp", "shape": [1, 1, 24, 576], "dtype": "float32"}, {"name": "StatefulPartitionedCall/EfficientNetV1B3/stack_3_block1_se_2_conv/BiasAdd/ReadVariableOp", "shape": [576], "dtype": "float32"}, {"name": "StatefulPartitionedCall/EfficientNetV1B3/tf.math.reduce_mean_10/Mean/reduction_indices", "shape": [2], "dtype": "int32"}, {"name": "StatefulPartitionedCall/EfficientNetV1B3/stack_3_block2_se_1_conv/Conv2D/ReadVariableOp", "shape": [1, 1, 576, 24], "dtype": "float32"}, {"name": "StatefulPartitionedCall/EfficientNetV1B3/stack_3_block2_se_1_conv/BiasAdd/ReadVariableOp", "shape": [24], "dtype": "float32"}, {"name": "StatefulPartitionedCall/EfficientNetV1B3/stack_3_block2_se_2_conv/Conv2D/ReadVariableOp", "shape": [1, 1, 24, 576], "dtype": "float32"}, {"name": "StatefulPartitionedCall/EfficientNetV1B3/stack_3_block2_se_2_conv/BiasAdd/ReadVariableOp", "shape": [576], "dtype": "float32"}, {"name": "StatefulPartitionedCall/EfficientNetV1B3/tf.math.reduce_mean_11/Mean/reduction_indices", "shape": [2], "dtype": "int32"}, {"name": "StatefulPartitionedCall/EfficientNetV1B3/stack_3_block3_se_1_conv/Conv2D/ReadVariableOp", "shape": [1, 1, 576, 24], "dtype": "float32"}, {"name": "StatefulPartitionedCall/EfficientNetV1B3/stack_3_block3_se_1_conv/BiasAdd/ReadVariableOp", "shape": [24], "dtype": "float32"}, {"name": "StatefulPartitionedCall/EfficientNetV1B3/stack_3_block3_se_2_conv/Conv2D/ReadVariableOp", "shape": [1, 1, 24, 576], "dtype": "float32"}, {"name": "StatefulPartitionedCall/EfficientNetV1B3/stack_3_block3_se_2_conv/BiasAdd/ReadVariableOp", "shape": [576], "dtype": "float32"}, {"name": "StatefulPartitionedCall/EfficientNetV1B3/tf.math.reduce_mean_12/Mean/reduction_indices", "shape": [2], "dtype": "int32"}, {"name": "StatefulPartitionedCall/EfficientNetV1B3/stack_3_block4_se_1_conv/Conv2D/ReadVariableOp", "shape": [1, 1, 576, 24], "dtype": "float32"}, {"name": "StatefulPartitionedCall/EfficientNetV1B3/stack_3_block4_se_1_conv/BiasAdd/ReadVariableOp", "shape": [24], "dtype": "float32"}, {"name": "StatefulPartitionedCall/EfficientNetV1B3/stack_3_block4_se_2_conv/Conv2D/ReadVariableOp", "shape": [1, 1, 24, 576], "dtype": "float32"}, {"name": "StatefulPartitionedCall/EfficientNetV1B3/stack_3_block4_se_2_conv/BiasAdd/ReadVariableOp", "shape": [576], "dtype": "float32"}, {"name": "StatefulPartitionedCall/EfficientNetV1B3/tf.math.reduce_mean_13/Mean/reduction_indices", "shape": [2], "dtype": "int32"}, {"name": "StatefulPartitionedCall/EfficientNetV1B3/stack_4_block0_se_1_conv/Conv2D/ReadVariableOp", "shape": [1, 1, 576, 24], "dtype": "float32"}, {"name": "StatefulPartitionedCall/EfficientNetV1B3/stack_4_block0_se_1_conv/BiasAdd/ReadVariableOp", "shape": [24], "dtype": "float32"}, {"name": "StatefulPartitionedCall/EfficientNetV1B3/stack_4_block0_se_2_conv/Conv2D/ReadVariableOp", "shape": [1, 1, 24, 576], "dtype": "float32"}, {"name": "StatefulPartitionedCall/EfficientNetV1B3/stack_4_block0_se_2_conv/BiasAdd/ReadVariableOp", "shape": [576], "dtype": "float32"}, {"name": "StatefulPartitionedCall/EfficientNetV1B3/tf.math.reduce_mean_14/Mean/reduction_indices", "shape": [2], "dtype": "int32"}, {"name": "StatefulPartitionedCall/EfficientNetV1B3/stack_4_block1_se_1_conv/Conv2D/ReadVariableOp", "shape": [1, 1, 816, 34], "dtype": "float32"}, {"name": "StatefulPartitionedCall/EfficientNetV1B3/stack_4_block1_se_1_conv/BiasAdd/ReadVariableOp", "shape": [34], "dtype": "float32"}, {"name": "StatefulPartitionedCall/EfficientNetV1B3/stack_4_block1_se_2_conv/Conv2D/ReadVariableOp", "shape": [1, 1, 34, 816], "dtype": "float32"}, {"name": "StatefulPartitionedCall/EfficientNetV1B3/stack_4_block1_se_2_conv/BiasAdd/ReadVariableOp", "shape": [816], "dtype": "float32"}, {"name": "StatefulPartitionedCall/EfficientNetV1B3/tf.math.reduce_mean_15/Mean/reduction_indices", "shape": [2], "dtype": "int32"}, {"name": "StatefulPartitionedCall/EfficientNetV1B3/stack_4_block2_se_1_conv/Conv2D/ReadVariableOp", "shape": [1, 1, 816, 34], "dtype": "float32"}, {"name": "StatefulPartitionedCall/EfficientNetV1B3/stack_4_block2_se_1_conv/BiasAdd/ReadVariableOp", "shape": [34], "dtype": "float32"}, {"name": "StatefulPartitionedCall/EfficientNetV1B3/stack_4_block2_se_2_conv/Conv2D/ReadVariableOp", "shape": [1, 1, 34, 816], "dtype": "float32"}, {"name": "StatefulPartitionedCall/EfficientNetV1B3/stack_4_block2_se_2_conv/BiasAdd/ReadVariableOp", "shape": [816], "dtype": "float32"}, {"name": "StatefulPartitionedCall/EfficientNetV1B3/tf.math.reduce_mean_16/Mean/reduction_indices", "shape": [2], "dtype": "int32"}, {"name": "StatefulPartitionedCall/EfficientNetV1B3/stack_4_block3_se_1_conv/Conv2D/ReadVariableOp", "shape": [1, 1, 816, 34], "dtype": "float32"}, {"name": "StatefulPartitionedCall/EfficientNetV1B3/stack_4_block3_se_1_conv/BiasAdd/ReadVariableOp", "shape": [34], "dtype": "float32"}, {"name": "StatefulPartitionedCall/EfficientNetV1B3/stack_4_block3_se_2_conv/Conv2D/ReadVariableOp", "shape": [1, 1, 34, 816], "dtype": "float32"}, {"name": "StatefulPartitionedCall/EfficientNetV1B3/stack_4_block3_se_2_conv/BiasAdd/ReadVariableOp", "shape": [816], "dtype": "float32"}, {"name": "StatefulPartitionedCall/EfficientNetV1B3/tf.math.reduce_mean_17/Mean/reduction_indices", "shape": [2], "dtype": "int32"}, {"name": "StatefulPartitionedCall/EfficientNetV1B3/stack_4_block4_se_1_conv/Conv2D/ReadVariableOp", "shape": [1, 1, 816, 34], "dtype": "float32"}, {"name": "StatefulPartitionedCall/EfficientNetV1B3/stack_4_block4_se_1_conv/BiasAdd/ReadVariableOp", "shape": [34], "dtype": "float32"}, {"name": "StatefulPartitionedCall/EfficientNetV1B3/stack_4_block4_se_2_conv/Conv2D/ReadVariableOp", "shape": [1, 1, 34, 816], "dtype": "float32"}, {"name": "StatefulPartitionedCall/EfficientNetV1B3/stack_4_block4_se_2_conv/BiasAdd/ReadVariableOp", "shape": [816], "dtype": "float32"}, {"name": "StatefulPartitionedCall/EfficientNetV1B3/tf.math.reduce_mean_18/Mean/reduction_indices", "shape": [2], "dtype": "int32"}, {"name": "StatefulPartitionedCall/EfficientNetV1B3/stack_5_block0_se_1_conv/Conv2D/ReadVariableOp", "shape": [1, 1, 816, 34], "dtype": "float32"}, {"name": "StatefulPartitionedCall/EfficientNetV1B3/stack_5_block0_se_1_conv/BiasAdd/ReadVariableOp", "shape": [34], "dtype": "float32"}, {"name": "StatefulPartitionedCall/EfficientNetV1B3/stack_5_block0_se_2_conv/Conv2D/ReadVariableOp", "shape": [1, 1, 34, 816], "dtype": "float32"}, {"name": "StatefulPartitionedCall/EfficientNetV1B3/stack_5_block0_se_2_conv/BiasAdd/ReadVariableOp", "shape": [816], "dtype": "float32"}, {"name": "StatefulPartitionedCall/EfficientNetV1B3/tf.math.reduce_mean_19/Mean/reduction_indices", "shape": [2], "dtype": "int32"}, {"name": "StatefulPartitionedCall/EfficientNetV1B3/stack_5_block1_se_1_conv/Conv2D/ReadVariableOp", "shape": [1, 1, 1392, 58], "dtype": "float32"}, {"name": "StatefulPartitionedCall/EfficientNetV1B3/stack_5_block1_se_1_conv/BiasAdd/ReadVariableOp", "shape": [58], "dtype": "float32"}, {"name": "StatefulPartitionedCall/EfficientNetV1B3/stack_5_block1_se_2_conv/Conv2D/ReadVariableOp", "shape": [1, 1, 58, 1392], "dtype": "float32"}, {"name": "StatefulPartitionedCall/EfficientNetV1B3/stack_5_block1_se_2_conv/BiasAdd/ReadVariableOp", "shape": [1392], "dtype": "float32"}, {"name": "StatefulPartitionedCall/EfficientNetV1B3/tf.math.reduce_mean_20/Mean/reduction_indices", "shape": [2], "dtype": "int32"}, {"name": "StatefulPartitionedCall/EfficientNetV1B3/stack_5_block2_se_1_conv/Conv2D/ReadVariableOp", "shape": [1, 1, 1392, 58], "dtype": "float32"}, {"name": "StatefulPartitionedCall/EfficientNetV1B3/stack_5_block2_se_1_conv/BiasAdd/ReadVariableOp", "shape": [58], "dtype": "float32"}, {"name": "StatefulPartitionedCall/EfficientNetV1B3/stack_5_block2_se_2_conv/Conv2D/ReadVariableOp", "shape": [1, 1, 58, 1392], "dtype": "float32"}, {"name": "StatefulPartitionedCall/EfficientNetV1B3/stack_5_block2_se_2_conv/BiasAdd/ReadVariableOp", "shape": [1392], "dtype": "float32"}, {"name": "StatefulPartitionedCall/EfficientNetV1B3/tf.math.reduce_mean_21/Mean/reduction_indices", "shape": [2], "dtype": "int32"}, {"name": "StatefulPartitionedCall/EfficientNetV1B3/stack_5_block3_se_1_conv/Conv2D/ReadVariableOp", "shape": [1, 1, 1392, 58], "dtype": "float32"}, {"name": "StatefulPartitionedCall/EfficientNetV1B3/stack_5_block3_se_1_conv/BiasAdd/ReadVariableOp", "shape": [58], "dtype": "float32"}, {"name": "StatefulPartitionedCall/EfficientNetV1B3/stack_5_block3_se_2_conv/Conv2D/ReadVariableOp", "shape": [1, 1, 58, 1392], "dtype": "float32"}, {"name": "StatefulPartitionedCall/EfficientNetV1B3/stack_5_block3_se_2_conv/BiasAdd/ReadVariableOp", "shape": [1392], "dtype": "float32"}, {"name": "StatefulPartitionedCall/EfficientNetV1B3/tf.math.reduce_mean_22/Mean/reduction_indices", "shape": [2], "dtype": "int32"}, {"name": "StatefulPartitionedCall/EfficientNetV1B3/stack_5_block4_se_1_conv/Conv2D/ReadVariableOp", "shape": [1, 1, 1392, 58], "dtype": "float32"}, {"name": "StatefulPartitionedCall/EfficientNetV1B3/stack_5_block4_se_1_conv/BiasAdd/ReadVariableOp", "shape": [58], "dtype": "float32"}, {"name": "StatefulPartitionedCall/EfficientNetV1B3/stack_5_block4_se_2_conv/Conv2D/ReadVariableOp", "shape": [1, 1, 58, 1392], "dtype": "float32"}, {"name": "StatefulPartitionedCall/EfficientNetV1B3/stack_5_block4_se_2_conv/BiasAdd/ReadVariableOp", "shape": [1392], "dtype": "float32"}, {"name": "StatefulPartitionedCall/EfficientNetV1B3/tf.math.reduce_mean_23/Mean/reduction_indices", "shape": [2], "dtype": "int32"}, {"name": "StatefulPartitionedCall/EfficientNetV1B3/stack_5_block5_se_1_conv/Conv2D/ReadVariableOp", "shape": [1, 1, 1392, 58], "dtype": "float32"}, {"name": "StatefulPartitionedCall/EfficientNetV1B3/stack_5_block5_se_1_conv/BiasAdd/ReadVariableOp", "shape": [58], "dtype": "float32"}, {"name": "StatefulPartitionedCall/EfficientNetV1B3/stack_5_block5_se_2_conv/Conv2D/ReadVariableOp", "shape": [1, 1, 58, 1392], "dtype": "float32"}, {"name": "StatefulPartitionedCall/EfficientNetV1B3/stack_5_block5_se_2_conv/BiasAdd/ReadVariableOp", "shape": [1392], "dtype": "float32"}, {"name": "StatefulPartitionedCall/EfficientNetV1B3/tf.math.reduce_mean_24/Mean/reduction_indices", "shape": [2], "dtype": "int32"}, {"name": "StatefulPartitionedCall/EfficientNetV1B3/stack_6_block0_se_1_conv/Conv2D/ReadVariableOp", "shape": [1, 1, 1392, 58], "dtype": "float32"}, {"name": "StatefulPartitionedCall/EfficientNetV1B3/stack_6_block0_se_1_conv/BiasAdd/ReadVariableOp", "shape": [58], "dtype": "float32"}, {"name": "StatefulPartitionedCall/EfficientNetV1B3/stack_6_block0_se_2_conv/Conv2D/ReadVariableOp", "shape": [1, 1, 58, 1392], "dtype": "float32"}, {"name": "StatefulPartitionedCall/EfficientNetV1B3/stack_6_block0_se_2_conv/BiasAdd/ReadVariableOp", "shape": [1392], "dtype": "float32"}, {"name": "StatefulPartitionedCall/EfficientNetV1B3/tf.math.reduce_mean_25/Mean/reduction_indices", "shape": [2], "dtype": "int32"}, {"name": "StatefulPartitionedCall/EfficientNetV1B3/stack_6_block1_se_1_conv/Conv2D/ReadVariableOp", "shape": [1, 1, 2304, 96], "dtype": "float32"}, {"name": "StatefulPartitionedCall/EfficientNetV1B3/stack_6_block1_se_1_conv/BiasAdd/ReadVariableOp", "shape": [96], "dtype": "float32"}, {"name": "StatefulPartitionedCall/EfficientNetV1B3/stack_6_block1_se_2_conv/Conv2D/ReadVariableOp", "shape": [1, 1, 96, 2304], "dtype": "float32"}, {"name": "StatefulPartitionedCall/EfficientNetV1B3/stack_6_block1_se_2_conv/BiasAdd/ReadVariableOp", "shape": [2304], "dtype": "float32"}, {"name": "StatefulPartitionedCall/EfficientNetV1B3/avg_pool/Mean/reduction_indices", "shape": [2], "dtype": "int32"}, {"name": "StatefulPartitionedCall/EfficientNetV1B3/predictions/MatMul/ReadVariableOp", "shape": [1536, 76], "dtype": "float32"}, {"name": "StatefulPartitionedCall/EfficientNetV1B3/predictions/BiasAdd/ReadVariableOp", "shape": [76], "dtype": "float32"}, {"name": "StatefulPartitionedCall/EfficientNetV1B3/stem_conv/Conv2D_weights", "shape": [3, 3, 3, 40], "dtype": "float32"}, {"name": "StatefulPartitionedCall/EfficientNetV1B3/stem_conv/Conv2D_bn_offset", "shape": [40], "dtype": "float32"}, {"name": "StatefulPartitionedCall/EfficientNetV1B3/stack_0_block0_MB_dw_/depthwise_weights", "shape": [3, 3, 40, 1], "dtype": "float32"}, {"name": "StatefulPartitionedCall/EfficientNetV1B3/stack_0_block0_MB_dw_/depthwise_bn_offset", "shape": [40], "dtype": "float32"}, {"name": "StatefulPartitionedCall/EfficientNetV1B3/stack_0_block0_MB_pw_conv/Conv2D_weights", "shape": [1, 1, 40, 24], "dtype": "float32"}, {"name": "StatefulPartitionedCall/EfficientNetV1B3/stack_0_block0_MB_pw_conv/Conv2D_bn_offset", "shape": [24], "dtype": "float32"}, {"name": "StatefulPartitionedCall/EfficientNetV1B3/stack_0_block1_MB_dw_/depthwise_weights", "shape": [3, 3, 24, 1], "dtype": "float32"}, {"name": "StatefulPartitionedCall/EfficientNetV1B3/stack_0_block1_MB_dw_/depthwise_bn_offset", "shape": [24], "dtype": "float32"}, {"name": "StatefulPartitionedCall/EfficientNetV1B3/stack_0_block1_MB_pw_conv/Conv2D_weights", "shape": [1, 1, 24, 24], "dtype": "float32"}, {"name": "StatefulPartitionedCall/EfficientNetV1B3/stack_0_block1_MB_pw_conv/Conv2D_bn_offset", "shape": [24], "dtype": "float32"}, {"name": "StatefulPartitionedCall/EfficientNetV1B3/stack_1_block0_sortcut_conv/Conv2D_weights", "shape": [1, 1, 24, 144], "dtype": "float32"}, {"name": "StatefulPartitionedCall/EfficientNetV1B3/stack_1_block0_sortcut_conv/Conv2D_bn_offset", "shape": [144], "dtype": "float32"}, {"name": "StatefulPartitionedCall/EfficientNetV1B3/stack_1_block0_MB_dw_/depthwise_weights", "shape": [3, 3, 144, 1], "dtype": "float32"}, {"name": "StatefulPartitionedCall/EfficientNetV1B3/stack_1_block0_MB_dw_/depthwise_bn_offset", "shape": [144], "dtype": "float32"}, {"name": "StatefulPartitionedCall/EfficientNetV1B3/stack_6_block1_MB_pw_conv/Conv2D_weights", "shape": [1, 1, 2304, 384], "dtype": "float32"}, {"name": "StatefulPartitionedCall/EfficientNetV1B3/stack_1_block0_MB_pw_conv/Conv2D_weights", "shape": [1, 1, 144, 32], "dtype": "float32"}, {"name": "StatefulPartitionedCall/EfficientNetV1B3/stack_1_block0_MB_pw_conv/Conv2D_bn_offset", "shape": [32], "dtype": "float32"}, {"name": "StatefulPartitionedCall/EfficientNetV1B3/stack_1_block1_sortcut_conv/Conv2D_weights", "shape": [1, 1, 32, 192], "dtype": "float32"}, {"name": "StatefulPartitionedCall/EfficientNetV1B3/stack_1_block1_sortcut_conv/Conv2D_bn_offset", "shape": [192], "dtype": "float32"}, {"name": "StatefulPartitionedCall/EfficientNetV1B3/stack_1_block1_MB_dw_/depthwise_weights", "shape": [3, 3, 192, 1], "dtype": "float32"}, {"name": "StatefulPartitionedCall/EfficientNetV1B3/stack_1_block1_MB_dw_/depthwise_bn_offset", "shape": [192], "dtype": "float32"}, {"name": "StatefulPartitionedCall/EfficientNetV1B3/stack_5_block4_MB_pw_conv/Conv2D_weights", "shape": [1, 1, 1392, 232], "dtype": "float32"}, {"name": "StatefulPartitionedCall/EfficientNetV1B3/stack_1_block1_MB_pw_conv/Conv2D_weights", "shape": [1, 1, 192, 32], "dtype": "float32"}, {"name": "StatefulPartitionedCall/EfficientNetV1B3/stack_5_block4_MB_pw_conv/Conv2D_bn_offset", "shape": [232], "dtype": "float32"}, {"name": "StatefulPartitionedCall/EfficientNetV1B3/stack_1_block1_MB_pw_conv/Conv2D_bn_offset", "shape": [32], "dtype": "float32"}, {"name": "StatefulPartitionedCall/EfficientNetV1B3/stack_1_block2_sortcut_conv/Conv2D_weights", "shape": [1, 1, 32, 192], "dtype": "float32"}, {"name": "StatefulPartitionedCall/EfficientNetV1B3/stack_1_block2_sortcut_conv/Conv2D_bn_offset", "shape": [192], "dtype": "float32"}, {"name": "StatefulPartitionedCall/EfficientNetV1B3/stack_1_block2_MB_dw_/depthwise_weights", "shape": [3, 3, 192, 1], "dtype": "float32"}, {"name": "StatefulPartitionedCall/EfficientNetV1B3/stack_1_block2_MB_dw_/depthwise_bn_offset", "shape": [192], "dtype": "float32"}, {"name": "StatefulPartitionedCall/EfficientNetV1B3/stack_5_block5_sortcut_conv/Conv2D_weights", "shape": [1, 1, 232, 1392], "dtype": "float32"}, {"name": "StatefulPartitionedCall/EfficientNetV1B3/stack_1_block2_MB_pw_conv/Conv2D_weights", "shape": [1, 1, 192, 32], "dtype": "float32"}, {"name": "StatefulPartitionedCall/EfficientNetV1B3/stack_6_block1_MB_pw_conv/Conv2D_bn_offset", "shape": [384], "dtype": "float32"}, {"name": "StatefulPartitionedCall/EfficientNetV1B3/stack_1_block2_MB_pw_conv/Conv2D_bn_offset", "shape": [32], "dtype": "float32"}, {"name": "StatefulPartitionedCall/EfficientNetV1B3/stack_2_block0_sortcut_conv/Conv2D_weights", "shape": [1, 1, 32, 192], "dtype": "float32"}, {"name": "StatefulPartitionedCall/EfficientNetV1B3/stack_5_block5_sortcut_conv/Conv2D_bn_offset", "shape": [1392], "dtype": "float32"}, {"name": "StatefulPartitionedCall/EfficientNetV1B3/stack_2_block0_sortcut_conv/Conv2D_bn_offset", "shape": [192], "dtype": "float32"}, {"name": "StatefulPartitionedCall/EfficientNetV1B3/stack_2_block0_MB_dw_/depthwise_weights", "shape": [5, 5, 192, 1], "dtype": "float32"}, {"name": "StatefulPartitionedCall/EfficientNetV1B3/stack_2_block0_MB_dw_/depthwise_bn_offset", "shape": [192], "dtype": "float32"}, {"name": "StatefulPartitionedCall/EfficientNetV1B3/stack_2_block0_MB_pw_conv/Conv2D_weights", "shape": [1, 1, 192, 48], "dtype": "float32"}, {"name": "StatefulPartitionedCall/EfficientNetV1B3/stack_2_block0_MB_pw_conv/Conv2D_bn_offset", "shape": [48], "dtype": "float32"}, {"name": "StatefulPartitionedCall/EfficientNetV1B3/stack_2_block1_sortcut_conv/Conv2D_weights", "shape": [1, 1, 48, 288], "dtype": "float32"}, {"name": "StatefulPartitionedCall/EfficientNetV1B3/stack_5_block5_MB_dw_/depthwise_weights", "shape": [5, 5, 1392, 1], "dtype": "float32"}, {"name": "StatefulPartitionedCall/EfficientNetV1B3/stack_2_block1_sortcut_conv/Conv2D_bn_offset", "shape": [288], "dtype": "float32"}, {"name": "StatefulPartitionedCall/EfficientNetV1B3/stack_2_block1_MB_dw_/depthwise_weights", "shape": [5, 5, 288, 1], "dtype": "float32"}, {"name": "StatefulPartitionedCall/EfficientNetV1B3/stack_2_block1_MB_dw_/depthwise_bn_offset", "shape": [288], "dtype": "float32"}, {"name": "StatefulPartitionedCall/EfficientNetV1B3/stack_5_block5_MB_dw_/depthwise_bn_offset", "shape": [1392], "dtype": "float32"}, {"name": "StatefulPartitionedCall/EfficientNetV1B3/stack_2_block1_MB_pw_conv/Conv2D_weights", "shape": [1, 1, 288, 48], "dtype": "float32"}, {"name": "StatefulPartitionedCall/EfficientNetV1B3/stack_2_block1_MB_pw_conv/Conv2D_bn_offset", "shape": [48], "dtype": "float32"}, {"name": "StatefulPartitionedCall/EfficientNetV1B3/stack_2_block2_sortcut_conv/Conv2D_weights", "shape": [1, 1, 48, 288], "dtype": "float32"}, {"name": "StatefulPartitionedCall/EfficientNetV1B3/stack_2_block2_sortcut_conv/Conv2D_bn_offset", "shape": [288], "dtype": "float32"}, {"name": "StatefulPartitionedCall/EfficientNetV1B3/stack_2_block2_MB_dw_/depthwise_weights", "shape": [5, 5, 288, 1], "dtype": "float32"}, {"name": "StatefulPartitionedCall/EfficientNetV1B3/stack_2_block2_MB_dw_/depthwise_bn_offset", "shape": [288], "dtype": "float32"}, {"name": "StatefulPartitionedCall/EfficientNetV1B3/stack_2_block2_MB_pw_conv/Conv2D_weights", "shape": [1, 1, 288, 48], "dtype": "float32"}, {"name": "StatefulPartitionedCall/EfficientNetV1B3/stack_2_block2_MB_pw_conv/Conv2D_bn_offset", "shape": [48], "dtype": "float32"}, {"name": "StatefulPartitionedCall/EfficientNetV1B3/stack_3_block0_sortcut_conv/Conv2D_weights", "shape": [1, 1, 48, 288], "dtype": "float32"}, {"name": "StatefulPartitionedCall/EfficientNetV1B3/stack_3_block0_sortcut_conv/Conv2D_bn_offset", "shape": [288], "dtype": "float32"}, {"name": "StatefulPartitionedCall/EfficientNetV1B3/stack_3_block0_MB_dw_/depthwise_weights", "shape": [3, 3, 288, 1], "dtype": "float32"}, {"name": "StatefulPartitionedCall/EfficientNetV1B3/stack_3_block0_MB_dw_/depthwise_bn_offset", "shape": [288], "dtype": "float32"}, {"name": "StatefulPartitionedCall/EfficientNetV1B3/stack_3_block0_MB_pw_conv/Conv2D_weights", "shape": [1, 1, 288, 96], "dtype": "float32"}, {"name": "StatefulPartitionedCall/EfficientNetV1B3/stack_3_block0_MB_pw_conv/Conv2D_bn_offset", "shape": [96], "dtype": "float32"}, {"name": "StatefulPartitionedCall/EfficientNetV1B3/stack_3_block1_sortcut_conv/Conv2D_weights", "shape": [1, 1, 96, 576], "dtype": "float32"}, {"name": "StatefulPartitionedCall/EfficientNetV1B3/stack_3_block1_sortcut_conv/Conv2D_bn_offset", "shape": [576], "dtype": "float32"}, {"name": "StatefulPartitionedCall/EfficientNetV1B3/stack_3_block1_MB_dw_/depthwise_weights", "shape": [3, 3, 576, 1], "dtype": "float32"}, {"name": "StatefulPartitionedCall/EfficientNetV1B3/stack_3_block1_MB_dw_/depthwise_bn_offset", "shape": [576], "dtype": "float32"}, {"name": "StatefulPartitionedCall/EfficientNetV1B3/stack_3_block1_MB_pw_conv/Conv2D_weights", "shape": [1, 1, 576, 96], "dtype": "float32"}, {"name": "StatefulPartitionedCall/EfficientNetV1B3/stack_5_block5_MB_pw_conv/Conv2D_weights", "shape": [1, 1, 1392, 232], "dtype": "float32"}, {"name": "StatefulPartitionedCall/EfficientNetV1B3/stack_3_block1_MB_pw_conv/Conv2D_bn_offset", "shape": [96], "dtype": "float32"}, {"name": "StatefulPartitionedCall/EfficientNetV1B3/stack_3_block2_sortcut_conv/Conv2D_weights", "shape": [1, 1, 96, 576], "dtype": "float32"}, {"name": "StatefulPartitionedCall/EfficientNetV1B3/post_conv/Conv2D_weights", "shape": [1, 1, 384, 1536], "dtype": "float32"}, {"name": "StatefulPartitionedCall/EfficientNetV1B3/stack_3_block2_sortcut_conv/Conv2D_bn_offset", "shape": [576], "dtype": "float32"}, {"name": "StatefulPartitionedCall/EfficientNetV1B3/stack_3_block2_MB_dw_/depthwise_weights", "shape": [3, 3, 576, 1], "dtype": "float32"}, {"name": "StatefulPartitionedCall/EfficientNetV1B3/stack_3_block2_MB_dw_/depthwise_bn_offset", "shape": [576], "dtype": "float32"}, {"name": "StatefulPartitionedCall/EfficientNetV1B3/stack_5_block5_MB_pw_conv/Conv2D_bn_offset", "shape": [232], "dtype": "float32"}, {"name": "StatefulPartitionedCall/EfficientNetV1B3/stack_3_block2_MB_pw_conv/Conv2D_weights", "shape": [1, 1, 576, 96], "dtype": "float32"}, {"name": "StatefulPartitionedCall/EfficientNetV1B3/stack_3_block2_MB_pw_conv/Conv2D_bn_offset", "shape": [96], "dtype": "float32"}, {"name": "StatefulPartitionedCall/EfficientNetV1B3/stack_3_block3_sortcut_conv/Conv2D_weights", "shape": [1, 1, 96, 576], "dtype": "float32"}, {"name": "StatefulPartitionedCall/EfficientNetV1B3/stack_6_block0_sortcut_conv/Conv2D_weights", "shape": [1, 1, 232, 1392], "dtype": "float32"}, {"name": "StatefulPartitionedCall/EfficientNetV1B3/stack_3_block3_sortcut_conv/Conv2D_bn_offset", "shape": [576], "dtype": "float32"}, {"name": "StatefulPartitionedCall/EfficientNetV1B3/stack_3_block3_MB_dw_/depthwise_weights", "shape": [3, 3, 576, 1], "dtype": "float32"}, {"name": "StatefulPartitionedCall/EfficientNetV1B3/stack_3_block3_MB_dw_/depthwise_bn_offset", "shape": [576], "dtype": "float32"}, {"name": "StatefulPartitionedCall/EfficientNetV1B3/stack_6_block0_sortcut_conv/Conv2D_bn_offset", "shape": [1392], "dtype": "float32"}, {"name": "StatefulPartitionedCall/EfficientNetV1B3/stack_3_block3_MB_pw_conv/Conv2D_weights", "shape": [1, 1, 576, 96], "dtype": "float32"}, {"name": "StatefulPartitionedCall/EfficientNetV1B3/stack_3_block3_MB_pw_conv/Conv2D_bn_offset", "shape": [96], "dtype": "float32"}, {"name": "StatefulPartitionedCall/EfficientNetV1B3/stack_3_block4_sortcut_conv/Conv2D_weights", "shape": [1, 1, 96, 576], "dtype": "float32"}, {"name": "StatefulPartitionedCall/EfficientNetV1B3/stack_3_block4_sortcut_conv/Conv2D_bn_offset", "shape": [576], "dtype": "float32"}, {"name": "StatefulPartitionedCall/EfficientNetV1B3/stack_3_block4_MB_dw_/depthwise_weights", "shape": [3, 3, 576, 1], "dtype": "float32"}, {"name": "StatefulPartitionedCall/EfficientNetV1B3/stack_3_block4_MB_dw_/depthwise_bn_offset", "shape": [576], "dtype": "float32"}, {"name": "StatefulPartitionedCall/EfficientNetV1B3/stack_6_block0_MB_dw_/depthwise_weights", "shape": [3, 3, 1392, 1], "dtype": "float32"}, {"name": "StatefulPartitionedCall/EfficientNetV1B3/stack_3_block4_MB_pw_conv/Conv2D_weights", "shape": [1, 1, 576, 96], "dtype": "float32"}, {"name": "StatefulPartitionedCall/EfficientNetV1B3/stack_3_block4_MB_pw_conv/Conv2D_bn_offset", "shape": [96], "dtype": "float32"}, {"name": "StatefulPartitionedCall/EfficientNetV1B3/stack_4_block0_sortcut_conv/Conv2D_weights", "shape": [1, 1, 96, 576], "dtype": "float32"}, {"name": "StatefulPartitionedCall/EfficientNetV1B3/stack_6_block0_MB_dw_/depthwise_bn_offset", "shape": [1392], "dtype": "float32"}, {"name": "StatefulPartitionedCall/EfficientNetV1B3/stack_4_block0_sortcut_conv/Conv2D_bn_offset", "shape": [576], "dtype": "float32"}, {"name": "StatefulPartitionedCall/EfficientNetV1B3/stack_4_block0_MB_dw_/depthwise_weights", "shape": [5, 5, 576, 1], "dtype": "float32"}, {"name": "StatefulPartitionedCall/EfficientNetV1B3/stack_4_block0_MB_dw_/depthwise_bn_offset", "shape": [576], "dtype": "float32"}, {"name": "StatefulPartitionedCall/EfficientNetV1B3/stack_4_block0_MB_pw_conv/Conv2D_weights", "shape": [1, 1, 576, 136], "dtype": "float32"}, {"name": "StatefulPartitionedCall/EfficientNetV1B3/stack_4_block0_MB_pw_conv/Conv2D_bn_offset", "shape": [136], "dtype": "float32"}, {"name": "StatefulPartitionedCall/EfficientNetV1B3/stack_4_block1_sortcut_conv/Conv2D_weights", "shape": [1, 1, 136, 816], "dtype": "float32"}, {"name": "StatefulPartitionedCall/EfficientNetV1B3/stack_4_block1_sortcut_conv/Conv2D_bn_offset", "shape": [816], "dtype": "float32"}, {"name": "StatefulPartitionedCall/EfficientNetV1B3/stack_4_block1_MB_dw_/depthwise_weights", "shape": [5, 5, 816, 1], "dtype": "float32"}, {"name": "StatefulPartitionedCall/EfficientNetV1B3/stack_4_block1_MB_dw_/depthwise_bn_offset", "shape": [816], "dtype": "float32"}, {"name": "StatefulPartitionedCall/EfficientNetV1B3/post_conv/Conv2D_bn_offset", "shape": [1536], "dtype": "float32"}, {"name": "StatefulPartitionedCall/EfficientNetV1B3/stack_4_block1_MB_pw_conv/Conv2D_weights", "shape": [1, 1, 816, 136], "dtype": "float32"}, {"name": "StatefulPartitionedCall/EfficientNetV1B3/stack_4_block1_MB_pw_conv/Conv2D_bn_offset", "shape": [136], "dtype": "float32"}, {"name": "StatefulPartitionedCall/EfficientNetV1B3/stack_4_block2_sortcut_conv/Conv2D_weights", "shape": [1, 1, 136, 816], "dtype": "float32"}, {"name": "StatefulPartitionedCall/EfficientNetV1B3/stack_4_block2_sortcut_conv/Conv2D_bn_offset", "shape": [816], "dtype": "float32"}, {"name": "StatefulPartitionedCall/EfficientNetV1B3/stack_4_block2_MB_dw_/depthwise_weights", "shape": [5, 5, 816, 1], "dtype": "float32"}, {"name": "StatefulPartitionedCall/EfficientNetV1B3/stack_4_block2_MB_dw_/depthwise_bn_offset", "shape": [816], "dtype": "float32"}, {"name": "StatefulPartitionedCall/EfficientNetV1B3/stack_4_block2_MB_pw_conv/Conv2D_weights", "shape": [1, 1, 816, 136], "dtype": "float32"}, {"name": "StatefulPartitionedCall/EfficientNetV1B3/stack_4_block2_MB_pw_conv/Conv2D_bn_offset", "shape": [136], "dtype": "float32"}, {"name": "StatefulPartitionedCall/EfficientNetV1B3/stack_4_block3_sortcut_conv/Conv2D_weights", "shape": [1, 1, 136, 816], "dtype": "float32"}, {"name": "StatefulPartitionedCall/EfficientNetV1B3/stack_4_block3_sortcut_conv/Conv2D_bn_offset", "shape": [816], "dtype": "float32"}, {"name": "StatefulPartitionedCall/EfficientNetV1B3/stack_4_block3_MB_dw_/depthwise_weights", "shape": [5, 5, 816, 1], "dtype": "float32"}, {"name": "StatefulPartitionedCall/EfficientNetV1B3/stack_4_block3_MB_dw_/depthwise_bn_offset", "shape": [816], "dtype": "float32"}, {"name": "StatefulPartitionedCall/EfficientNetV1B3/stack_6_block0_MB_pw_conv/Conv2D_weights", "shape": [1, 1, 1392, 384], "dtype": "float32"}, {"name": "StatefulPartitionedCall/EfficientNetV1B3/stack_4_block3_MB_pw_conv/Conv2D_weights", "shape": [1, 1, 816, 136], "dtype": "float32"}, {"name": "StatefulPartitionedCall/EfficientNetV1B3/stack_6_block0_MB_pw_conv/Conv2D_bn_offset", "shape": [384], "dtype": "float32"}, {"name": "StatefulPartitionedCall/EfficientNetV1B3/stack_4_block3_MB_pw_conv/Conv2D_bn_offset", "shape": [136], "dtype": "float32"}, {"name": "StatefulPartitionedCall/EfficientNetV1B3/stack_4_block4_sortcut_conv/Conv2D_weights", "shape": [1, 1, 136, 816], "dtype": "float32"}, {"name": "StatefulPartitionedCall/EfficientNetV1B3/stack_4_block4_sortcut_conv/Conv2D_bn_offset", "shape": [816], "dtype": "float32"}, {"name": "StatefulPartitionedCall/EfficientNetV1B3/stack_4_block4_MB_dw_/depthwise_weights", "shape": [5, 5, 816, 1], "dtype": "float32"}, {"name": "StatefulPartitionedCall/EfficientNetV1B3/stack_4_block4_MB_dw_/depthwise_bn_offset", "shape": [816], "dtype": "float32"}, {"name": "StatefulPartitionedCall/EfficientNetV1B3/stack_6_block1_sortcut_conv/Conv2D_weights", "shape": [1, 1, 384, 2304], "dtype": "float32"}, {"name": "StatefulPartitionedCall/EfficientNetV1B3/stack_4_block4_MB_pw_conv/Conv2D_weights", "shape": [1, 1, 816, 136], "dtype": "float32"}, {"name": "StatefulPartitionedCall/EfficientNetV1B3/stack_6_block1_sortcut_conv/Conv2D_bn_offset", "shape": [2304], "dtype": "float32"}, {"name": "StatefulPartitionedCall/EfficientNetV1B3/stack_4_block4_MB_pw_conv/Conv2D_bn_offset", "shape": [136], "dtype": "float32"}, {"name": "StatefulPartitionedCall/EfficientNetV1B3/stack_5_block0_sortcut_conv/Conv2D_weights", "shape": [1, 1, 136, 816], "dtype": "float32"}, {"name": "StatefulPartitionedCall/EfficientNetV1B3/stack_5_block0_sortcut_conv/Conv2D_bn_offset", "shape": [816], "dtype": "float32"}, {"name": "StatefulPartitionedCall/EfficientNetV1B3/stack_5_block0_MB_dw_/depthwise_weights", "shape": [5, 5, 816, 1], "dtype": "float32"}, {"name": "StatefulPartitionedCall/EfficientNetV1B3/stack_5_block0_MB_dw_/depthwise_bn_offset", "shape": [816], "dtype": "float32"}, {"name": "StatefulPartitionedCall/EfficientNetV1B3/stack_5_block0_MB_pw_conv/Conv2D_weights", "shape": [1, 1, 816, 232], "dtype": "float32"}, {"name": "StatefulPartitionedCall/EfficientNetV1B3/stack_6_block1_MB_dw_/depthwise_weights", "shape": [3, 3, 2304, 1], "dtype": "float32"}, {"name": "StatefulPartitionedCall/EfficientNetV1B3/stack_5_block0_MB_pw_conv/Conv2D_bn_offset", "shape": [232], "dtype": "float32"}, {"name": "StatefulPartitionedCall/EfficientNetV1B3/stack_5_block1_sortcut_conv/Conv2D_weights", "shape": [1, 1, 232, 1392], "dtype": "float32"}, {"name": "StatefulPartitionedCall/EfficientNetV1B3/stack_5_block1_sortcut_conv/Conv2D_bn_offset", "shape": [1392], "dtype": "float32"}, {"name": "StatefulPartitionedCall/EfficientNetV1B3/stack_5_block1_MB_dw_/depthwise_weights", "shape": [5, 5, 1392, 1], "dtype": "float32"}, {"name": "StatefulPartitionedCall/EfficientNetV1B3/stack_5_block1_MB_dw_/depthwise_bn_offset", "shape": [1392], "dtype": "float32"}, {"name": "StatefulPartitionedCall/EfficientNetV1B3/stack_6_block1_MB_dw_/depthwise_bn_offset", "shape": [2304], "dtype": "float32"}, {"name": "StatefulPartitionedCall/EfficientNetV1B3/stack_5_block1_MB_pw_conv/Conv2D_weights", "shape": [1, 1, 1392, 232], "dtype": "float32"}, {"name": "StatefulPartitionedCall/EfficientNetV1B3/stack_5_block1_MB_pw_conv/Conv2D_bn_offset", "shape": [232], "dtype": "float32"}, {"name": "StatefulPartitionedCall/EfficientNetV1B3/stack_5_block2_sortcut_conv/Conv2D_weights", "shape": [1, 1, 232, 1392], "dtype": "float32"}, {"name": "StatefulPartitionedCall/EfficientNetV1B3/stack_5_block2_sortcut_conv/Conv2D_bn_offset", "shape": [1392], "dtype": "float32"}, {"name": "StatefulPartitionedCall/EfficientNetV1B3/stack_5_block2_MB_dw_/depthwise_weights", "shape": [5, 5, 1392, 1], "dtype": "float32"}, {"name": "StatefulPartitionedCall/EfficientNetV1B3/stack_5_block2_MB_dw_/depthwise_bn_offset", "shape": [1392], "dtype": "float32"}, {"name": "StatefulPartitionedCall/EfficientNetV1B3/stack_5_block2_MB_pw_conv/Conv2D_weights", "shape": [1, 1, 1392, 232], "dtype": "float32"}, {"name": "StatefulPartitionedCall/EfficientNetV1B3/stack_5_block2_MB_pw_conv/Conv2D_bn_offset", "shape": [232], "dtype": "float32"}, {"name": "StatefulPartitionedCall/EfficientNetV1B3/stack_5_block3_sortcut_conv/Conv2D_weights", "shape": [1, 1, 232, 1392], "dtype": "float32"}, {"name": "StatefulPartitionedCall/EfficientNetV1B3/stack_5_block3_sortcut_conv/Conv2D_bn_offset", "shape": [1392], "dtype": "float32"}, {"name": "StatefulPartitionedCall/EfficientNetV1B3/stack_5_block3_MB_dw_/depthwise_weights", "shape": [5, 5, 1392, 1], "dtype": "float32"}, {"name": "StatefulPartitionedCall/EfficientNetV1B3/stack_5_block3_MB_dw_/depthwise_bn_offset", "shape": [1392], "dtype": "float32"}, {"name": "StatefulPartitionedCall/EfficientNetV1B3/stack_5_block3_MB_pw_conv/Conv2D_weights", "shape": [1, 1, 1392, 232], "dtype": "float32"}, {"name": "StatefulPartitionedCall/EfficientNetV1B3/stack_5_block3_MB_pw_conv/Conv2D_bn_offset", "shape": [232], "dtype": "float32"}, {"name": "StatefulPartitionedCall/EfficientNetV1B3/stack_5_block4_sortcut_conv/Conv2D_weights", "shape": [1, 1, 232, 1392], "dtype": "float32"}, {"name": "StatefulPartitionedCall/EfficientNetV1B3/stack_5_block4_sortcut_conv/Conv2D_bn_offset", "shape": [1392], "dtype": "float32"}, {"name": "StatefulPartitionedCall/EfficientNetV1B3/stack_5_block4_MB_dw_/depthwise_weights", "shape": [5, 5, 1392, 1], "dtype": "float32"}, {"name": "StatefulPartitionedCall/EfficientNetV1B3/stack_5_block4_MB_dw_/depthwise_bn_offset", "shape": [1392], "dtype": "float32"}]}]}